results/TestParameters/MoveToGoal.onnx (onnx, 73419 bytes, 7 tensors)

network_body._body_endoder.seq_layers.0.weight f4 [128, 6]
-0.46416283 -0.008298559 0.413492 0.41318733 0.24266197 0.2785752 -0.4815191 -0.23726766
-0.33554858 -0.11364467 0.26813677 0.28142226 0.44342604 0.28750598 -0.41750634 -0.8655796
0.47301626 -0.29700407 0.23815764 -0.35299942 -0.25004232 -0.09559493 -0.53693134 -0.23355868
0.17338835 -0.15669845 0.0064310553 0.13933548 -0.5417119 -0.023304507 0.07919745 -0.38047603
-0.22716804 0.3327874 0.7466196 -0.14253236 0.10175889 -0.10876526 0.2797609 -0.20902427
-0.07934624 -0.07787814 -0.64230484 0.47694808 0.2674173 0.24436629 -0.12410124 0.04869634
-0.0075437464 0.6158606 -0.36781946 -0.0569556 0.1065998 0.40219986 0.22038661 0.48229578
-0.07473603 0.6401033 -0.20040354 0.3227075 -0.65051335 -0.056707498 0.72397 -0.108997814
-0.053485908 0.32326546 -0.2474329 0.8381128 0.3871058 -0.6494959 0.05426005 0.25829214
0.2229809 -0.83232814 0.45432958 0.72557044 -0.010307209 -0.44761997 0.56646115 0.549599
-0.3248233 -0.07605988 0.48156422 4.427621e-05 -0.018598625 0.94278604 0.5576645 -0.5760961
-0.07008685 -0.15510806 -0.36647236 0.80022514 0.08919682 0.29450634 -0.2311042 0.24348767
0.3063058 -0.30512932 0.5488354 -0.44552642 0.15285707 -0.35038504 -1.3027931 0.44553754
0.0008021851 0.057563867 0.2155429 -1.0096889 -0.25840527 -0.07831936 -0.46196872 -0.15891008
-0.33502892 0.023722552 0.53126985 0.50656986 -0.032224752 -0.18006702 0.606708 0.55473727
-0.012447171 0.012388479 -0.89078903 0.39168975 0.3572986 -0.8307478 0.09816324 0.32200697
-0.20514926 0.06556509 0.3757937 -0.18176536 -0.7032971 -0.024832169 -0.047600616 -0.51147574
0.9285212 -0.073997 -1.1203316 -0.33938643 0.17958869 -0.4046352 0.4935623 0.05629077
-0.36222374 -0.20647696 -0.6990319 -0.011511873 -0.7002607 0.27356547 0.16126804 -0.33226776
0.26855874 -0.47867638 0.018285442 0.80632037 0.84105873 0.21759517 -0.4418619 -0.546074
0.22034074 -0.5684472 0.79016566 0.6560245 -0.2789841 0.5723065 -0.366334 -0.010139679
0.13327394 0.76974314 0.0060029943 0.8373374 0.35507378 -0.088940315 -0.38302183 -0.06467586
-0.24663697 -0.21234123 -0.059059672 0.41926965 -0.5580519 -0.32485622 0.36840275 0.45504582
0.48817706 -0.010101762 0.36299163 0.5098996 -0.5278912 0.39876825 0.55981714 0.24812031
-0.58269984 0.122561276 0.14206958 -0.5463482 -0.27165034 -0.36788055 0.3420759 0.117014
0.09482468 0.1427661 0.054283015 0.8483684 -0.447929 0.4711466 -0.020545524 0.39452705
0.0026496563 0.74702543 -0.14497271 0.4209619 -0.33322403 -0.18324326 0.08251792 0.2061109
0.14779802 -0.20405015 -0.5435466 -0.20032616 0.04284827 0.34294257 -0.39452899 0.20519829
-0.0055108303 -0.042658318 0.34532338 -0.6971358 0.50342643 -0.60613364 -0.29053718 -0.19327049
0.27722505 -0.38147697 -0.20924918 0.16323516 0.47614408 0.02960954 -0.7563173 -0.061238997
-0.18211596 0.21196553 0.32399747 -0.3045251 -0.03468791 -0.6414176 0.038451515 -0.5177259
0.2515204 -0.36237144 0.4116962 -0.45138067 0.3795292 -0.47257215 0.7861249 -0.2844008
00000000: c0a6 edbe aef6 07bc 39b5 d33e 4a8d d33e
00000010: 617c 783e 69a1 8e3e ac89 f6be 4bf6 72be
00000020: 06cd abbe 89be e8bd 3949 893e 9416 903e
00000030: bd08 e33e fc33 933e 64c3 d5be a096 5dbf
00000040: 302f f23e eb10 98be 99df 733e 57bc b4be
00000050: 8c05 80be 46c7 c3bd 5574 09bf 022a 6fbe
00000060: b78c 313e 8f75 20be 9abb d23b f6ad 0e3e
00000070: a2ad 0abf 18e9 bebc 4632 a23d c1cd c2be
00000080: bd9e 68be 1c63 aa3e 7622 3f3f 01f4 11be
00000090: f766 d03d 52c0 debd d23c 8f3e 750a 56be
000000a0: 4880 a2bd 937e 9fbd 176e 24bf 8a32 f43e
000000b0: ecea 883e 283b 7a3e ca28 febd d075 473d
000000c0: 8831 f7bb 0aa9 1d3f d552 bcbe 464a 69bd
000000d0: ff50 da3d 24ed cd3e 07ad 613e 79ef f63e
000000e0: 340f 99bd cfdd 233f 9636 4dbe eb39 a53e
000000f0: 0b88 26bf 1f46 68bd 1956 393f 3f3a dfbd
00000100: 0a14 5bbd 0d83 a53e 0d5f 7dbe 8f8e 563f
00000110: bb32 c63e 5d45 26bf c93f 5e3d de3e 843e
00000120: 1b55 643e 7513 55bf e39d e83e fcbe 393f
00000130: 91df 28bc 722e e5be 9903 113f 85b2 0c3f
00000140: 3d4f a6be 48c5 9bbd 968f f63e 38b5 3938
00000150: 255c 98bc 6d5a 713f 1ac3 0e3f 097b 13bf
00000160: b289 8fbd a6d4 1ebe 44a2 bbbe 8edb 4c3f
00000170: d3ac b63d 89c9 963e 94a6 6cbe d554 793e
00000180: 1dd4 9c3e e939 9cbe 7a80 0c3f 0a1c e4be
00000190: 9086 1c3e ab65 b3be edc1 a6bf 7f1d e43e
000001a0: bb49 523a 17c8 6b3d 47b7 5c3e 7c3d 81bf
000001b0: b24d 84be e765 a0bd 2a87 ecbe 53b9 22be
000001c0: e988 abbe cc55 c23c 4d01 083f 90ae 013f
000001d0: 1afe 03bd 7d63 38be 3751 1b3f 4303 0e3f
000001e0: 38ef 4bbc 0cf9 4a3c c00a 64bf 8f8b c83e
000001f0: d8ef b63e e3ab 54bf cf09 c93d 19de a43e
00000200: a612 52be fd46 863d 0868 c03e b320 3abe
00000210: 470b 34bf d56c cbbc ddf8 42bd 13f0 02bf
00000220: 91b3 6d3f bd8b 97bd 0767 8fbf 0fc4 adbe
00000230: 19e6 373e 582c cfbe 33b4 fc3e 2791 663d
00000240: 6475 b9be b26e 53be c1f3 32bf 4c9c 3cbc
00000250: 4944 33bf c610 8c3e 7323 253e 001f aabe
00000260: 8880 893e 1215 f5be 5acb 953c 036b 4e3f
00000270: a04f 573f 45d1 5e3e b93b e2be 81cb 0bbf
00000280: 01a1 613e c185 11bf 4c48 4a3f 39f1 273f
00000290: 01d7 8ebe ae82 123f 2190 bbbe e520 26bc
000002a0: f778 083e e30d 453f c4b4 c43b be5b 563f
000002b0: 3bcc b53e 5726 b6bd 701b c4be c774 84bd
000002c0: 678e 7cbe fb6f 59be 8ee8 71bd 83aa d63e
000002d0: 7ddc 0ebf 8e53 a6be 499f bc3e c4fb e83e
000002e0: 58f2 f93e dc81 25bc 0ada b93e c888 023f
000002f0: e123 07bf 5a2b cc3e 2d50 0f3f 4013 7e3e
00000300: d12b 15bf 6801 fb3d b07a 113e 7add 0bbf
00000310: c115 8bbe d75a bcbe 9324 af3e 09a5 ef3d
00000320: 7133 c23d 4731 123e de57 5e3d ac2e 593f
00000330: f356 e5be 213a f13e 164f a8bc 73ff c93e
00000340: dba5 2d3b 0f3d 3f3f ba73 14be 5188 d73e
00000350: 579c aabe 1fa4 3bbe 28ff a83d bc0e 533e
00000360: 5d58 173e 86f2 50be df25 0bbf 4d22 4dbe
00000370: ab81 2f3d 2b96 af3e b4ff c9be 801f 523e
00000380: 3294 b4bb 7dba 2ebd 3ace b03e 7e77 32bf
00000390: 8ee0 003f 932b 1bbf 4ac1 94be b3e8 45be
000003a0: 71f0 8d3e f350 c3be 6b45 56be 1e27 273e
000003b0: 28c9 f33e b58f f23c 039e 41bf bed5 7abd
000003c0: 9b7c 3abe 7e0d 593e ffe2 a53e b7ea 9bbe
000003d0: e914 0ebd f233 24bf 567f 1d3d af89 04bf
000003e0: 48c7 803e c088 b9be d8c9 d23e 5e1b e7be
000003f0: a751 c23e faf4 f1be 7b3f 493f fb9c 91be

network_body._body_endoder.seq_layers.0.bias f4 [128]
-1.3808409e-05 -0.0005865252 -0.025983844 -0.008068635 0.0031884091 -0.0008457238 -0.015553651 0.0030927695
-3.7349812e-06 1.3563945e-06 -0.00011458605 0.003166217 0.0048673577 -0.009838301 -0.015865836 0.0043605925
0.0056518996 -0.004845305 -0.009203123 -1.886128e-08 -0.015554538 0.0038897272 -0.0049340045 -0.009915337
-0.0042042052 2.3743397e-08 -0.027181579 -0.0068909368 -1.3875899e-05 -0.0010583905 -0.0046734526 -0.0029109684
-0.00519564 7.806943e-13 1.6295652e-07 0.00011419248 -0.00044408796 -0.019184668 -0.006326416 -0.0019822717
-0.006553988 0.0045529543 2.0686084e-08 -0.0097338585 -1.7382513e-06 -0.0009262051 -0.0044139805 -0.0068451273
0.000403695 -0.0002925368 0.008528126 7.3475814e-05 -0.01076069 -0.008870931 -1.0396192e-08 1.0270221e-07
-0.004502527 -0.009836725 0.0021202741 1.0450998e-08 -0.000120489865 -0.005078936 -0.0018454352 -0.0040117684
-0.012134876 -0.00672797 -0.030023908 -0.0024732898 -0.005485478 -0.0037451312 -0.0026484635 -0.0016356367
-0.012505876 0.001174538 -0.00515152 -0.0029842712 -0.0004574884 -0.0092862835 -0.0027583824 0.014108752
0.003372592 5.546524e-05 -0.002032094 6.934454e-05 -0.007795412 -0.0061990907 -0.0074084867 0.00045829854
1.6987196e-09 -0.00022411867 -0.0028199672 -0.0007975391 -0.00685664 -0.008478131 0.0023418663 -0.014369575
-0.001320709 -0.023740156 0.00036264787 -0.008926243 -0.017985452 -2.6568589e-05 -0.015168654 -0.0018090229
0.003782918 -0.0005836153 -0.0030121207 -0.008448516 -0.01979393 -0.0048593767 -0.004939339 -0.0034816328
-0.014772362 -0.0092107775 -0.0060997345 0.0009452344 -0.003783814 -0.008447384 -0.008423369 -0.016670657
7.311356e-19 0.006081934 -0.007880278 4.3652776e-10 2.934274e-09 -0.0089323735 -4.2789153e-12 -0.031208126
00000000: aaaa 67b7 0ac1 19ba 12dc d4bc 4f32 04bc
00000010: a1f4 503b 90b3 5dba bed4 7ebc 10b0 4a3b
00000020: 7da6 7ab6 5c0d b635 eb4d f0b8 4e80 4f3b
00000030: 5b7e 9f3b d330 21bc 12f9 81bc 4de3 8e3b
00000040: 9233 b93b 5dc5 9ebb b2c8 16bc 6504 a2b2
00000050: 76d8 7ebc cbea 7e3b 6ead a1bb f073 22bc
00000060: 6ec3 89bb 48f4 cb32 e7ab debc 5ecd e1bb
00000070: 88cc 68b7 b1b9 8aba c323 99bb f2c5 3ebb
00000080: 3040 aabb f4be 5b2b 26f9 2e34 9f7a ef38
00000090: 7ad4 e8b9 2a29 9dbc d34d cfbb 00e9 01bb
000000a0: d6c2 d6bb f330 953b 2eb1 b132 c37a 1fbc
000000b0: dc4d e9b5 92cc 72ba 27a3 90bb 174d e0bb
000000c0: 07a7 d339 a05f 99b9 8eb9 0b3c 0717 9a38
000000d0: 9b4d 30bc 6257 11bc f09a 32b2 238d dc33
000000e0: ef89 93bb 372a 21bc 4cf4 0a3b fa8b 3332
000000f0: 81af fcb8 346d a6bb 88e2 f1ba 2775 83bb
00000100: 5cd1 46bc 4e76 dcbb b3f4 f5bc eb16 22bb
00000110: 86bf b3bb e070 75bb d891 2dbb dc62 d6ba
00000120: 72e5 4cbc f5f2 993a 15ce a8bb c393 43bb
00000130: 0edb efb9 7f25 18bc fac5 34bb 6528 673c
00000140: b406 5d3b 59a3 6838 e12c 05bb 116d 9138
00000150: a870 ffbb be21 cbbb e4c2 f2bb ca47 f039
00000160: 6278 e930 6601 6bb9 33cf 38bb f111 51ba
00000170: aaad e0bb dce7 0abc ff79 193b 5e6e 6bbc
00000180: a41b adba b77a c2bc c621 be39 603f 12bc
00000190: 3a56 93bc 9cdf deb7 f285 78bc bc1c edba
000001a0: d5ea 773b c3fd 18ba 0067 45bb a56b 0abc
000001b0: e126 a2bc 683b 9fbb 2eda a1bb 1b2c 64bb
000001c0: c707 72bc cde8 16bc 48e0 c7bb 9bc9 773a
000001d0: ddf9 77bb e666 0abc 2c02 0abc e790 88bc
000001e0: 0bcb 5721 f64a c73b 481c 01bc d2fb ef2f
000001f0: 4ba4 4931 1759 12bc 0b8d 96ac 2fa8 ffbc

network_body._body_endoder.seq_layers.2.weight f4 [128, 128]
-0.021078188 -0.0524317 0.1176918 -0.00033071477 0.021706333 -0.0510667 0.14583482 0.14324696
0.11387432 0.012877617 -0.08190957 0.028858086 -0.061544918 0.073590145 -0.13431717 -0.01996335
-0.102335006 -0.099941805 -0.059182256 0.016858405 -0.019905644 0.07369982 0.030364932 0.01896833
-0.11154119 -0.0045370096 -0.08484796 0.028063806 0.095986016 -0.16957141 -0.005117934 0.07686183
0.11551074 -0.020971475 -0.1714374 -0.14408274 -0.12331436 -0.10168856 0.057049043 -0.018230787
0.22603862 -0.021547578 -0.044032246 0.05842682 0.033041243 -0.09087333 0.08391703 0.006618221
-0.03740338 -0.08812229 -0.033615742 -0.19390298 0.0972072 0.070640415 0.09307426 -0.046209488
-0.09207003 0.081752375 0.08174226 0.12086056 0.10832398 0.14951184 0.045723826 0.11210162
0.05164269 0.067385904 0.032461587 0.034637045 0.07219493 -0.1074376 0.079434074 -0.0636053
-0.026612766 -0.0914572 -0.06875601 -0.07181655 -0.17196442 0.016828617 -0.10308539 0.05644751
-0.0796224 0.032273203 0.08635913 0.08039197 0.061875388 0.16878222 0.070575416 -0.05109292
0.16384077 -0.05172966 -0.014000471 0.041888855 -0.18211474 -0.121013604 0.008640455 -0.0137094855
0.039909214 -0.12093759 0.17406315 -0.023719203 0.041168977 -0.032995455 -0.06448528 -0.10431519
-0.008913966 0.014445287 0.05433301 -0.058144856 -0.019874293 0.07854803 -0.07236907 0.08764321
0.14348154 -0.034195025 0.05367972 0.103466466 -0.030319741 0.09043457 0.036999132 0.027339928
-0.100164816 -0.056094427 0.101495646 -0.15024585 0.1502475 -0.08500103 -0.039271254 -0.02376802
-0.14218253 0.0069577945 -0.019985693 -0.08782515 -0.0991752 0.26326302 0.023914685 0.09850905
0.15959583 -0.09504254 -0.13698034 0.069053315 0.100709796 -0.08378972 -0.006619076 -0.010225601
-0.14503671 -0.15832357 0.084864736 0.03316013 0.006707858 0.04877625 0.08666357 0.18027167
-0.07312192 0.12352835 0.017886654 -0.013999459 -0.12330702 -0.08281254 -0.084585615 -0.10248407
0.032932837 0.032343566 0.09375124 -0.15431796 -0.08920793 0.21271949 0.007275033 -0.026198588
0.04241464 0.006600386 -0.017704679 0.15780833 0.06232969 -0.07022837 -0.06902541 -0.0014496002
0.09615347 0.04945687 -0.099791974 -0.07433808 -0.095509976 -0.07710248 -0.035840284 0.2078958
-0.061089043 -0.051239297 0.11068424 0.033285838 -0.06176578 0.10502874 0.012329987 0.028795304
0.1069127 -0.14215194 -0.039465714 -0.09708333 0.10147714 0.06602763 0.12192793 0.08301548
-0.058896895 -0.14675021 -0.04024879 -0.03141375 -0.096363574 -0.02178978 -0.12647647 -0.028010298
0.082816474 0.016944844 -0.10807923 0.08139513 0.08574981 -0.12027872 -0.026631705 0.21941768
-0.028127171 0.0111342 0.035505563 -0.16229618 0.2444364 -0.06911714 0.047723558 0.02386846
0.07887535 0.12946692 -0.052133854 -0.030546961 0.070692085 0.06818803 -0.1132177 -0.11747418
0.00085424655 0.0023790505 -0.056328095 0.029004097 0.03587665 -0.052735373 -0.0182348 -0.011519326
-0.03983681 0.096104935 -0.030460417 0.005133725 -0.019580504 0.050174028 0.02814444 0.114726156
0.17900522 0.196426 0.046776105 0.059679963 -0.059485555 0.016244786 -0.23929399 -0.058528297
00000000: 2aac acbc 9fc2 56bd 6608 f13d c963 adb9
00000010: 7bd1 b13c 512b 51bd b955 153e 55af 123e
00000020: f136 e93d a4fc 523c 34c0 a7bd cb67 ec3c
00000030: 8616 7cbd 6eb6 963d 718a 09be 2e8a a3bc
00000040: 0495 d1bd 4aae ccbd 1869 72bd a31a 8a3c
00000050: 2911 a3bc eeef 963d e1bf f83c 7963 9b3c
00000060: b56f e4bd 32ab 94bb c4c4 adbd 11e6 e53c
00000070: 5194 c43d 21a4 2dbe 58b4 a7bb bc69 9d3d
00000080: e590 ec3d 5fcc abbc 498d 2fbe 6d8a 13be
00000090: 3d8c fcbd 1742 d0bd 42ac 693d bb58 95bc
000000a0: ab76 673e 8c84 b0bc 285b 34bd f650 6f3d
000000b0: 4156 073d cc1b babd b1dc ab3d a9dd d83b
000000c0: 4934 19bd 7679 b4bd a9b0 09bd 818e 46be
000000d0: 9214 c73d ecab 903d b89d be3d 2946 3dbd
000000e0: 368f bcbd ca6d a73d 7c68 a73d be85 f73d
000000f0: f6d8 dd3d a219 193e e848 3b3d 8995 e53d
00000100: 4987 533d 9f01 8a3d 71f6 043d 93df 0d3d
00000110: efda 933d 3f08 dcbd 55ae a23d 7f43 82bd
00000120: 0403 dabc ea4d bbbd f3cf 8cbd 8e14 93bd
00000130: 7117 30be 2bdc 893c 6f1e d3bd 8135 673d
00000140: 1211 a3bd e830 043d 0edd b03d 8ca4 a43d
00000150: 0c71 7d3d 3fd5 2c3e d889 903d cf46 51bd
00000160: e0c5 273e 7be2 53bd 3b62 65bc a693 2b3d
00000170: 497c 3abe fbd5 f7bd b290 0d3c c09d 60bc
00000180: d877 233d 21ae f7bd 9c3d 323e c64e c2bc
00000190: cda0 283d 3e26 07bd dc10 84bd 34a3 d5bd
000001a0: e20b 12bc edab 6c3c 4a8c 5e3d 4d29 6ebd
000001b0: 6acf a2bc cadd a03d 3c36 94bd 497e b33d
000001c0: d3ec 123e 1510 0cbd 44df 5b3d 3ae6 d33d
000001d0: 1b61 f8bc c335 b93d 678c 173d fcf7 df3c
000001e0: 3623 cdbd 45c3 65bd f3dc cf3d 0cda 19be
000001f0: 7bda 193e 0515 aebd e5da 20bd 27b5 c2bc
00000200: 4c98 11be 36fe e33b 09b9 a3bc acdd b3bd
00000210: 5e1c cbbd 69ca 863e bbe8 c33c 1dbf c93d
00000220: 176d 233e aaa5 c2bd 9344 0cbe d36b 8d3d
00000230: f040 ce3d f299 abbd d5e4 d8bb 4789 27bc
00000240: 8184 14be 931f 22be 90cd ad3d ebd2 073d
00000250: 97cd db3b 9bc9 473d ab7c b13d 2399 383e
00000260: f2c0 95bd 6efc fc3d 0887 923c fd5d 65bc
00000270: 6488 fcbd 9f99 a9bd 393b adbd 2be3 d1bd
00000280: 95e4 063d b07a 043d a600 c03d 8705 1ebe
00000290: a6b2 b6bd 23d3 593e 6663 ee3b 6c9e d6bc
000002a0: f9ba 2d3d 0d48 d83b 6709 91bc 8298 213e
000002b0: 6b4d 7f3d e4d3 8fbd 325d 8dbd 8300 beba
000002c0: 1cec c43d 4993 4a3d bc5f ccbd 903e 98bd
000002d0: bc9a c3bd e8e7 9dbd 43cd 12bd a3e2 543e
000002e0: 8138 7abd 4ce0 51bd 6bae e23d bb56 083d
000002f0: 1dfe 7cbd 4f19 d73d b703 4a3c 21e4 eb3c
00000300: 0cf5 da3d 4790 11be cda6 21bd a0d3 c6bd
00000310: 3fd3 cf3d 7e39 873d 5ab5 f93d 0504 aa3d
00000320: df3d 71bd b045 16be eadb 24bd b4ab 00bd
00000330: 445a c5bd 7b80 b2bc 0c83 01be da75 e5bc
00000340: af9b a93d eacf 8a3c a558 ddbd 7db2 a63d
00000350: 999d af3d b154 f6bd bc2a dabc 07af 603e
00000360: f46a e6bc 386c 363c 486e 113d f830 26be
00000370: 894d 7a3e 498d 8dbd c779 433d ca87 c33c
00000380: 6689 a13d fa92 043e 4f8a 55bd 9f3d fabc
00000390: 03c7 903d 2aa6 8b3d aede e7bd 4e96 f0bd
000003a0: 84ef 5f3a d8e9 1b3b 4ab8 66bd 009a ed3c
000003b0: 65f3 123d 0c01 58bd 2661 95bc 8ebb 3cbc
000003c0: ec2b 23bd aad2 c43d 2088 f9bc ce38 a83b
000003d0: 4b67 a0bc 4883 4d3d 2b8f e63c 8cf5 ea3d
000003e0: 254d 373e e623 493e 4d98 3f3d fa72 743d
000003f0: 20a7 73bd c913 853c 7c09 75be 5ebb 6fbd

network_body._body_endoder.seq_layers.2.bias f4 [128]
-0.006251294 -0.00146426 -0.007117938 -0.0036963886 -0.0052980483 0.00022199581 -0.008838165 -0.0014295935
-0.0016476344 -0.0008500662 -0.0067596915 -0.0024397871 -0.0045422423 -0.004156387 -0.0028918455 -0.0057191355
-0.003028908 -0.0051763733 -0.0055215014 -0.0017863086 -0.009265195 -1.1768857e-12 -0.0025527636 -0.0031846475
-0.0073024807 -0.0054192697 -0.003522191 -0.0037840237 -0.010522012 -0.0048936084 -0.0030851224 -0.00027361812
-0.003581263 -0.004910873 -0.0032949683 -0.00067250786 -0.0071785776 -0.0044310503 -0.0032255407 -0.0029764257
-0.00841398 -0.0018682472 -9.447123e-05 -0.0052672904 -0.004913021 -0.0031441962 -0.0026734467 -0.00034358396
7.394692e-05 -0.0030186702 -0.00025676016 -0.005220003 -0.0036172732 -0.0056883483 -0.002407473 -0.0040675737
-0.004547522 -0.0040344875 -7.7592665e-07 -0.004833066 -0.0007995496 -0.0008934573 -0.0029402545 0.0047341282
-0.0021888432 -0.0010311004 0.00011958533 -0.007706824 -0.0044022175 -0.0004282437 -6.412027e-05 -0.009124814
-0.0037720979 -0.0076961787 -0.011470007 -0.006019231 -0.00072865695 -0.003366182 -0.0001319577 -0.0074915704
-0.004242027 -0.0016582612 -7.6034926e-06 -0.0046271915 -0.0052761645 -0.0020802815 -0.004335382 -0.0046097236
-0.004948407 -4.482373e-06 -0.006429681 -0.002815711 -0.004193789 -0.0009855095 -0.0047406275 -0.0050870804
-0.0035243535 -0.0039456137 -0.0027563623 -0.004336345 -0.004868501 -0.0012935745 -0.0009785057 -8.198829e-05
-0.00037426155 -0.010084823 -0.009714671 0.0004633173 -0.002775783 -2.1097307e-05 -2.6397488e-06 -0.0022907697
-0.0039042283 -0.002451527 -0.00492723 -0.0010361773 -0.0052845394 -0.004326646 -0.0010700253 -2.588775e-07
-0.006491916 -0.0031170822 -0.003694592 -0.00038563262 -0.0030710436 4.9955343e-06 -0.00511792 -0.0040109493
00000000: a8d7 ccbb 6aec bfba 973d e9bb 1c3f 72bb
00000010: 409b adbb 8cc7 6839 f3cd 10bc 3361 bbba
00000020: 70f5 d7ba fad6 5eba 6780 ddbb d6e4 1fbb
00000030: 17d7 94bb 4d32 88bb 1e85 3dbb 9667 bbbb
00000040: a580 46bb 919e a9bb b6ed b4bb 9222 eaba
00000050: 0bcd 17bc c7a1 a5ab 444c 27bb 85b5 50bb
00000060: a649 efbb 2194 b1bb 8fd4 66bb 62fd 77bb
00000070: 8464 2cbc 905a a0bb c42f 4abb 6774 8fb9
00000080: 9fb3 6abb 63eb a0bb 65f0 57bb 3d4b 30ba
00000090: 463a ebbb 5832 91bb 9863 53bb 2310 43bb
000000a0: cada 09bc f9df f4ba db1e c6b8 3c99 acbb
000000b0: 68fd a0bb dc0e 4ebb fe34 2fbb 0f23 b4b9
000000c0: f313 9b38 e2d4 45bb c49d 86b9 8f0c abbb
000000d0: c60f 6dbb 5365 babb b2c6 1dbb 4849 85bb
000000e0: 6103 95bb bc33 84bb 4649 50b5 b25e 9ebb
000000f0: de98 51ba e836 6aba 49b1 40bb bf20 9b3b
00000100: b272 0fbb fd25 87ba e3c9 fa38 8789 fcbb
00000110: 7a40 90bb e585 e0b9 4f78 86b8 3e80 15bc
00000120: 4d35 77bb 3a30 fcbb b2ec 3bbc f83c c5bb
00000130: 5703 3fba 2a9b 5cbb 205e 0ab9 d97b f5bb
00000140: b400 8bbb 035a d9ba 8121 ffb6 b29f 97bb
00000150: ade3 acbb 5555 08bb d20f 8ebb 2a0d 97bb
00000160: 3f26 a2bb 4a67 96b6 13b0 d2bb cb87 38bb
00000170: 0d6c 89bb 362c 81ba 4457 9bbb 86b1 a6bb
00000180: d7f8 66bb 354a 81bb 16a4 34bb e617 8ebb
00000190: f287 9fbb 288d a9ba 3441 80ba 21f1 abb8
000001a0: 8938 c4b9 d03a 25bc 492a 1fbc 65e9 f239
000001b0: e9e9 35bb 1ffa b0b7 8a26 31b6 bd20 16bb
000001c0: 15de 7fbb cca9 20bb 9a74 a1bb 57d0 87ba
000001d0: ee29 adbb 8ac6 8dbb 1740 8cba dafb 8ab4
000001e0: 23ba d4bb f647 4cbb f820 72bb bc2e cab9
000001f0: 9043 49bb 509f a736 3ab4 a7bb 486e 83bb

action_model._continuous_distribution.log_sigma f4 [1, 2]
0.009211157 0.020195724
00000000: 65ea 163c 8171 a53c

action_model._continuous_distribution.mu.weight f4 [2, 128]
-0.006695562 -0.0063128895 -0.0007688025 0.005288266 0.009616879 0.030968778 -0.006963415 0.0093234
0.0073393774 0.018797789 -0.0023506253 -0.02682888 -0.017079214 0.005403377 -0.0034468311 -0.029243369
0.00050446676 -0.009631428 0.007508586 -0.0010121848 -0.00040917788 -0.003913905 0.013264271 0.015205267
-0.0016533043 -0.020848356 0.00897228 0.01224953 0.0014528385 0.006082952 0.02461237 0.018280428
-0.013603496 -0.032018207 -0.015003873 0.022517264 -0.006058345 0.012351587 0.012782694 -0.0021362714
-0.00633507 -2.3833409e-05 -0.0075490125 0.0057436135 -0.023682158 0.023301808 -0.02879675 0.038162526
0.039017964 0.030211607 -0.023089822 0.0011274638 0.002024508 -0.008055189 0.01450354 0.009509985
-0.0043430836 0.009344453 -0.0072611137 0.0034120046 0.009101144 0.011252034 -0.012775247 0.006727152
-0.020009004 0.0021205202 0.03543236 -0.007657114 -0.0061913636 0.0014414279 -0.016948553 0.0010021309
0.041320287 -0.001965258 -8.29953e-05 -0.022617469 -0.010053102 -0.0066526905 0.0074660387 -0.0094815185
-0.0034075524 0.013172525 -0.0051234653 -0.00018457112 -0.014033358 -0.014000159 -0.0040205 -0.0335441
-0.0021134512 -0.029140932 -0.0015047297 -0.0071146092 0.014139799 0.042837765 0.011036937 -0.025031924
0.012741345 -0.0026027327 0.010528977 -0.008672197 0.008178893 0.016533185 0.022551335 0.021809105
-0.014895431 -0.0014850727 -0.0013102894 0.043838527 0.005113446 -0.010267017 -0.02644742 0.013085334
0.014511812 0.012307852 0.009657828 0.0045251665 0.0008211782 0.0049329433 0.016501524 0.023334496
0.008701181 -0.0035414603 -0.007485461 0.027204422 -0.003932693 0.0034094183 -0.019795762 -0.017646987
-0.0015563206 -0.0019002358 0.0052342266 0.017588997 0.0069160415 -0.020667056 0.001978218 -0.009260181
-0.009965137 -0.0013408904 0.011496803 0.02583246 -0.005482609 -0.032342937 0.009466847 -0.039004833
0.00201998 0.010528297 0.0058744466 0.0022020615 0.0020777858 -0.014095313 -0.008582722 0.0022088864
0.0029423216 0.0087290155 0.02773412 -0.005209257 -0.0019694034 0.009871032 -0.014372461 -0.004234378
0.01529794 -0.010597249 0.020040944 0.0021536087 -0.00079903443 -0.007517965 -0.008026138 -0.010482067
0.0073620817 9.628194e-05 0.023384571 -0.001722812 0.004251854 0.021272615 -0.025573233 -0.008553675
0.002082449 0.004328398 0.0044816723 -0.0009635843 -0.0040795957 -0.0046732537 0.02541244 0.019182144
0.015384826 0.011986583 0.00045401408 0.0034143105 -0.016267274 0.015021913 -0.014872354 -0.0039739255
-0.0015976668 -0.020393342 0.019840285 -0.005088489 0.0075212317 0.0020471672 0.012280939 0.00070653716
-0.02269212 -0.0010867792 -0.002188958 -0.016690701 -0.017395131 0.026683334 0.0022187429 0.0066931276
-0.009218424 0.0022190094 0.013989141 -0.0018554932 -0.009070676 -0.022253012 0.022773733 -0.015679423
0.0076529356 -0.023026306 0.012969688 -0.0013654472 0.008447751 0.042001754 0.0040265163 0.0010818244
-0.008147728 0.0067805815 -0.0105983475 0.011780029 -0.0028312777 -0.010057814 0.020298664 -0.006808468
0.01341349 0.0005472811 0.0001970245 -0.0056591667 -0.016862005 -0.023310108 -0.0102154445 -0.0036696424
-0.008067514 -0.00535318 -0.0010881209 -0.036170695 -0.00028716912 0.006227236 0.030202758 -0.003827444
-0.011253943 -0.0018439478 0.03513028 -0.0026981635 -0.0012782783 0.005779806 -0.010218999 0.00043936807
00000000: 7266 dbbb 5bdc cebb 7689 49ba 3149 ad3b
00000010: 1d90 1d3c 3cb2 fd3c 5c2d e4bb 2dc1 183c
00000020: 297f f03b d2fd 993c f30c 1abb 3dc8 dbbc
00000030: b5e9 8bbc d00e b13b 3be4 61bb ca8f efbc
00000040: 313e 043a 23cd 1dbc 960a f63b 49ab 84ba
00000050: ed86 d6b9 3740 80bb 6352 593c 831f 793c
00000060: b0b3 d8ba 2cca aabc 7800 133c 41b2 483c
00000070: 2c6d be3a 8053 c73b e29f c93c d6c0 953c
00000080: 33e1 5ebc 8625 03bd ced2 75bc 2076 b83c
00000090: 1585 c6bb 505e 4a3c 816e 513c b000 0cbb
000000a0: 6b96 cfbb dbed c7b7 b55d f7bb ec34 bc3b
000000b0: 1601 c2bc 6fe3 be3c 29e7 ebbc 4f50 1c3d
000000c0: 4dd1 1f3d 557e f73c de26 bdbc 68c7 933a
000000d0: 9cad 043b e9f9 03bc 41a0 6d3c c5cf 1b3c
000000e0: 6d50 8ebb 7a19 193c a3ee edbb f09b 5f3b
000000f0: f71c 153c 745a 383c 454f 51bc 716f dc3b
00000100: ece9 a3bc 6df8 0a3b 8621 113d 87e8 fabb
00000110: ece0 cabb 4bee bc3a b1d7 8abc ef59 833a
00000120: 763f 293d 8fcb 00bb c30d aeb8 4548 b9bc
00000130: c4b5 24bc d0fe d9bb aca5 f43b 5f58 1bbc
00000140: 3e51 5fbb 93d1 573c bee2 a7bb 6f89 41b9
00000150: 2bec 65bc ec60 65bc 66be 83bb 8a65 09bd
00000160: d481 0abb f7b8 eebc 5a3a c5ba ab21 e9bb
00000170: 9eaa 673c a776 2f3d 45d4 343c c00f cdbc
00000180: 13c1 503c 9c92 2abb bb81 2c3c d515 0ebc
00000190: c300 063c 9a70 873c 94bd b83c 02a9 b23c
000001a0: f70b 74bc c5a6 c2ba 04be abba 0790 333d
000001b0: b28e a73b fe36 28bc 42a8 d8bc de63 563c
000001c0: f3c2 6d3c dfa6 493c de3b 1e3c d947 943b
000001d0: 5644 573a 87a4 a13b 342e 873c fc27 bf3c
000001e0: 668f 0e3c d817 68bb 9948 f5bb cfdb de3c
000001f0: d2dd 80bb 8c70 5f3b b92a a2bc 6a90 90bc
00000200: 74fd cbba 5511 f9ba e083 ab3b cd16 903c
00000210: f69f e23b f54d a9bc fea4 013b 04b8 17bc
00000220: d044 23bc d1c0 afba 165d 3c3c 989e d33c
00000230: 75a7 b3bb 077a 04bd d61a 1b3c 88c3 1fbd
00000240: a461 043b e17e 2c3c 6e7e c03b 7650 103b
00000250: 762b 083b 07f0 66bc 8c9e 0cbc f7c2 103b
00000260: f7d3 403b 2504 0f3c aa32 e33c 6ab2 aabb
00000270: 1b11 01bb 1cba 213c 787a 6bbc 8ac0 8abb
00000280: 36a4 7a3c 15a0 2dbc e82c a43c 8f23 0d3b
00000290: 4b76 51ba 4359 f6bb 1080 03bc fabc 2bbc
000002a0: 9e3d f13b f9ea c938 0091 bf3c facf e1ba
000002b0: 2353 8b3b e843 ae3c f57e d1bc b724 0cbc
000002c0: b279 083b 3cd5 8d3b feda 923b 0c99 7cba
000002d0: 21ae 85bb 1822 99bb c02d d03c df23 9d3c
000002e0: a310 7c3c 5f63 443c bd08 ee39 a0c2 5f3b
000002f0: f242 85bc 781e 763c 2dab 73bc b437 82bb
00000300: cd68 d1ba f00f a7bc 1888 a23c 57bd a6bb
00000310: aa74 f63b c429 063b fe35 493c e836 393a
00000320: d3e4 b9bc 4272 8eba 9f74 0fbb f0ba 88bc
00000330: 3c80 8ebc 0297 da3c 5468 113b 0652 db3b
00000340: df08 17bc cd6c 113b b632 653c 0534 f3ba
00000350: 2c9d 14bc f34b b6bc fb8f ba3c 2272 80bc
00000360: 7ac5 fa3b aaa1 bcbc d07e 543c cef8 b2ba
00000370: 7068 0a3c 080a 2c3d def0 833b 01cc 8d3a
00000380: 0c7e 05bc a42f de3b b1a4 2dbc 0601 413c
00000390: f58c 39bb 88c9 24bc 6249 a63c 9219 dfbb
000003a0: 41c4 5b3c 6a77 0f3a 5d98 4e39 8870 b9bb
000003b0: 3022 8abc d7f4 bebc ae5e 27bc 627e 70bb
000003c0: 9b2d 04bc bb69 afbb 479f 8eba b927 14bd
000003d0: 308f 96b9 d70d cc3b c66b f73c dbd5 7abb
000003e0: 7562 38bc 9fb0 f1ba c5e4 0f3d acd3 30bb
000003f0: e78b a7ba 8764 bd3b 976d 27bc fc5a e639

action_model._continuous_distribution.mu.bias f4 [2]
0.0023735012 -0.0007521833
00000000: be8c 1b3b 2b2e 45ba
