results/MoveToGoal/MoveToGoal.onnx (onnx, 73419 bytes, 7 tensors)

network_body._body_endoder.seq_layers.0.weight f4 [128, 6]
00000000: a1f4 293d c594 dd3c c995 86be cca6 3abf
00000010: ab58 d8bc 912e 133f 326b 01be ae5b 7abe
00000020: 7ed1 523e 9f06 aabd 453f 603f 4392 5abf
00000030: 2261 883e 0ced dcbe 8db3 903e f709 383e
00000040: eb50 943d 86b8 8d3e e40c 91be 3add 923e
00000050: 34ec da3e 21b8 a9be 9a1b 143f 3756 c8be
00000060: a9fe 1fbd d79f 783e a57a 1c3f d071 17bf
00000070: 2d1e 793e 7fc4 703d d988 d93d 4a0e cb3e
00000080: aafc d23c 66a0 e3bc 9888 0e3e b173 493e
00000090: 7e56 64bd cdd5 cd3e fb6f 27be e730 913e
000000a0: ef71 29bf a484 8cbe 578b 90be 98c5 a83e
000000b0: be50 ccbe 1cda ddbe 4a93 f83c 1d52 51be
000000c0: 0dd1 93be 3c95 ce3e b517 b03e 60bb f3bd
000000d0: 8a5b 163e c120 8e3e d83d 35be 437a 8ebe
000000e0: b571 1a3d b9ad 653d 5163 01bf 9a81 81bf
000000f0: bc7b 3fbe 9337 9e3d 8a3f 2dbf 201c 3bbf
00000100: d030 3e3e 51b7 ddbe b67d 3c3e a3ed 26be
00000110: e5dc 303e d005 7abe c533 1dbf 796b 663f
00000120: 5ee5 bb3e 1bc7 09bc c94e e43d afbf 49be
00000130: c96e 0cbf 4146 6bbe 8a5d f23e 2942 213f
00000140: 41f4 153e 7809 dfbd a83c 0fbe 4af0 1c3f
00000150: a52f 15be 65c8 3f3f 689b 1b3f 4ec8 a73e
00000160: f23e 5c3e 00f5 843e 437c b73d a1b1 c03e
00000170: d72c 783e d25b 80be 69ce 0f3f 206c 193d
00000180: 15ff e9be 0ce0 433e 010d 023f 647a d23e
00000190: 328f bc3d 6337 d53e fec4 31be ae2a 16bf
000001a0: d3f7 8f3e 715d 93be cef1 543f ae2e 37bf
000001b0: f89d 443f e25e be3e b729 0e3e 7047 7e3e
000001c0: 32ae 48bf 7501 adbd 9e02 c13e 4960 7a3c
000001d0: 1fd3 7cbd 63d2 a0bd 4e98 d6be 276a 49bf
000001e0: 69fe e0bd abc4 66bc 82a8 60bd 9f00 e2be
000001f0: 5803 843e cbec a53d 653a fe3c d443 5cbe
00000200: 9e44 14bd 3262 8d3d 1162 503e b53b 243f
00000210: ad52 123e 63b9 d23e 44ce 573d e87e db3d
00000220: bd62 88be 98c0 b1be 71d0 6a3e dc27 84be
00000230: d07f a33e 54d4 abbd 9e94 3b3f 9dd9 5bbf
00000240: 6e0e 59bf c64f 22bf 4ce7 da3e 48e1 083d
00000250: 82c6 863e e0b8 8cbe 8624 033e f8bc 5cbe
00000260: a5ef 06bf 7ee3 6ebd 02fc 1bbe 12f6 e1bd
00000270: 12d9 853e c28f 0bbe f303 38be ee39 78bf
00000280: 2ab9 153f 26bf 2b3e 9232 e63d 2a5b 40be
00000290: c4b3 d53d b8f3 69bf 4c09 67bd 8ce8 a5be
000002a0: 0203 a3be 8495 8ebe 5aa8 5f3e d64a adba
000002b0: 6f85 85bd fe10 13bd 46f3 6c3f 9d09 69be
000002c0: 6d73 1c3f 2981 203f 152a 743c 76cf 4fbd
000002d0: 7ac9 d8be 0c7b ebbe ef18 ef3c 8179 443e
000002e0: 91b1 09bf dd31 463e 994b 643f b90a f43e
000002f0: 4d20 4abe e40b 513f 073b 2cbd 9b60 a23e
00000300: 492c 2cbf de9d 28be 0f35 f6be 476f 96be
00000310: 9021 93bf 486b d5be 79f6 09be ad66 ffbd
00000320: cbff 723d d334 293e efa0 91be 2260 1e3e
00000330: eeb8 2a3e 5bfc 1d3f d1aa 2abf 8de1 8ebe
00000340: 5b79 19bf 32c5 05bf 6c5d abbe c6a7 4abe
00000350: 7d8b c93e 9f36 623e 2490 d8be ccd1 3d3f
00000360: 8f59 093e f380 8abf 7ecc 903e efa5 b0bb
00000370: 7663 30bd 8655 583e f9d2 e9be 9708 11be
00000380: c655 953e 79d9 0e3e 52bb d0be b785 ac3e
00000390: 8618 2e3f 49ec 34bf bacd 07bf 0c1e 423f
000003a0: feb2 833f 3708 ae3e 82d0 303e fdf9 203d
000003b0: d80a 16be 98f8 823e bf17 313f 2f6e b33e
000003c0: 502d b23e d745 debd f2be 35be 950a e23e
000003d0: 89d1 f0be 1239 7d3e ec60 77be bba7 94bd
000003e0: c525 a63e 7e99 4b3e 1e7b 3fbf e377 22be
000003f0: d0f5 e93e 6d87 ac3e e058 35be 6256 b53e
0.041493062 0.027048478 -0.26286152 -0.7291076 -0.026409468 0.5749293 -0.12638548 -0.24449036
0.20587727 -0.08302044 0.8759654 -0.8537943 0.26636606 -0.43149602 0.28261986 0.17972551
0.072419964 0.27679843 -0.28330147 0.28684407 0.42758334 -0.33148292 0.57854617 -0.39128277
-0.039061222 0.24279724 0.6112464 -0.5915804 0.24327917 0.058781143 0.10621805 0.3965934
0.025755245 -0.027786445 0.13919294 0.19673039 -0.055746548 0.4020218 -0.16351311 0.28357622
-0.66189474 -0.27444947 -0.28231308 0.32963252 -0.3990535 -0.43330467 0.03034367 -0.2044148
-0.2887043 0.40348232 0.34393087 -0.11900973 0.14683357 0.27759364 -0.17699373 -0.27827653
0.037706096 0.056073878 -0.5054217 -1.0117676 -0.18699545 0.07725444 -0.6767508 -0.7308979
0.18573308 -0.43303922 0.1840733 -0.16301589 0.17271765 -0.2441628 -0.6140712 0.9000774
0.3669843 -0.008409287 0.111478396 -0.19702028 -0.54856545 -0.22976018 0.4733699 0.6299158
0.14643957 -0.10890478 -0.13987982 0.6130415 -0.14568956 0.7491515 0.60784006 0.32770008
0.21508387 0.2596817 0.08959248 0.3763552 0.24235855 -0.25070053 0.5617433 0.03745663
-0.45702425 0.19128436 0.5080109 0.41109002 0.09207 0.4164382 -0.17360303 -0.58658874
0.28118762 -0.28782228 0.83181465 -0.715556 0.7680354 0.37181765 0.138831 0.24831939
-0.783908 -0.084475435 0.3769731 0.015281745 -0.06172478 -0.07852628 -0.41913074 -0.786776
-0.10986025 -0.014084975 -0.0548482 -0.441411 0.257838 0.08101805 0.031033704 -0.2151025
-0.03619825 0.06903495 0.2034991 0.64153606 0.14289351 0.41157064 0.052686945 0.10717565
-0.2663783 -0.3471725 0.22931077 -0.2581166 0.3193345 -0.08390108 0.73273647 -0.85878927
-0.8478764 -0.63402975 0.4275459 0.03341797 0.26323324 -0.27484798 0.12806901 -0.21556461
-0.5270942 -0.058322422 -0.15232852 -0.11033262 0.26142174 -0.13629058 -0.17970257 -0.96963394
0.5848566 0.16772136 0.11240114 -0.18784776 0.10434678 -0.9138751 -0.05640535 -0.32403982
-0.31838232 -0.27848446 0.21841565 -0.0013221155 -0.06519591 -0.035904877 0.92558706 -0.22757573
0.61113626 0.6269708 0.014902611 -0.05073496 -0.42341214 -0.45992315 0.029186694 0.19186975
-0.5378657 0.19354959 0.8917785 0.4766443 -0.19738884 0.8165877 -0.04204848 0.3171433
-0.67255074 -0.16466472 -0.48087355 -0.29381773 -1.1494617 -0.41683412 -0.13472928 -0.12470756
0.059325974 0.16524057 -0.28443095 0.1546636 0.16672108 0.6171319 -0.66666895 -0.27906457
-0.599508 -0.5225402 -0.33469713 -0.19790563 0.39364234 0.22091149 -0.4229747 0.7414825
0.1341307 -1.0820602 0.28281015 -0.0053908746 -0.043063603 0.21126375 -0.45668772 -0.14163433
0.29167002 0.13950147 -0.40767914 0.33695766 0.6800617 -0.7067304 -0.5304829 0.758271
1.0288999 0.33990642 0.1726704 0.039300907 -0.14652574 0.25580287 0.6917686 0.35045
0.34800196 -0.10853165 -0.17748621 0.44148698 -0.47034863 0.24728802 -0.24158067 -0.072585545
0.3245069 0.19882771 -0.74797237 -0.15866046 0.45695353 0.33697072 -0.17709684 0.35417467

network_body._body_endoder.seq_layers.0.bias f4 [128]
00000000: 2bbc 823b 9b6e 2bba 551d c2b5 4ce0 e2ba
00000010: e748 373c 318d ddba da9e 83ba 6e58 0cbb
00000020: 3a9e 96b8 a204 11bb f2f6 caba 33de 0331
00000030: c063 bd39 6ffd 58ae 7d49 98ad 48a5 0f3b
00000040: a94c d430 4a12 51bb b912 e1b9 de96 ba39
00000050: 133b 88ba 4c3b ab35 f099 01bb c198 a43a
00000060: 239d 7c3a 4ecc 2cba dd6f c9ba a211 a3ba
00000070: 7c8c 7dba a452 62a9 7877 d23a 085c 6cab
00000080: 8157 02ba aea2 3ebb 6e9a e4ba cb27 892e
00000090: 7bca e63b 6811 403b 3cb0 f036 4c12 7737
000000a0: d414 c239 418a 693a 5921 b7b8 b818 02b9
000000b0: 7786 17bb e4fb 6ab6 4181 28ba 6ca7 ceba
000000c0: 754e 8fb3 f1c5 9eba a68c 393c 96e7 cbba
000000d0: db96 13bb cd89 ac33 d6ab e8ba 9c8e 1eb5
000000e0: 5676 2eb8 28ad 80ba e00b 3bba 434f d2ba
000000f0: c72b b73a 48a9 a3bb 8574 573c 5097 3ebc
00000100: e03f 66ba 1f0d aab7 adda 16ba 30fd 6bba
00000110: 9ddf 153a f070 bf39 82b9 f43a 09a9 b7ba
00000120: 59c8 9739 d2c6 fcba 5821 92bb 57ec fcb9
00000130: c2b7 e9ba 88b9 053d e7be 04bb e26b bdba
00000140: 6a13 84ba 41d5 a6ba 0098 01ba eaba d73a
00000150: 170f ba35 a0f7 c538 e56e 4a3b d3c2 d837
00000160: b513 faba 83b7 e0b9 d9ae 23b7 975c 29bc
00000170: 849f 0734 a5a9 63ba 5753 cb3b c11f 13b8
00000180: 9c97 97b7 7d6e c63b b470 1026 5f06 5a3a
00000190: 934a 772d a761 9cbb c05f 972d 56fa 79ba
000001a0: cdec d6b3 0ba9 f938 8f98 e231 6f9f 61bb
000001b0: b64d c13b 9b17 6d3b 6b32 fdae 065c 2cba
000001c0: 9df4 ce31 15d4 3cba 7410 6c3a 307f 03bb
000001d0: 6946 eb3b 1965 d8ba e6a1 4935 c4ce 1a3a
000001e0: 1f13 4a3b 613f 66bb d30a 7dbb 1c67 3bb9
000001f0: 23f2 cab4 700c 473a 9fa8 3234 f4fb 59ba
0.0039897165 -0.0006539614 -1.4462663e-06 -0.0017309277 0.011186815 -0.001690304 -0.0010041848 -0.0021415013
-7.1820294e-05 -0.0022128006 -0.0015484972 1.9189315e-09 0.0003612321 -4.9337808e-11 -1.7313035e-11 0.0021918584
1.5446818e-09 -0.003190177 -0.00042929294 0.0003558909 -0.0010393582 1.275775e-06 -0.0019775592 0.0012557731
0.00096364523 -0.0006591723 -0.0015368421 -0.0012441168 -0.0009672118 -5.025376e-14 0.0016057333 -8.397176e-13
-0.00049721455 -0.0029088664 -0.0017441043 6.2371074e-11 0.0070431805 0.002930725 7.1730738e-06 1.4726607e-05
0.00037018082 0.0008908846 -8.7323315e-05 -0.00012406975 -0.0023120919 -3.5015337e-06 -0.0006427952 -0.0015766448
-6.673228e-08 -0.0012113434 0.011325037 -0.0015556689 -0.0022520337 8.03444e-08 -0.0017751406 -5.906711e-07
-4.159504e-05 -0.000981723 -0.00071352534 -0.001604535 0.0013974839 -0.004994545 0.013150339 -0.011632755
-0.0008783322 -2.027169e-05 -0.0005754631 -0.00090022665 0.000571722 0.00036514504 0.0018671008 -0.0014012168
0.00028950235 -0.0019285327 -0.0044595413 -0.00048241272 -0.0017831253 0.03264764 -0.0020255388 -0.0014451707
-0.0010076587 -0.001272835 -0.0004943609 0.0016458903 1.3862472e-06 9.439816e-05 0.0030888852 2.5839929e-05
-0.001907936 -0.00042861336 -9.756267e-06 -0.010337017 1.2630886e-07 -0.0008684642 0.0062050032 -3.5077104e-05
-1.8071201e-05 0.0060556517 5.0112777e-16 0.00083169894 1.4056883e-11 -0.0047723833 1.7209234e-11 -0.0009535899
-1.00082254e-07 0.00011904732 6.5948096e-09 -0.0034427305 0.0058991564 0.00361774 -1.1514064e-10 -0.0006574992
6.0231984e-09 -0.00072032335 0.0009005137 -0.0020064823 0.0071800244 -0.0016509622 7.511393e-07 0.0005905444
0.003083415 -0.0035132992 -0.0038611188 -0.00017872121 -3.780161e-07 0.0007593101 1.6638886e-07 -0.0008315437

network_body._body_endoder.seq_layers.2.weight f4 [128, 128]
00000000: 3d01 b0bc 85b6 ca3d 35a0 093e 5f4a c8bd
00000010: d6c8 38bd 26d4 9fbd 176e 23be b29d 21be
00000020: 4760 c6bd 5831 81bd 84a8 9a3d 22e6 d83b
00000030: bc12 76bd ea2f 82bd 4b23 4a3b 5116 5e3d
00000040: 60f1 41be dd8a 91bd f8ce a7bc e264 e3bd
00000050: 74c2 0b3e 68ad 383c bc7d ee3c 8973 07be
00000060: 5522 603b 35b3 4e3d fe7d 88bd edf5 1e3d
00000070: 9a96 a43d 3eba cfbd b54a 99bd f51d 4a3c
00000080: 04dd 73bd dd26 123c c216 823d 72d3 123d
00000090: 8a15 3abd f59c cabb bb41 ed3d 10c7 663d
000000a0: ac8c 033d 61cc b13b b570 013d 0511 c43c
000000b0: c50e 3cbe 0dec 2d3d 3095 52bd 9bb0 563c
000000c0: 5535 8a3d 184e c73d 7e72 1d3e aecd 43bd
000000d0: fa23 a6bd badd 07be ea4c 8e3c d7db d1bd
000000e0: c2c9 17bd bbff 57bd f233 91bc 37e5 ccbd
000000f0: 6c0f ddbc e455 f83d a8f0 d8bc 0a7b 763b
00000100: 4c86 813e 0fd2 fe3d 60f9 233d aec0 cd3c
00000110: a913 cbbd 61f2 ec3d c785 243d 413d 9f3d
00000120: 6b35 0ebd c5bc 173d d10f 5e3d 02bd e4bd
00000130: 0642 24be 4582 dabd 4689 f5bb 5906 283d
00000140: 3e75 e83d a93f b0bd 94d5 d63d ed70 303d
00000150: a488 0cbd d485 5c3d d52f 20bd ea9c b23d
00000160: c361 cdbd 7ae4 efbc 1d66 2ebe 36f5 0ebd
00000170: d25f e3bd 9074 c8bd 70fa 22bd b7fc e8bd
00000180: d591 45bd 20b3 e8bd d472 74bd faf8 943d
00000190: 3018 b03d b567 30bd e50c ea3d 86bd 3db9
000001a0: 3293 413e c990 a6bd 2b1f babb 77e4 c03b
000001b0: 83b4 ebbb d17e c43d 5946 62bc b5bb 173e
000001c0: bef5 bf3c 2e93 50bd a30c ec3b a088 9cbb
000001d0: 951a ecbb 7274 bebc 7573 b9bb ded9 163c
000001e0: 1d26 f6bc 3082 56bd 0ac6 33bc 2462 4cbd
000001f0: 386c aabd 3c16 2dbe 7605 7dbd 2202 34bc
00000200: dd74 c0bd b0f5 babd b45d 523b 899d 173d
00000210: 384b dbbc 5782 913c 94ea 70bd 1f89 84bd
00000220: 98a9 b13d 31ff 273c 97af 1d3c ff4a 95bb
00000230: ed4b 27bd 3146 f6bb 7a57 093e 4c32 c83d
00000240: 4107 133b 8e1f e9bc b6e2 fb3c dbb1 f43d
00000250: d42b 63bd a8c1 d23d 98d0 ad3b 58ae ca3c
00000260: 68bf 1dbd 45e1 02be a496 0abe 92d4 00bc
00000270: 3f8f 323d 68ef 07bd 81b5 fbbd 9ff6 85bc
00000280: d27a bfbc 486b 8e3d bbe6 8f3d 26c4 8e3d
00000290: e02e 95bc fb03 d83d f673 3f39 e191 1e3e
000002a0: b0cc 743d 1d07 a8bb eb82 88bc eeff 9ebc
000002b0: e074 11bd ccf9 96bd 40db 1c3d a3e4 22bd
000002c0: 63fa 2ebd d2e4 5b3c 7e39 1c3d 22b7 83bc
000002d0: 441d 94bd 2245 be3d 7e5c 0a3e 8fb7 673d
000002e0: 79b6 8dbd 0c06 2bbc 1ed8 17be 9dae 993d
000002f0: 19d3 413e 2817 f93c 8ca1 7cbc 4585 9cbc
00000300: 4968 73bc 28b9 9ebd 6af7 46be 3555 d93d
00000310: b8c1 a63d 4d2f b6ba a0f2 2e3e 0476 80bd
00000320: c335 063c 357d 963d 33cc 6e3e 5d7b 0cbd
00000330: a0f2 f83d a835 013d f628 f0bb 05bc 11bd
00000340: fcba b4bd dec2 aabc 1763 43bc 23b1 953c
00000350: aebf 2abe 2935 d9bc 2f9c 45bd 8f3a 86bd
00000360: 76e8 7a3d 7918 123d 9957 033d 062f 6abe
00000370: caba d23d 3b7c a13d a959 c1bd 077a c9bd
00000380: 51fc 28bd ade0 663c 2ec7 bebd 5e3a 2d3d
00000390: 8f31 70bd e20d d0bd 182a 60b9 495e 3d3d
000003a0: 2777 14be cf0f e93c 1f27 68bd 4bf1 b1bd
000003b0: adef b03d ae52 583b 55d4 f93d d5a3 0b3e
000003c0: a90b b13d 9a7b 02bd aa88 88bd 9818 69bc
000003d0: c46c c3bd cd75 7c3d 37e9 db3d 0654 1dbe
000003e0: c023 703d 8910 66bd c580 94bc 0e61 5ebd
000003f0: e53e 233d 8b54 70bd 79d7 1a3e 9e46 573d
-0.021484965 0.09898094 0.1344002 -0.0977981 -0.045113407 -0.07804136 -0.15959965 -0.15782812
-0.09686332 -0.0630824 0.07551673 0.006619231 -0.06007646 -0.06356795 0.003084379 0.0542205
-0.18939734 -0.07106564 -0.020484433 -0.11103226 0.13648397 0.011271812 0.02911269 -0.13227667
0.003420015 0.050463874 -0.06664656 0.03880875 0.080365375 -0.10142945 -0.07484952 0.012336244
-0.05953695 0.008920399 0.06351997 0.03584618 -0.045430698 -0.0061832615 0.11584803 0.056342185
0.032116577 0.005425975 0.031601626 0.023933897 -0.18365009 0.042461444 -0.051411808 0.013103629
0.067484535 0.09731692 0.15375707 -0.047803573 -0.08112331 -0.13268176 0.01737066 -0.10247009
-0.037057646 -0.052734118 -0.017724965 -0.10004657 -0.026984893 0.12125757 -0.026481941 0.0037609958
0.25297773 0.12442409 0.040032744 0.02511629 -0.09915859 0.115696676 0.040166643 0.07775355
-0.034718912 0.03704526 0.054214302 -0.11168863 -0.16040811 -0.10669378 -0.007493171 0.04102168
0.11350487 -0.08605892 0.104899555 0.043076444 -0.03431 0.053838566 -0.039108116 0.08721335
-0.10028412 -0.02928375 -0.1703114 -0.03490182 -0.11102261 -0.097878575 -0.039789617 -0.113763265
-0.04823478 -0.113622904 -0.05967982 0.07274051 0.085983634 -0.043067653 0.11428241 -0.00018095048
0.18903807 -0.08133084 -0.005679985 0.00588661 -0.0071931495 0.09594501 -0.0138107175 0.14817698
0.023432609 -0.05092161 0.007203655 -0.004777029 -0.0072053173 -0.023248885 -0.0056595155 0.009207217
-0.03004747 -0.05237025 -0.010972509 -0.04989828 -0.08321422 -0.16903013 -0.061772786 -0.010986837
-0.0939729 -0.091288924 0.0032099308 0.03701547 -0.026769266 0.017762346 -0.05881746 -0.06471466
0.086749256 0.0102537135 0.009624383 -0.0045560594 -0.040843893 -0.0075156917 0.13412276 0.09775218
0.0022434744 -0.02845743 0.030747753 0.11947986 -0.05546172 0.10290843 0.0053044073 0.024741337
-0.038512617 -0.12781246 -0.13534027 -0.007863181 0.04359364 -0.0331873 -0.122904785 -0.01635295
-0.023373995 0.06954056 0.0702643 0.06971006 -0.018210828 0.10547634 0.00018258378 0.15485336
0.059765518 -0.005127801 -0.016663989 -0.019409146 -0.03551185 -0.07371864 0.03829503 -0.039768826
-0.042719256 0.013421254 0.038140766 -0.016078535 -0.072321445 0.0929053 0.13511845 0.05657154
-0.069195695 -0.010438453 -0.14828536 0.07504008 0.18928184 0.03040655 -0.015419375 -0.019106517
-0.0148564065 -0.077501595 -0.19430318 0.10611955 0.08142418 -0.0013899595 0.17084742 -0.0627251
0.008191529 0.073481 0.23320083 -0.034297336 0.12155652 0.03154531 -0.0073291017 -0.0355797
-0.08824727 -0.020844873 -0.01192548 0.018272942 -0.16674682 -0.026514607 -0.04824465 -0.06554138
0.06125685 0.03566787 0.03206596 -0.228695 0.102895334 0.07885023 -0.094409294 -0.09837728
-0.041256253 0.014091653 -0.09315334 0.04229199 -0.058641013 -0.10158898 -0.00021377986 0.046232495
-0.14498578 0.028449921 -0.056677934 -0.08688601 0.086394645 0.0033008265 0.12198702 0.13636716
0.08644802 -0.031856157 -0.066666916 -0.014227055 -0.0954223 0.06163578 0.107378416 -0.15364084
0.058627844 -0.056168113 -0.018127808 -0.054291777 0.039854903 -0.058674376 0.15121259 0.05255758

network_body._body_endoder.seq_layers.2.bias f4 [128]
00000000: b874 df38 8782 17bb 8b8b 6ebb 2d8d a5ba
00000010: dcf1 13bb 0e53 bcba 9fef b0ba caa3 3939
00000020: 7360 6cb9 f515 bfb8 6311 f539 9a11 a1ba
00000030: 5ed0 3a3a 006d 313a ff52 a3ba 7231 feba
00000040: 653e 443a e680 9eba 2b5a 30bb 3495 3139
00000050: 9621 e4b9 79d3 c0ba 5d77 a7ba 710c 07bb
00000060: 12f6 cbb9 5d24 ebba f97a 5ebb e127 c2ba
00000070: 9d97 fb39 cbcd a0ba c06b 66bb 7ac8 bab9
00000080: 30a0 2cbb 0407 fcba 347e 29bb e796 bb38
00000090: 2d74 2dbb 5291 9eba 29f1 4dba 4b2a bd3a
000000a0: 7354 e6ba eeef a63a 2247 5d3a 6f87 00ba
000000b0: 6667 25bb 43d2 13bb af93 d739 34eb 04bb
000000c0: 4777 1eba 8750 15b9 a7aa aa38 7b29 7cba
000000d0: 015b fe39 1118 b833 8122 0fbb 7a1a 8db9
000000e0: bc86 8e39 43d5 0b3b 9c9b 23ba 9172 13bb
000000f0: e30e 4d3a dd5e bbb9 13b4 2abb 6f18 b4ba
00000100: cf25 493a a4c1 acb7 a888 94ba ba2b 9dba
00000110: b197 7639 9abd d4ba a7b0 fcba 9585 a6ba
00000120: 7c82 baba 5d23 5039 c776 1eb5 2fb8 97ba
00000130: 47b1 8dba eda0 17bb 93bf 9cba 706f a4b8
00000140: c499 2a3a 218c 11bb 5690 9bba 7496 073a
00000150: 3e83 1d3b c72a c739 b828 4abb a775 7a39
00000160: 6ed7 41ba 3227 03b4 96db 843a cdd6 8938
00000170: f570 89ba 0f1a a9ba 56b3 95ba 34ff 08bb
00000180: cf76 7aba 69c8 f63a 6f3d 08bb d637 0ebb
00000190: 6724 beb6 8c29 0eb9 411c c139 efe0 f238
000001a0: 11a8 83b9 8a49 93ba aba7 08bb a3eb 8834
000001b0: 6f01 a7ba 9ed6 0eba 4195 fbb8 3bf8 97ba
000001c0: 92f3 78b4 8dac 09bb 1b69 2c3a 606f 1439
000001d0: 67af 10bb a020 86ba 01dc be39 78a3 dab9
000001e0: e4c5 b8b8 6c09 4239 51ca a1ba 7260 2d3a
000001f0: 6d09 283a 2ef0 7fba 2329 01ba 538d beba
0.00010655209 -0.0023118572 -0.0036399092 -0.0012630575 -0.002257458 -0.0014368014 -0.0013499147 0.00017703991
-0.00022542644 -9.1116795e-05 0.00046742996 -0.0012288571 0.0007126386 0.00067682564 -0.0012460648 -0.0019393398
0.0007486104 -0.0012092858 -0.0026909213 0.00016935618 -0.00043512572 -0.0014711461 -0.0012776662 -0.002060678
-0.00038902514 -0.0017939914 -0.003394781 -0.001481291 0.0004798741 -0.0012268362 -0.003515944 -0.0003562605
-0.0026340596 -0.0019228165 -0.0025862576 8.9449626e-05 -0.0026466951 -0.0012097752 -0.0007856065 0.001443216
-0.0017572775 0.00127363 0.00084410806 -0.00049029937 -0.0025238632 -0.0022555746 0.00041118028 -0.0020281794
-0.00060449954 -0.00014239746 8.138018e-05 -0.0009619218 0.00048514458 8.572545e-08 -0.0021840634 -0.00026913342
0.00027184736 0.002133683 -0.0006241144 -0.0022498707 0.00078223477 -0.00035738098 -0.0026047274 -0.0013740192
0.00076731754 -2.0594169e-05 -0.0011332231 -0.0011991181 0.00023516898 -0.0016230822 -0.0019278721 -0.0012704605
-0.0014229561 0.000198496 -5.903243e-07 -0.0011575277 -0.0010810279 -0.002313669 -0.0011958949 -7.840886e-05
0.0006507898 -0.0022208767 -0.0011868577 0.00051722606 0.0024034525 0.0003798811 -0.0030847024 0.00023885687
-0.0007394467 -1.2214585e-07 0.0010136242 6.572679e-05 -0.0010485934 -0.0012901443 -0.0011421244 -0.0020904066
-0.0009554447 0.0018828037 -0.002078857 -0.0021700761 -5.666679e-06 -0.00013557653 0.0003683288 0.000115813564
-0.00025111486 -0.0011237126 -0.002085189 2.5503422e-07 -0.0012741516 -0.00054488506 -0.000119964134 -0.0011594364
-2.318541e-07 -0.002100739 0.0006576941 0.0001415587 -0.0022077204 -0.0010233112 0.0003640354 -0.00041701994
-8.810664e-05 0.00018504792 -0.001234362 0.0006613798 0.0006410096 -0.00097632676 -0.00049270893 -0.0014537968

action_model._continuous_distribution.log_sigma f4 [1, 2]
00000000: 42df 83bd 334c d3bc
-0.064390674 -0.02579317

action_model._continuous_distribution.mu.weight f4 [2, 128]
00000000: 3344 bcbc a11e a0bb 3a93 753b e3dd ed39
00000010: 3b3c c93c 65c9 c7bc 525f 983b 1e99 4bbc
00000020: ef37 8cbc bc51 8539 698a 5b3c f94e 81bc
00000030: 5c37 aabb ab8a 5e3d 6365 a93b b239 06bd
00000040: e06b cdbc 9e37 d4bc 278b 583c 203f 09bc
00000050: 2853 d4ba 1682 b7bc 4c08 bdbc 1a2a a63b
00000060: e6d1 51ba 6579 0f3c 3d27 d43a 9239 253c
00000070: 3b1c 343b 8a5c 23bc e32f 0c3c d098 5bbb
00000080: 2b8b e1bb 904a a0bc 5010 e1bb 6721 d13c
00000090: b740 06bc ba8f ce3b 4022 afbc 0879 2fbc
000000a0: a872 f0ba a9b7 fcbc a146 b43c 4ed2 e0bc
000000b0: 544a 243b 5712 b6bc a66d 123d c75c 99ba
000000c0: 083b 51bb 5ef7 2dbc 7698 a539 5578 333c
000000d0: 4ec8 cabc 0a05 ddbb 4e24 f8bb 3b61 833b
000000e0: 3227 1a3c 02aa d13c 0785 0bbb c8bb ce3b
000000f0: 1203 e83b a8d2 34bd 1b51 7cbc a5dc 5ebd
00000100: 4278 083c 0087 493c bd3e 43bc 276d 2abc
00000110: f417 013d dfba 9fb9 973d dbba a648 b13b
00000120: 972f 90bc 3db6 96bb 8f1a 26bc 1475 b9bc
00000130: c4f7 02bd dfa4 303d ef50 98bc 8e24 93bc
00000140: 75c9 4f3c 1ad7 583b 2d78 80bc 2a17 073d
00000150: cc99 2abd a694 ea3b 2512 3b3c a142 433d
00000160: 5332 583c c3c8 acbc 6a2e 613a 9a66 963c
00000170: d84f 0f3c 28f4 d8ba be31 a5bc 6f4a e03b
00000180: 2940 a3bc d380 9abc d99e 803b 258f 9dbc
00000190: 6d7e 69bb 200c a43c 9e23 1f3b b1c3 b73c
000001a0: a011 1a3d f12a f0bc 3428 e4bb 9ee0 d13c
000001b0: 5aea c4bc c407 66bb b947 8e3a 8384 d63b
000001c0: 83d8 d7bb b572 22bc 38a8 843c 9c5d 0e3c
000001d0: 59f0 8dbb fa65 85bc 07d9 69bb 0da7 883c
000001e0: d434 153a 70fe 56bc f5c6 adbc 9f87 353d
000001f0: 4993 873c 18ce 1fbc 4e6a 513c a8ed 1f3c
00000200: 9c97 243c 1a5c ce3b 3c9b a33b b420 9b3c
00000210: 4181 923c 26b2 223c 49cc 5d3c 8d57 cdbc
00000220: 170a 74bc 6a03 423a 909e 57bc 622e 8c3c
00000230: 41cb 223c b34b 5ebb 2059 a0ba 6e87 953c
00000240: 5c10 9e3b 8f89 753c 9d50 233c fefe bf3c
00000250: b361 25bc 03c9 a03c 4ba9 99bb 729b 1a3c
00000260: 9058 4a3c 81c2 763c 1ace b83a 7640 863c
00000270: a7a7 d4bc 0273 d43c 50b3 47bc e234 a23b
00000280: 9005 843b 70f6 f7bb 59f2 02bd 7cad 9f3c
00000290: 06d0 29bc aa1e 823c f442 7b3c ee26 c83c
000002a0: 67f7 f63b b402 cc3a 5769 41bd 065c 783c
000002b0: 6dc4 a93b 23c1 933c cf26 963c 615c 2d3b
000002c0: e4c5 8c3c e9ef 98bc 6bb9 bd3c ddc2 b53c
000002d0: 7597 9e3b 5714 c3bc a1aa b6bb 769f de3c
000002e0: 1476 d3bb d51b 663a 16ed 9d3b 4f2b be3b
000002f0: 5d03 61bd 940a 643b 90e3 213c d258 c13b
00000300: 274c 39bd ab70 423c 4ab4 35bc 0c91 253c
00000310: 5d9c 7b3b 4f3b b03b 0672 973b 8bb1 1e3c
00000320: 30c3 363c ea16 99bc ffce a5bc 30bc 07bd
00000330: 762a eebb 996e b83c 8c26 143d 3b94 98bb
00000340: ca14 45bc 782d 92b8 e893 8a3c aa66 593c
00000350: d5a2 94ba e099 80bc 98ff 94bc 2230 5d3c
00000360: 35c2 4f3c 8479 0a3b 7e3c 39bd f417 123b
00000370: c922 f93b 97d1 a43c 8cd0 a0bc 47c3 d0ba
00000380: 6541 8cbc fb1a 64bc 54a3 183d 9c49 e2bc
00000390: a1d0 1abc 0815 943b d15a 4fbc cb81 3a3b
000003a0: 3501 22bc 99f4 b83c 7ef6 013a 82d1 b63c
000003b0: 3762 fc3b de16 20bc e05f f9bb cbc8 a63c
000003c0: 1e2e e5b8 da73 69bc 21d4 a8bc dde7 0d3b
000003d0: aa2e c63c 75f9 d5bb 0c22 98bc 6e25 613c
000003e0: 26d9 02bc c426 183d f33f c0bb 0178 fdbb
000003f0: 23a9 53bc c064 f3bc b536 2b3c 52cf e13c
-0.022981739 -0.0048864638 0.0037471787 0.0004536948 0.024564853 -0.024388025 0.004650035 -0.012426643
-0.017116515 0.00025428634 0.013399699 -0.015784727 -0.0051945876 0.054331463 0.005169557 -0.032769866
-0.025075853 -0.025905427 0.01321677 -0.008376867 -0.0016199099 -0.022400897 -0.023075245 0.005070937
-0.00080039946 0.00875697 0.001618601 0.010084527 0.0027482647 -0.0099707935 0.008556339 -0.0033507831
-0.006883045 -0.019566804 -0.0068683997 0.025528623 -0.00819414 0.0063037546 -0.021378636 -0.010710008
-0.0018344717 -0.030849295 0.022006335 -0.027444031 0.0025068717 -0.022225542 0.0357491 -0.0011700623
-0.0031926055 -0.010618059 0.00031584845 0.010953982 -0.024753716 -0.0067449855 -0.007572687 0.0040093935
0.009408759 0.025593761 -0.0021289007 0.0063090064 0.007080444 -0.04414621 -0.015400196 -0.05440964
0.008329453 0.012300253 -0.011916813 -0.0104020005 0.031516984 -0.00030466073 -0.0016726729 0.0054102717
-0.017600818 -0.004599361 -0.010138168 -0.022638835 -0.03197457 0.043125983 -0.01859328 -0.017961767
0.012682308 0.0033087195 -0.015682304 0.032981075 -0.04165058 0.0071588336 0.0114179 0.047670964
0.013195592 -0.021091824 0.0008589985 0.018359471 0.008747064 -0.0016552256 -0.02016532 0.0068448107
-0.019928055 -0.018860256 0.003925186 -0.019233296 -0.0035628334 0.020025313 0.0024282704 0.02243218
0.037614465 -0.029317351 -0.0069628004 0.025619801 -0.024037529 -0.0035099844 0.0010855115 0.0065465583
-0.0065870895 -0.009915044 0.016193494 0.00868931 -0.00433163 -0.016283978 -0.0035682337 0.016681219
0.0005691771 -0.013122186 -0.021213034 0.04431879 0.016549723 -0.009753726 0.012781693 0.0097612515
0.010045912 0.0062976005 0.0049928706 0.018936493 0.017883899 0.009930169 0.013537475 -0.025066162
-0.014894984 0.00074010214 -0.013160363 0.01711196 0.009936155 -0.0033919632 -0.0012233593 0.018253054
0.0048237275 0.01498641 0.00996795 0.02343702 -0.010094094 0.0196271 -0.0046893707 0.009436475
0.0123502165 0.015061022 0.0014099509 0.01638816 -0.02595885 0.025933746 -0.0121887475 0.004950152
0.0040289834 -0.0075672194 -0.031969402 0.019491903 -0.010364538 0.015883762 0.015335787 0.024432626
0.007536817 0.001556477 -0.0472196 0.015158659 0.0051808865 0.01803643 0.018329052 0.0026452767
0.017184205 -0.018669086 0.023159703 0.022187645 0.0048398324 -0.02381341 -0.00557454 0.027175646
-0.006453285 0.0008777951 0.0048195226 0.0058035026 -0.054934848 0.0034796344 0.009880915 0.005900481
-0.04523864 0.011867682 -0.011090348 0.010105383 0.003839276 0.005378164 0.004621747 0.009685884
0.011154935 -0.018687684 -0.020240305 -0.033138454 -0.0072682453 0.022513675 0.036169574 -0.0046563423
-0.012028882 -6.970292e-05 0.01691623 0.013269106 -0.0011340032 -0.015698373 -0.018188283 0.013500245
0.01268058 0.0021129558 -0.045223705 0.002229211 0.0076030237 0.020119471 -0.019630693 -0.0015927338
-0.017121026 -0.013922448 0.037265137 -0.02762299 -0.009449155 0.0045191087 -0.01265593 0.002845871
-0.009887983 0.02257757 0.00049576897 0.022316698 0.007702138 -0.009771077 -0.007610306 0.020359417
-0.00010928161 -0.014248813 -0.020608963 0.0021653094 0.024192173 -0.0065299817 -0.018570922 0.013741834
-0.007986343 0.037146345 -0.0058669983 -0.007735253 -0.012918743 -0.029711127 0.010450055 0.027564678

action_model._continuous_distribution.mu.bias f4 [2]
00000000: 8ece 633a a2e2 68ba
0.0008690142 -0.00088838686
