results/MoveToGoal/MoveToGoal/checkpoint.pt (torch, 441140 bytes, 36 tensors)

network_body._body_endoder.seq_layers.0.weight f4 [128, 6]
000000 a1 f4 29 3d c5 94 dd 3c c9 95 86 be cc a6 3a bf
       0.041493062 0.027048478 -0.26286152 -0.7291076
000010 ab 58 d8 bc 91 2e 13 3f 32 6b 01 be ae 5b 7a be
       -0.026409468 0.5749293 -0.12638548 -0.24449036
000020 7e d1 52 3e 9f 06 aa bd 45 3f 60 3f 43 92 5a bf
       0.20587727 -0.08302044 0.8759654 -0.8537943
000030 22 61 88 3e 0c ed dc be 8d b3 90 3e f7 09 38 3e
       0.26636606 -0.43149602 0.28261986 0.17972551
000040 eb 50 94 3d 86 b8 8d 3e e4 0c 91 be 3a dd 92 3e
       0.072419964 0.27679843 -0.28330147 0.28684407
000050 34 ec da 3e 21 b8 a9 be 9a 1b 14 3f 37 56 c8 be
       0.42758334 -0.33148292 0.57854617 -0.39128277
000060 a9 fe 1f bd d7 9f 78 3e a5 7a 1c 3f d0 71 17 bf
       -0.039061222 0.24279724 0.6112464 -0.5915804
000070 2d 1e 79 3e 7f c4 70 3d d9 88 d9 3d 4a 0e cb 3e
       0.24327917 0.058781143 0.10621805 0.3965934
000080 aa fc d2 3c 66 a0 e3 bc 98 88 0e 3e b1 73 49 3e
       0.025755245 -0.027786445 0.13919294 0.19673039
000090 7e 56 64 bd cd d5 cd 3e fb 6f 27 be e7 30 91 3e
       -0.055746548 0.4020218 -0.16351311 0.28357622
0000a0 ef 71 29 bf a4 84 8c be 57 8b 90 be 98 c5 a8 3e
       -0.66189474 -0.27444947 -0.28231308 0.32963252
0000b0 be 50 cc be 1c da dd be 4a 93 f8 3c 1d 52 51 be
       -0.3990535 -0.43330467 0.03034367 -0.2044148
0000c0 0d d1 93 be 3c 95 ce 3e b5 17 b0 3e 60 bb f3 bd
       -0.2887043 0.40348232 0.34393087 -0.11900973
0000d0 8a 5b 16 3e c1 20 8e 3e d8 3d 35 be 43 7a 8e be
       0.14683357 0.27759364 -0.17699373 -0.27827653
0000e0 b5 71 1a 3d b9 ad 65 3d 51 63 01 bf 9a 81 81 bf
       0.037706096 0.056073878 -0.5054217 -1.0117676
0000f0 bc 7b 3f be 93 37 9e 3d 8a 3f 2d bf 20 1c 3b bf
       -0.18699545 0.07725444 -0.6767508 -0.7308979
000100 d0 30 3e 3e 51 b7 dd be b6 7d 3c 3e a3 ed 26 be
       0.18573308 -0.43303922 0.1840733 -0.16301589
000110 e5 dc 30 3e d0 05 7a be c5 33 1d bf 79 6b 66 3f
       0.17271765 -0.2441628 -0.6140712 0.9000774
000120 5e e5 bb 3e 1b c7 09 bc c9 4e e4 3d af bf 49 be
       0.3669843 -0.008409287 0.111478396 -0.19702028
000130 c9 6e 0c bf 41 46 6b be 8a 5d f2 3e 29 42 21 3f
       -0.54856545 -0.22976018 0.4733699 0.6299158
000140 41 f4 15 3e 78 09 df bd a8 3c 0f be 4a f0 1c 3f
       0.14643957 -0.10890478 -0.13987982 0.6130415
000150 a5 2f 15 be 65 c8 3f 3f 68 9b 1b 3f 4e c8 a7 3e
       -0.14568956 0.7491515 0.60784006 0.32770008
000160 f2 3e 5c 3e 00 f5 84 3e 43 7c b7 3d a1 b1 c0 3e
       0.21508387 0.2596817 0.08959248 0.3763552
000170 d7 2c 78 3e d2 5b 80 be 69 ce 0f 3f 20 6c 19 3d
       0.24235855 -0.25070053 0.5617433 0.03745663
000180 15 ff e9 be 0c e0 43 3e 01 0d 02 3f 64 7a d2 3e
       -0.45702425 0.19128436 0.5080109 0.41109002
000190 32 8f bc 3d 63 37 d5 3e fe c4 31 be ae 2a 16 bf
       0.09207 0.4164382 -0.17360303 -0.58658874
0001a0 d3 f7 8f 3e 71 5d 93 be ce f1 54 3f ae 2e 37 bf
       0.28118762 -0.28782228 0.83181465 -0.715556
0001b0 f8 9d 44 3f e2 5e be 3e b7 29 0e 3e 70 47 7e 3e
       0.7680354 0.37181765 0.138831 0.24831939
0001c0 32 ae 48 bf 75 01 ad bd 9e 02 c1 3e 49 60 7a 3c
       -0.783908 -0.084475435 0.3769731 0.015281745
0001d0 1f d3 7c bd 63 d2 a0 bd 4e 98 d6 be 27 6a 49 bf
       -0.06172478 -0.07852628 -0.41913074 -0.786776
0001e0 69 fe e0 bd ab c4 66 bc 82 a8 60 bd 9f 00 e2 be
       -0.10986025 -0.014084975 -0.0548482 -0.441411
0001f0 58 03 84 3e cb ec a5 3d 65 3a fe 3c d4 43 5c be
       0.257838 0.08101805 0.031033704 -0.2151025
000200 9e 44 14 bd 32 62 8d 3d 11 62 50 3e b5 3b 24 3f
       -0.03619825 0.06903495 0.2034991 0.64153606
000210 ad 52 12 3e 63 b9 d2 3e 44 ce 57 3d e8 7e db 3d
       0.14289351 0.41157064 0.052686945 0.10717565
000220 bd 62 88 be 98 c0 b1 be 71 d0 6a 3e dc 27 84 be
       -0.2663783 -0.3471725 0.22931077 -0.2581166
000230 d0 7f a3 3e 54 d4 ab bd 9e 94 3b 3f 9d d9 5b bf
       0.3193345 -0.08390108 0.73273647 -0.85878927
000240 6e 0e 59 bf c6 4f 22 bf 4c e7 da 3e 48 e1 08 3d
       -0.8478764 -0.63402975 0.4275459 0.03341797
000250 82 c6 86 3e e0 b8 8c be 86 24 03 3e f8 bc 5c be
       0.26323324 -0.27484798 0.12806901 -0.21556461
000260 a5 ef 06 bf 7e e3 6e bd 02 fc 1b be 12 f6 e1 bd
       -0.5270942 -0.058322422 -0.15232852 -0.11033262
000270 12 d9 85 3e c2 8f 0b be f3 03 38 be ee 39 78 bf
       0.26142174 -0.13629058 -0.17970257 -0.96963394
000280 2a b9 15 3f 26 bf 2b 3e 92 32 e6 3d 2a 5b 40 be
       0.5848566 0.16772136 0.11240114 -0.18784776
000290 c4 b3 d5 3d b8 f3 69 bf 4c 09 67 bd 8c e8 a5 be
       0.10434678 -0.9138751 -0.05640535 -0.32403982
0002a0 02 03 a3 be 84 95 8e be 5a a8 5f 3e d6 4a ad ba
       -0.31838232 -0.27848446 0.21841565 -0.0013221155
0002b0 6f 85 85 bd fe 10 13 bd 46 f3 6c 3f 9d 09 69 be
       -0.06519591 -0.035904877 0.92558706 -0.22757573
0002c0 6d 73 1c 3f 29 81 20 3f 15 2a 74 3c 76 cf 4f bd
       0.61113626 0.6269708 0.014902611 -0.05073496
0002d0 7a c9 d8 be 0c 7b eb be ef 18 ef 3c 81 79 44 3e
       -0.42341214 -0.45992315 0.029186694 0.19186975
0002e0 91 b1 09 bf dd 31 46 3e 99 4b 64 3f b9 0a f4 3e
       -0.5378657 0.19354959 0.8917785 0.4766443
0002f0 4d 20 4a be e4 0b 51 3f 07 3b 2c bd 9b 60 a2 3e
       -0.19738884 0.8165877 -0.04204848 0.3171433
000300 49 2c 2c bf de 9d 28 be 0f 35 f6 be 47 6f 96 be
       -0.67255074 -0.16466472 -0.48087355 -0.29381773
000310 90 21 93 bf 48 6b d5 be 79 f6 09 be ad 66 ff bd
       -1.1494617 -0.41683412 -0.13472928 -0.12470756
000320 cb ff 72 3d d3 34 29 3e ef a0 91 be 22 60 1e 3e
       0.059325974 0.16524057 -0.28443095 0.1546636
000330 ee b8 2a 3e 5b fc 1d 3f d1 aa 2a bf 8d e1 8e be
       0.16672108 0.6171319 -0.66666895 -0.27906457
000340 5b 79 19 bf 32 c5 05 bf 6c 5d ab be c6 a7 4a be
       -0.599508 -0.5225402 -0.33469713 -0.19790563
000350 7d 8b c9 3e 9f 36 62 3e 24 90 d8 be cc d1 3d 3f
       0.39364234 0.22091149 -0.4229747 0.7414825
000360 8f 59 09 3e f3 80 8a bf 7e cc 90 3e ef a5 b0 bb
       0.1341307 -1.0820602 0.28281015 -0.0053908746
000370 76 63 30 bd 86 55 58 3e f9 d2 e9 be 97 08 11 be
       -0.043063603 0.21126375 -0.45668772 -0.14163433
000380 c6 55 95 3e 79 d9 0e 3e 52 bb d0 be b7 85 ac 3e
       0.29167002 0.13950147 -0.40767914 0.33695766
000390 86 18 2e 3f 49 ec 34 bf ba cd 07 bf 0c 1e 42 3f
       0.6800617 -0.7067304 -0.5304829 0.758271
0003a0 fe b2 83 3f 37 08 ae 3e 82 d0 30 3e fd f9 20 3d
       1.0288999 0.33990642 0.1726704 0.039300907
0003b0 d8 0a 16 be 98 f8 82 3e bf 17 31 3f 2f 6e b3 3e
       -0.14652574 0.25580287 0.6917686 0.35045
0003c0 50 2d b2 3e d7 45 de bd f2 be 35 be 95 0a e2 3e
       0.34800196 -0.10853165 -0.17748621 0.44148698
0003d0 89 d1 f0 be 12 39 7d 3e ec 60 77 be bb a7 94 bd
       -0.47034863 0.24728802 -0.24158067 -0.072585545
0003e0 c5 25 a6 3e 7e 99 4b 3e 1e 7b 3f bf e3 77 22 be
       0.3245069 0.19882771 -0.74797237 -0.15866046
0003f0 d0 f5 e9 3e 6d 87 ac 3e e0 58 35 be 62 56 b5 3e
       0.45695353 0.33697072 -0.17709684 0.35417467

network_body._body_endoder.seq_layers.0.bias f4 [128]
000000 2b bc 82 3b 9b 6e 2b ba 55 1d c2 b5 4c e0 e2 ba
       0.0039897165 -0.0006539614 -1.4462663e-06 -0.0017309277
000010 e7 48 37 3c 31 8d dd ba da 9e 83 ba 6e 58 0c bb
       0.011186815 -0.001690304 -0.0010041848 -0.0021415013
000020 3a 9e 96 b8 a2 04 11 bb f2 f6 ca ba 33 de 03 31
       -7.1820294e-05 -0.0022128006 -0.0015484972 1.9189315e-09
000030 c0 63 bd 39 6f fd 58 ae 7d 49 98 ad 48 a5 0f 3b
       0.0003612321 -4.9337808e-11 -1.7313035e-11 0.0021918584
000040 a9 4c d4 30 4a 12 51 bb b9 12 e1 b9 de 96 ba 39
       1.5446818e-09 -0.003190177 -0.00042929294 0.0003558909
000050 13 3b 88 ba 4c 3b ab 35 f0 99 01 bb c1 98 a4 3a
       -0.0010393582 1.275775e-06 -0.0019775592 0.0012557731
000060 23 9d 7c 3a 4e cc 2c ba dd 6f c9 ba a2 11 a3 ba
       0.00096364523 -0.0006591723 -0.0015368421 -0.0012441168
000070 7c 8c 7d ba a4 52 62 a9 78 77 d2 3a 08 5c 6c ab
       -0.0009672118 -5.025376e-14 0.0016057333 -8.397176e-13
000080 81 57 02 ba ae a2 3e bb 6e 9a e4 ba cb 27 89 2e
       -0.00049721455 -0.0029088664 -0.0017441043 6.2371074e-11
000090 7b ca e6 3b 68 11 40 3b 3c b0 f0 36 4c 12 77 37
       0.0070431805 0.002930725 7.1730738e-06 1.4726607e-05
0000a0 d4 14 c2 39 41 8a 69 3a 59 21 b7 b8 b8 18 02 b9
       0.00037018082 0.0008908846 -8.7323315e-05 -0.00012406975
0000b0 77 86 17 bb e4 fb 6a b6 41 81 28 ba 6c a7 ce ba
       -0.0023120919 -3.5015337e-06 -0.0006427952 -0.0015766448
0000c0 75 4e 8f b3 f1 c5 9e ba a6 8c 39 3c 96 e7 cb ba
       -6.673228e-08 -0.0012113434 0.011325037 -0.0015556689
0000d0 db 96 13 bb cd 89 ac 33 d6 ab e8 ba 9c 8e 1e b5
       -0.0022520337 8.03444e-08 -0.0017751406 -5.906711e-07
0000e0 56 76 2e b8 28 ad 80 ba e0 0b 3b ba 43 4f d2 ba
       -4.159504e-05 -0.000981723 -0.00071352534 -0.001604535
0000f0 c7 2b b7 3a 48 a9 a3 bb 85 74 57 3c 50 97 3e bc
       0.0013974839 -0.004994545 0.013150339 -0.011632755
000100 e0 3f 66 ba 1f 0d aa b7 ad da 16 ba 30 fd 6b ba
       -0.0008783322 -2.027169e-05 -0.0005754631 -0.00090022665
000110 9d df 15 3a f0 70 bf 39 82 b9 f4 3a 09 a9 b7 ba
       0.000571722 0.00036514504 0.0018671008 -0.0014012168
000120 59 c8 97 39 d2 c6 fc ba 58 21 92 bb 57 ec fc b9
       0.00028950235 -0.0019285327 -0.0044595413 -0.00048241272
000130 c2 b7 e9 ba 88 b9 05 3d e7 be 04 bb e2 6b bd ba
       -0.0017831253 0.03264764 -0.0020255388 -0.0014451707
000140 6a 13 84 ba 41 d5 a6 ba 00 98 01 ba ea ba d7 3a
       -0.0010076587 -0.001272835 -0.0004943609 0.0016458903
000150 17 0f ba 35 a0 f7 c5 38 e5 6e 4a 3b d3 c2 d8 37
       1.3862472e-06 9.439816e-05 0.0030888852 2.5839929e-05
000160 b5 13 fa ba 83 b7 e0 b9 d9 ae 23 b7 97 5c 29 bc
       -0.001907936 -0.00042861336 -9.756267e-06 -0.010337017
000170 84 9f 07 34 a5 a9 63 ba 57 53 cb 3b c1 1f 13 b8
       1.2630886e-07 -0.0008684642 0.0062050032 -3.5077104e-05
000180 9c 97 97 b7 7d 6e c6 3b b4 70 10 26 5f 06 5a 3a
       -1.8071201e-05 0.0060556517 5.0112777e-16 0.00083169894
000190 93 4a 77 2d a7 61 9c bb c0 5f 97 2d 56 fa 79 ba
       1.4056883e-11 -0.0047723833 1.7209234e-11 -0.0009535899
0001a0 cd ec d6 b3 0b a9 f9 38 8f 98 e2 31 6f 9f 61 bb
       -1.00082254e-07 0.00011904732 6.5948096e-09 -0.0034427305
0001b0 b6 4d c1 3b 9b 17 6d 3b 6b 32 fd ae 06 5c 2c ba
       0.0058991564 0.00361774 -1.1514064e-10 -0.0006574992
0001c0 9d f4 ce 31 15 d4 3c ba 74 10 6c 3a 30 7f 03 bb
       6.0231984e-09 -0.00072032335 0.0009005137 -0.0020064823
0001d0 69 46 eb 3b 19 65 d8 ba e6 a1 49 35 c4 ce 1a 3a
       0.0071800244 -0.0016509622 7.511393e-07 0.0005905444
0001e0 1f 13 4a 3b 61 3f 66 bb d3 0a 7d bb 1c 67 3b b9
       0.003083415 -0.0035132992 -0.0038611188 -0.00017872121
0001f0 23 f2 ca b4 70 0c 47 3a 9f a8 32 34 f4 fb 59 ba
       -3.780161e-07 0.0007593101 1.6638886e-07 -0.0008315437

network_body._body_endoder.seq_layers.2.weight f4 [128, 128]
000000 3d 01 b0 bc 85 b6 ca 3d 35 a0 09 3e 5f 4a c8 bd
       -0.021484965 0.09898094 0.1344002 -0.0977981
000010 d6 c8 38 bd 26 d4 9f bd 17 6e 23 be b2 9d 21 be
       -0.045113407 -0.07804136 -0.15959965 -0.15782812
000020 47 60 c6 bd 58 31 81 bd 84 a8 9a 3d 22 e6 d8 3b
       -0.09686332 -0.0630824 0.07551673 0.006619231
000030 bc 12 76 bd ea 2f 82 bd 4b 23 4a 3b 51 16 5e 3d
       -0.06007646 -0.06356795 0.003084379 0.0542205
000040 60 f1 41 be dd 8a 91 bd f8 ce a7 bc e2 64 e3 bd
       -0.18939734 -0.07106564 -0.020484433 -0.11103226
000050 74 c2 0b 3e 68 ad 38 3c bc 7d ee 3c 89 73 07 be
       0.13648397 0.011271812 0.02911269 -0.13227667
000060 55 22 60 3b 35 b3 4e 3d fe 7d 88 bd ed f5 1e 3d
       0.003420015 0.050463874 -0.06664656 0.03880875
000070 9a 96 a4 3d 3e ba cf bd b5 4a 99 bd f5 1d 4a 3c
       0.080365375 -0.10142945 -0.07484952 0.012336244
000080 04 dd 73 bd dd 26 12 3c c2 16 82 3d 72 d3 12 3d
       -0.05953695 0.008920399 0.06351997 0.03584618
000090 8a 15 3a bd f5 9c ca bb bb 41 ed 3d 10 c7 66 3d
       -0.045430698 -0.0061832615 0.11584803 0.056342185
0000a0 ac 8c 03 3d 61 cc b1 3b b5 70 01 3d 05 11 c4 3c
       0.032116577 0.005425975 0.031601626 0.023933897
0000b0 c5 0e 3c be 0d ec 2d 3d 30 95 52 bd 9b b0 56 3c
       -0.18365009 0.042461444 -0.051411808 0.013103629
0000c0 55 35 8a 3d 18 4e c7 3d 7e 72 1d 3e ae cd 43 bd
       0.067484535 0.09731692 0.15375707 -0.047803573
0000d0 fa 23 a6 bd ba dd 07 be ea 4c 8e 3c d7 db d1 bd
       -0.08112331 -0.13268176 0.01737066 -0.10247009
0000e0 c2 c9 17 bd bb ff 57 bd f2 33 91 bc 37 e5 cc bd
       -0.037057646 -0.052734118 -0.017724965 -0.10004657
0000f0 6c 0f dd bc e4 55 f8 3d a8 f0 d8 bc 0a 7b 76 3b
       -0.026984893 0.12125757 -0.026481941 0.0037609958
000100 4c 86 81 3e 0f d2 fe 3d 60 f9 23 3d ae c0 cd 3c
       0.25297773 0.12442409 0.040032744 0.02511629
000110 a9 13 cb bd 61 f2 ec 3d c7 85 24 3d 41 3d 9f 3d
       -0.09915859 0.115696676 0.040166643 0.07775355
000120 6b 35 0e bd c5 bc 17 3d d1 0f 5e 3d 02 bd e4 bd
       -0.034718912 0.03704526 0.054214302 -0.11168863
000130 06 42 24 be 45 82 da bd 46 89 f5 bb 59 06 28 3d
       -0.16040811 -0.10669378 -0.007493171 0.04102168
000140 3e 75 e8 3d a9 3f b0 bd 94 d5 d6 3d ed 70 30 3d
       0.11350487 -0.08605892 0.104899555 0.043076444
000150 a4 88 0c bd d4 85 5c 3d d5 2f 20 bd ea 9c b2 3d
       -0.03431 0.053838566 -0.039108116 0.08721335
000160 c3 61 cd bd 7a e4 ef bc 1d 66 2e be 36 f5 0e bd
       -0.10028412 -0.02928375 -0.1703114 -0.03490182
000170 d2 5f e3 bd 90 74 c8 bd 70 fa 22 bd b7 fc e8 bd
       -0.11102261 -0.097878575 -0.039789617 -0.113763265
000180 d5 91 45 bd 20 b3 e8 bd d4 72 74 bd fa f8 94 3d
       -0.04823478 -0.113622904 -0.05967982 0.07274051
000190 30 18 b0 3d b5 67 30 bd e5 0c ea 3d 86 bd 3d b9
       0.085983634 -0.043067653 0.11428241 -0.00018095048
0001a0 32 93 41 3e c9 90 a6 bd 2b 1f ba bb 77 e4 c0 3b
       0.18903807 -0.08133084 -0.005679985 0.00588661
0001b0 83 b4 eb bb d1 7e c4 3d 59 46 62 bc b5 bb 17 3e
       -0.0071931495 0.09594501 -0.0138107175 0.14817698
0001c0 be f5 bf 3c 2e 93 50 bd a3 0c ec 3b a0 88 9c bb
       0.023432609 -0.05092161 0.007203655 -0.004777029
0001d0 95 1a ec bb 72 74 be bc 75 73 b9 bb de d9 16 3c
       -0.0072053173 -0.023248885 -0.0056595155 0.009207217
0001e0 1d 26 f6 bc 30 82 56 bd 0a c6 33 bc 24 62 4c bd
       -0.03004747 -0.05237025 -0.010972509 -0.04989828
0001f0 38 6c aa bd 3c 16 2d be 76 05 7d bd 22 02 34 bc
       -0.08321422 -0.16903013 -0.061772786 -0.010986837
000200 dd 74 c0 bd b0 f5 ba bd b4 5d 52 3b 89 9d 17 3d
       -0.0939729 -0.091288924 0.0032099308 0.03701547
000210 38 4b db bc 57 82 91 3c 94 ea 70 bd 1f 89 84 bd
       -0.026769266 0.017762346 -0.05881746 -0.06471466
000220 98 a9 b1 3d 31 ff 27 3c 97 af 1d 3c ff 4a 95 bb
       0.086749256 0.0102537135 0.009624383 -0.0045560594
000230 ed 4b 27 bd 31 46 f6 bb 7a 57 09 3e 4c 32 c8 3d
       -0.040843893 -0.0075156917 0.13412276 0.09775218
000240 41 07 13 3b 8e 1f e9 bc b6 e2 fb 3c db b1 f4 3d
       0.0022434744 -0.02845743 0.030747753 0.11947986
000250 d4 2b 63 bd a8 c1 d2 3d 98 d0 ad 3b 58 ae ca 3c
       -0.05546172 0.10290843 0.0053044073 0.024741337
000260 68 bf 1d bd 45 e1 02 be a4 96 0a be 92 d4 00 bc
       -0.038512617 -0.12781246 -0.13534027 -0.007863181
000270 3f 8f 32 3d 68 ef 07 bd 81 b5 fb bd 9f f6 85 bc
       0.04359364 -0.0331873 -0.122904785 -0.01635295
000280 d2 7a bf bc 48 6b 8e 3d bb e6 8f 3d 26 c4 8e 3d
       -0.023373995 0.06954056 0.0702643 0.06971006
000290 e0 2e 95 bc fb 03 d8 3d f6 73 3f 39 e1 91 1e 3e
       -0.018210828 0.10547634 0.00018258378 0.15485336
0002a0 b0 cc 74 3d 1d 07 a8 bb eb 82 88 bc ee ff 9e bc
       0.059765518 -0.005127801 -0.016663989 -0.019409146
0002b0 e0 74 11 bd cc f9 96 bd 40 db 1c 3d a3 e4 22 bd
       -0.03551185 -0.07371864 0.03829503 -0.039768826
0002c0 63 fa 2e bd d2 e4 5b 3c 7e 39 1c 3d 22 b7 83 bc
       -0.042719256 0.013421254 0.038140766 -0.016078535
0002d0 44 1d 94 bd 22 45 be 3d 7e 5c 0a 3e 8f b7 67 3d
       -0.072321445 0.0929053 0.13511845 0.05657154
0002e0 79 b6 8d bd 0c 06 2b bc 1e d8 17 be 9d ae 99 3d
       -0.069195695 -0.010438453 -0.14828536 0.07504008
0002f0 19 d3 41 3e 28 17 f9 3c 8c a1 7c bc 45 85 9c bc
       0.18928184 0.03040655 -0.015419375 -0.019106517
000300 49 68 73 bc 28 b9 9e bd 6a f7 46 be 35 55 d9 3d
       -0.0148564065 -0.077501595 -0.19430318 0.10611955
000310 b8 c1 a6 3d 4d 2f b6 ba a0 f2 2e 3e 04 76 80 bd
       0.08142418 -0.0013899595 0.17084742 -0.0627251
000320 c3 35 06 3c 35 7d 96 3d 33 cc 6e 3e 5d 7b 0c bd
       0.008191529 0.073481 0.23320083 -0.034297336
000330 a0 f2 f8 3d a8 35 01 3d f6 28 f0 bb 05 bc 11 bd
       0.12155652 0.03154531 -0.0073291017 -0.0355797
000340 fc ba b4 bd de c2 aa bc 17 63 43 bc 23 b1 95 3c
       -0.08824727 -0.020844873 -0.01192548 0.018272942
000350 ae bf 2a be 29 35 d9 bc 2f 9c 45 bd 8f 3a 86 bd
       -0.16674682 -0.026514607 -0.04824465 -0.06554138
000360 76 e8 7a 3d 79 18 12 3d 99 57 03 3d 06 2f 6a be
       0.06125685 0.03566787 0.03206596 -0.228695
000370 ca ba d2 3d 3b 7c a1 3d a9 59 c1 bd 07 7a c9 bd
       0.102895334 0.07885023 -0.094409294 -0.09837728
000380 51 fc 28 bd ad e0 66 3c 2e c7 be bd 5e 3a 2d 3d
       -0.041256253 0.014091653 -0.09315334 0.04229199
000390 8f 31 70 bd e2 0d d0 bd 18 2a 60 b9 49 5e 3d 3d
       -0.058641013 -0.10158898 -0.00021377986 0.046232495
0003a0 27 77 14 be cf 0f e9 3c 1f 27 68 bd 4b f1 b1 bd
       -0.14498578 0.028449921 -0.056677934 -0.08688601
0003b0 ad ef b0 3d ae 52 58 3b 55 d4 f9 3d d5 a3 0b 3e
       0.086394645 0.0033008265 0.12198702 0.13636716
0003c0 a9 0b b1 3d 9a 7b 02 bd aa 88 88 bd 98 18 69 bc
       0.08644802 -0.031856157 -0.066666916 -0.014227055
0003d0 c4 6c c3 bd cd 75 7c 3d 37 e9 db 3d 06 54 1d be
       -0.0954223 0.06163578 0.107378416 -0.15364084
0003e0 c0 23 70 3d 89 10 66 bd c5 80 94 bc 0e 61 5e bd
       0.058627844 -0.056168113 -0.018127808 -0.054291777
0003f0 e5 3e 23 3d 8b 54 70 bd 79 d7 1a 3e 9e 46 57 3d
       0.039854903 -0.058674376 0.15121259 0.05255758

network_body._body_endoder.seq_layers.2.bias f4 [128]
000000 b8 74 df 38 87 82 17 bb 8b 8b 6e bb 2d 8d a5 ba
       0.00010655209 -0.0023118572 -0.0036399092 -0.0012630575
000010 dc f1 13 bb 0e 53 bc ba 9f ef b0 ba ca a3 39 39
       -0.002257458 -0.0014368014 -0.0013499147 0.00017703991
000020 73 60 6c b9 f5 15 bf b8 63 11 f5 39 9a 11 a1 ba
       -0.00022542644 -9.1116795e-05 0.00046742996 -0.0012288571
000030 5e d0 3a 3a 00 6d 31 3a ff 52 a3 ba 72 31 fe ba
       0.0007126386 0.00067682564 -0.0012460648 -0.0019393398
000040 65 3e 44 3a e6 80 9e ba 2b 5a 30 bb 34 95 31 39
       0.0007486104 -0.0012092858 -0.0026909213 0.00016935618
000050 96 21 e4 b9 79 d3 c0 ba 5d 77 a7 ba 71 0c 07 bb
       -0.00043512572 -0.0014711461 -0.0012776662 -0.002060678
000060 12 f6 cb b9 5d 24 eb ba f9 7a 5e bb e1 27 c2 ba
       -0.00038902514 -0.0017939914 -0.003394781 -0.001481291
000070 9d 97 fb 39 cb cd a0 ba c0 6b 66 bb 7a c8 ba b9
       0.0004798741 -0.0012268362 -0.003515944 -0.0003562605
000080 30 a0 2c bb 04 07 fc ba 34 7e 29 bb e7 96 bb 38
       -0.0026340596 -0.0019228165 -0.0025862576 8.9449626e-05
000090 2d 74 2d bb 52 91 9e ba 29 f1 4d ba 4b 2a bd 3a
       -0.0026466951 -0.0012097752 -0.0007856065 0.001443216
0000a0 73 54 e6 ba ee ef a6 3a 22 47 5d 3a 6f 87 00 ba
       -0.0017572775 0.00127363 0.00084410806 -0.00049029937
0000b0 66 67 25 bb 43 d2 13 bb af 93 d7 39 34 eb 04 bb
       -0.0025238632 -0.0022555746 0.00041118028 -0.0020281794
0000c0 47 77 1e ba 87 50 15 b9 a7 aa aa 38 7b 29 7c ba
       -0.00060449954 -0.00014239746 8.138018e-05 -0.0009619218
0000d0 01 5b fe 39 11 18 b8 33 81 22 0f bb 7a 1a 8d b9
       0.00048514458 8.572545e-08 -0.0021840634 -0.00026913342
0000e0 bc 86 8e 39 43 d5 0b 3b 9c 9b 23 ba 91 72 13 bb
       0.00027184736 0.002133683 -0.0006241144 -0.0022498707
0000f0 e3 0e 4d 3a dd 5e bb b9 13 b4 2a bb 6f 18 b4 ba
       0.00078223477 -0.00035738098 -0.0026047274 -0.0013740192
000100 cf 25 49 3a a4 c1 ac b7 a8 88 94 ba ba 2b 9d ba
       0.00076731754 -2.0594169e-05 -0.0011332231 -0.0011991181
000110 b1 97 76 39 9a bd d4 ba a7 b0 fc ba 95 85 a6 ba
       0.00023516898 -0.0016230822 -0.0019278721 -0.0012704605
000120 7c 82 ba ba 5d 23 50 39 c7 76 1e b5 2f b8 97 ba
       -0.0014229561 0.000198496 -5.903243e-07 -0.0011575277
000130 47 b1 8d ba ed a0 17 bb 93 bf 9c ba 70 6f a4 b8
       -0.0010810279 -0.002313669 -0.0011958949 -7.840886e-05
000140 c4 99 2a 3a 21 8c 11 bb 56 90 9b ba 74 96 07 3a
       0.0006507898 -0.0022208767 -0.0011868577 0.00051722606
000150 3e 83 1d 3b c7 2a c7 39 b8 28 4a bb a7 75 7a 39
       0.0024034525 0.0003798811 -0.0030847024 0.00023885687
000160 6e d7 41 ba 32 27 03 b4 96 db 84 3a cd d6 89 38
       -0.0007394467 -1.2214585e-07 0.0010136242 6.572679e-05
000170 f5 70 89 ba 0f 1a a9 ba 56 b3 95 ba 34 ff 08 bb
       -0.0010485934 -0.0012901443 -0.0011421244 -0.0020904066
000180 cf 76 7a ba 69 c8 f6 3a 6f 3d 08 bb d6 37 0e bb
       -0.0009554447 0.0018828037 -0.002078857 -0.0021700761
000190 67 24 be b6 8c 29 0e b9 41 1c c1 39 ef e0 f2 38
       -5.666679e-06 -0.00013557653 0.0003683288 0.000115813564
0001a0 11 a8 83 b9 8a 49 93 ba ab a7 08 bb a3 eb 88 34
       -0.00025111486 -0.0011237126 -0.002085189 2.5503422e-07
0001b0 6f 01 a7 ba 9e d6 0e ba 41 95 fb b8 3b f8 97 ba
       -0.0012741516 -0.00054488506 -0.000119964134 -0.0011594364
0001c0 92 f3 78 b4 8d ac 09 bb 1b 69 2c 3a 60 6f 14 39
       -2.318541e-07 -0.002100739 0.0006576941 0.0001415587
0001d0 67 af 10 bb a0 20 86 ba 01 dc be 39 78 a3 da b9
       -0.0022077204 -0.0010233112 0.0003640354 -0.00041701994
0001e0 e4 c5 b8 b8 6c 09 42 39 51 ca a1 ba 72 60 2d 3a
       -8.810664e-05 0.00018504792 -0.001234362 0.0006613798
0001f0 6d 09 28 3a 2e f0 7f ba 23 29 01 ba 53 8d be ba
       0.0006410096 -0.00097632676 -0.00049270893 -0.0014537968

action_model._continuous_distribution.log_sigma f4 [1, 2]
000000 42 df 83 bd 33 4c d3 bc
       -0.064390674 -0.02579317

action_model._continuous_distribution.mu.weight f4 [2, 128]
000000 33 44 bc bc a1 1e a0 bb 3a 93 75 3b e3 dd ed 39
       -0.022981739 -0.0048864638 0.0037471787 0.0004536948
000010 3b 3c c9 3c 65 c9 c7 bc 52 5f 98 3b 1e 99 4b bc
       0.024564853 -0.024388025 0.004650035 -0.012426643
000020 ef 37 8c bc bc 51 85 39 69 8a 5b 3c f9 4e 81 bc
       -0.017116515 0.00025428634 0.013399699 -0.015784727
000030 5c 37 aa bb ab 8a 5e 3d 63 65 a9 3b b2 39 06 bd
       -0.0051945876 0.054331463 0.005169557 -0.032769866
000040 e0 6b cd bc 9e 37 d4 bc 27 8b 58 3c 20 3f 09 bc
       -0.025075853 -0.025905427 0.01321677 -0.008376867
000050 28 53 d4 ba 16 82 b7 bc 4c 08 bd bc 1a 2a a6 3b
       -0.0016199099 -0.022400897 -0.023075245 0.005070937
000060 e6 d1 51 ba 65 79 0f 3c 3d 27 d4 3a 92 39 25 3c
       -0.00080039946 0.00875697 0.001618601 0.010084527
000070 3b 1c 34 3b 8a 5c 23 bc e3 2f 0c 3c d0 98 5b bb
       0.0027482647 -0.0099707935 0.008556339 -0.0033507831
000080 2b 8b e1 bb 90 4a a0 bc 50 10 e1 bb 67 21 d1 3c
       -0.006883045 -0.019566804 -0.0068683997 0.025528623
000090 b7 40 06 bc ba 8f ce 3b 40 22 af bc 08 79 2f bc
       -0.00819414 0.0063037546 -0.021378636 -0.010710008
0000a0 a8 72 f0 ba a9 b7 fc bc a1 46 b4 3c 4e d2 e0 bc
       -0.0018344717 -0.030849295 0.022006335 -0.027444031
0000b0 54 4a 24 3b 57 12 b6 bc a6 6d 12 3d c7 5c 99 ba
       0.0025068717 -0.022225542 0.0357491 -0.0011700623
0000c0 08 3b 51 bb 5e f7 2d bc 76 98 a5 39 55 78 33 3c
       -0.0031926055 -0.010618059 0.00031584845 0.010953982
0000d0 4e c8 ca bc 0a 05 dd bb 4e 24 f8 bb 3b 61 83 3b
       -0.024753716 -0.0067449855 -0.007572687 0.0040093935
0000e0 32 27 1a 3c 02 aa d1 3c 07 85 0b bb c8 bb ce 3b
       0.009408759 0.025593761 -0.0021289007 0.0063090064
0000f0 12 03 e8 3b a8 d2 34 bd 1b 51 7c bc a5 dc 5e bd
       0.007080444 -0.04414621 -0.015400196 -0.05440964
000100 42 78 08 3c 00 87 49 3c bd 3e 43 bc 27 6d 2a bc
       0.008329453 0.012300253 -0.011916813 -0.0104020005
000110 f4 17 01 3d df ba 9f b9 97 3d db ba a6 48 b1 3b
       0.031516984 -0.00030466073 -0.0016726729 0.0054102717
000120 97 2f 90 bc 3d b6 96 bb 8f 1a 26 bc 14 75 b9 bc
       -0.017600818 -0.004599361 -0.010138168 -0.022638835
000130 c4 f7 02 bd df a4 30 3d ef 50 98 bc 8e 24 93 bc
       -0.03197457 0.043125983 -0.01859328 -0.017961767
000140 75 c9 4f 3c 1a d7 58 3b 2d 78 80 bc 2a 17 07 3d
       0.012682308 0.0033087195 -0.015682304 0.032981075
000150 cc 99 2a bd a6 94 ea 3b 25 12 3b 3c a1 42 43 3d
       -0.04165058 0.0071588336 0.0114179 0.047670964
000160 53 32 58 3c c3 c8 ac bc 6a 2e 61 3a 9a 66 96 3c
       0.013195592 -0.021091824 0.0008589985 0.018359471
000170 d8 4f 0f 3c 28 f4 d8 ba be 31 a5 bc 6f 4a e0 3b
       0.008747064 -0.0016552256 -0.02016532 0.0068448107
000180 29 40 a3 bc d3 80 9a bc d9 9e 80 3b 25 8f 9d bc
       -0.019928055 -0.018860256 0.003925186 -0.019233296
000190 6d 7e 69 bb 20 0c a4 3c 9e 23 1f 3b b1 c3 b7 3c
       -0.0035628334 0.020025313 0.0024282704 0.02243218
0001a0 a0 11 1a 3d f1 2a f0 bc 34 28 e4 bb 9e e0 d1 3c
       0.037614465 -0.029317351 -0.0069628004 0.025619801
0001b0 5a ea c4 bc c4 07 66 bb b9 47 8e 3a 83 84 d6 3b
       -0.024037529 -0.0035099844 0.0010855115 0.0065465583
0001c0 83 d8 d7 bb b5 72 22 bc 38 a8 84 3c 9c 5d 0e 3c
       -0.0065870895 -0.009915044 0.016193494 0.00868931
0001d0 59 f0 8d bb fa 65 85 bc 07 d9 69 bb 0d a7 88 3c
       -0.00433163 -0.016283978 -0.0035682337 0.016681219
0001e0 d4 34 15 3a 70 fe 56 bc f5 c6 ad bc 9f 87 35 3d
       0.0005691771 -0.013122186 -0.021213034 0.04431879
0001f0 49 93 87 3c 18 ce 1f bc 4e 6a 51 3c a8 ed 1f 3c
       0.016549723 -0.009753726 0.012781693 0.0097612515
000200 9c 97 24 3c 1a 5c ce 3b 3c 9b a3 3b b4 20 9b 3c
       0.010045912 0.0062976005 0.0049928706 0.018936493
000210 41 81 92 3c 26 b2 22 3c 49 cc 5d 3c 8d 57 cd bc
       0.017883899 0.009930169 0.013537475 -0.025066162
000220 17 0a 74 bc 6a 03 42 3a 90 9e 57 bc 62 2e 8c 3c
       -0.014894984 0.00074010214 -0.013160363 0.01711196
000230 41 cb 22 3c b3 4b 5e bb 20 59 a0 ba 6e 87 95 3c
       0.009936155 -0.0033919632 -0.0012233593 0.018253054
000240 5c 10 9e 3b 8f 89 75 3c 9d 50 23 3c fe fe bf 3c
       0.0048237275 0.01498641 0.00996795 0.02343702
000250 b3 61 25 bc 03 c9 a0 3c 4b a9 99 bb 72 9b 1a 3c
       -0.010094094 0.0196271 -0.0046893707 0.009436475
000260 90 58 4a 3c 81 c2 76 3c 1a ce b8 3a 76 40 86 3c
       0.0123502165 0.015061022 0.0014099509 0.01638816
000270 a7 a7 d4 bc 02 73 d4 3c 50 b3 47 bc e2 34 a2 3b
       -0.02595885 0.025933746 -0.0121887475 0.004950152
000280 90 05 84 3b 70 f6 f7 bb 59 f2 02 bd 7c ad 9f 3c
       0.0040289834 -0.0075672194 -0.031969402 0.019491903
000290 06 d0 29 bc aa 1e 82 3c f4 42 7b 3c ee 26 c8 3c
       -0.010364538 0.015883762 0.015335787 0.024432626
0002a0 67 f7 f6 3b b4 02 cc 3a 57 69 41 bd 06 5c 78 3c
       0.007536817 0.001556477 -0.0472196 0.015158659
0002b0 6d c4 a9 3b 23 c1 93 3c cf 26 96 3c 61 5c 2d 3b
       0.0051808865 0.01803643 0.018329052 0.0026452767
0002c0 e4 c5 8c 3c e9 ef 98 bc 6b b9 bd 3c dd c2 b5 3c
       0.017184205 -0.018669086 0.023159703 0.022187645
0002d0 75 97 9e 3b 57 14 c3 bc a1 aa b6 bb 76 9f de 3c
       0.0048398324 -0.02381341 -0.00557454 0.027175646
0002e0 14 76 d3 bb d5 1b 66 3a 16 ed 9d 3b 4f 2b be 3b
       -0.006453285 0.0008777951 0.0048195226 0.0058035026
0002f0 5d 03 61 bd 94 0a 64 3b 90 e3 21 3c d2 58 c1 3b
       -0.054934848 0.0034796344 0.009880915 0.005900481
000300 27 4c 39 bd ab 70 42 3c 4a b4 35 bc 0c 91 25 3c
       -0.04523864 0.011867682 -0.011090348 0.010105383
000310 5d 9c 7b 3b 4f 3b b0 3b 06 72 97 3b 8b b1 1e 3c
       0.003839276 0.005378164 0.004621747 0.009685884
000320 30 c3 36 3c ea 16 99 bc ff ce a5 bc 30 bc 07 bd
       0.011154935 -0.018687684 -0.020240305 -0.033138454
000330 76 2a ee bb 99 6e b8 3c 8c 26 14 3d 3b 94 98 bb
       -0.0072682453 0.022513675 0.036169574 -0.0046563423
000340 ca 14 45 bc 78 2d 92 b8 e8 93 8a 3c aa 66 59 3c
       -0.012028882 -6.970292e-05 0.01691623 0.013269106
000350 d5 a2 94 ba e0 99 80 bc 98 ff 94 bc 22 30 5d 3c
       -0.0011340032 -0.015698373 -0.018188283 0.013500245
000360 35 c2 4f 3c 84 79 0a 3b 7e 3c 39 bd f4 17 12 3b
       0.01268058 0.0021129558 -0.045223705 0.002229211
000370 c9 22 f9 3b 97 d1 a4 3c 8c d0 a0 bc 47 c3 d0 ba
       0.0076030237 0.020119471 -0.019630693 -0.0015927338
000380 65 41 8c bc fb 1a 64 bc 54 a3 18 3d 9c 49 e2 bc
       -0.017121026 -0.013922448 0.037265137 -0.02762299
000390 a1 d0 1a bc 08 15 94 3b d1 5a 4f bc cb 81 3a 3b
       -0.009449155 0.0045191087 -0.01265593 0.002845871
0003a0 35 01 22 bc 99 f4 b8 3c 7e f6 01 3a 82 d1 b6 3c
       -0.009887983 0.02257757 0.00049576897 0.022316698
0003b0 37 62 fc 3b de 16 20 bc e0 5f f9 bb cb c8 a6 3c
       0.007702138 -0.009771077 -0.007610306 0.020359417
0003c0 1e 2e e5 b8 da 73 69 bc 21 d4 a8 bc dd e7 0d 3b
       -0.00010928161 -0.014248813 -0.020608963 0.0021653094
0003d0 aa 2e c6 3c 75 f9 d5 bb 0c 22 98 bc 6e 25 61 3c
       0.024192173 -0.0065299817 -0.018570922 0.013741834
0003e0 26 d9 02 bc c4 26 18 3d f3 3f c0 bb 01 78 fd bb
       -0.007986343 0.037146345 -0.0058669983 -0.007735253
0003f0 23 a9 53 bc c0 64 f3 bc b5 36 2b 3c 52 cf e1 3c
       -0.012918743 -0.029711127 0.010450055 0.027564678

action_model._continuous_distribution.mu.bias f4 [2]
000000 8e ce 63 3a a2 e2 68 ba
       0.0008690142 -0.00088838686

exp_avg f4 [128, 6]
000000 8e 64 b8 ba 41 67 d4 b9 9a 53 2b bb b3 5e b0 ba
       -0.0014068054 -0.0004051272 -0.002614236 -0.0013455957
000010 d3 a2 c6 b9 8d fc 26 bb 5f 13 9d ba c4 c9 b5 b9
       -0.00037886816 -0.0025480122 -0.0011983922 -0.00034673337
000020 4b b4 11 bb ce f2 96 ba 55 01 aa b9 ea ea 0e bb
       -0.0022232707 -0.0011516453 -0.0003242592 -0.00218075
000030 84 9c 9c ab a6 1a b1 aa 68 04 11 ac 1c 0f 93 ab
       -1.1127908e-12 -3.1460007e-13 -2.0608185e-12 -1.0449172e-12
000040 ed 9f a5 aa 26 3c 0b ac 88 4a ab 3a cb 6f ce 39
       -2.942086e-13 -1.9786477e-12 0.0013068477 0.00039374674
000050 b1 45 22 3b 5c 6a ab 3a 54 0e c1 39 ad 4b 22 3b
       0.0024760778 0.0013077962 0.00036822504 0.0024764345
000060 2f 44 e8 32 cc 0f 08 32 23 4f 64 33 74 f5 e1 32
       2.7039361e-08 7.919834e-09 5.315736e-08 2.6305067e-08
000070 39 7c fe 31 e7 ef 55 33 c7 ac ac 32 6c 1d c7 31
       7.4064954e-09 4.9811117e-08 2.0102005e-08 5.795007e-09
000080 76 f8 1c 33 f4 55 a5 32 79 35 ba 31 1c 8a 1c 33
       3.6547554e-08 1.9247615e-08 5.4193916e-09 3.644719e-08
000090 17 62 29 39 f3 93 86 37 67 48 88 39 a9 7f 5f 38
       0.00016153637 1.6042939e-05 0.00025993885 5.3286236e-05
0000a0 74 b5 7b 37 d0 9a d3 38 ab 71 b1 39 56 94 c6 38
       1.5003014e-05 0.000100901 0.0003384476 9.4690055e-05
0000b0 59 f8 23 3a 26 e4 a4 39 49 b5 b9 38 5b 1e 1c 3a
       0.0006254963 0.000314505 8.8552544e-05 0.0005955451
0000c0 6d a7 a4 2a 64 43 c5 ab 0d ff e5 2e fb cb a3 ac
       2.9248427e-13 -1.4016397e-12 1.04590205e-10 -4.655385e-12
0000d0 09 7b b8 ab ee 14 1b ad 6d 50 89 3a 0a 70 a3 39
       -1.3108135e-12 -8.815377e-12 0.0010476239 0.00031173258
0000e0 b1 79 01 3b 0a b6 87 3a 21 d8 98 39 a9 7d 00 3b
       0.0019756372 0.0010353934 0.00029152728 0.001960615
0000f0 10 ec 5d 39 b5 49 81 38 8e 54 d0 39 9c b5 56 39
       0.00021164143 6.164928e-05 0.0003973585 0.00020476285
000100 d0 d0 71 38 47 49 cb 39 b2 9a 79 27 38 b1 85 26
       5.765335e-05 0.00038773773 3.4639552e-15 9.276764e-16
000110 d7 22 e7 27 10 06 5e 27 a9 0d 7a 26 1e 36 d2 27
       6.4153153e-15 3.0811975e-15 8.6754687e-16 5.8345383e-15
000120 10 f9 38 ba b9 e4 4c b9 7f 7d a9 ba 52 22 2a ba
       -0.0007056156 -0.00019540162 -0.0012931078 -0.00064900995
000130 de 9c 3f b9 18 15 a1 ba 2a b0 35 21 c3 64 a4 22
       -0.00018273617 -0.0012289612 6.1558337e-19 4.4558975e-18
000140 bd b3 88 22 31 81 88 23 f5 bc 99 22 f2 3d 01 24
       3.705318e-18 1.4799864e-17 4.16708e-18 2.8024886e-17
000150 6e 40 12 a2 64 63 0a a1 e8 d6 a8 a2 4b d2 e5 a1
       -1.9820798e-18 -4.688776e-19 -4.5764032e-18 -1.5573308e-18
000160 20 6b 01 a1 4a 98 59 a2 2b c2 d3 33 50 51 00 33
       -4.384868e-19 -2.9489605e-18 9.860772e-08 2.9876276e-08
000170 39 6a 44 34 15 19 d5 33 37 00 f0 32 c1 c2 49 34
       1.8292566e-07 9.923148e-08 2.7939775e-08 1.8790435e-07
000180 e3 80 72 27 89 e7 99 26 74 4f f9 27 18 97 7f 27
       3.3654116e-15 1.0679265e-15 6.9197527e-15 3.5470267e-15
000190 c3 ed 8f 26 fe fd f1 27 5e 8d 70 3a eb 12 8e 39
       9.987064e-16 6.7166316e-15 0.0009176339 0.00027098446
0001a0 11 f7 e1 3a 81 f1 6b 3a 78 dd 84 39 f6 63 df 3a
       0.0017239769 0.00090005255 0.0002534201 0.001704334
0001b0 03 99 6c ae c3 2f b3 ad 03 7e e1 ae c8 c9 94 ae
       -5.379609e-11 -2.0371154e-11 -1.02541996e-10 -6.766104e-11
0001c0 7f 92 a7 ad 52 df 0c af f9 b5 08 bb 96 6f 17 ba
       -1.905076e-11 -1.2812265e-10 -0.0020860417 -0.00057768205
0001d0 a0 f6 79 bb 9d 7d fb ba c9 9e 0d ba 54 1c 6e bb
       -0.0038141385 -0.0019187216 -0.0005402384 -0.0036332803
0001e0 24 e3 fe 39 71 da ec 38 a6 26 64 3a 09 ac c4 39
       0.00048615888 0.00011294045 0.0008703269 0.0003751221
0001f0 51 80 dd 38 58 35 3a 3a 35 c2 a9 ad 9c 9e c1 ac
       0.00010562002 0.0007103286 -1.929932e-11 -5.502999e-12
000200 db 10 1d ae cf c5 a0 ad d8 11 b5 ac 17 38 18 ae
       -3.5712638e-11 -1.8277739e-11 -5.1463105e-12 -3.4610616e-11
000210 d9 47 56 3a b3 39 64 39 71 3e c4 3a f9 81 3d 3a
       0.0008174158 0.00021765269 0.0014972222 0.0007229145
000220 b0 6e 55 39 e1 6c b3 3a 4b 83 ca b9 c8 30 c2 b8
       0.00020354497 0.0013689065 -0.00038626263 -9.259727e-05
000230 02 21 32 ba 30 3f a1 b9 7c 9a b5 b8 00 ab 18 ba
       -0.00067950797 -0.0003075539 -8.6595275e-05 -0.0005823821
000240 0f af d9 ba d1 a3 00 ba b1 ea 4a bb 20 a2 d5 ba
       -0.0016607958 -0.0004907223 -0.003096264 -0.0016298927
000250 8b 9a f0 b9 6e 44 4a bb d7 25 4d ba 8d 50 72 b9
       -0.0004589151 -0.0030863541 -0.0007825768 -0.00023108926
000260 0f 0c c0 ba eb 34 49 ba c0 9b 62 b9 87 80 be ba
       -0.0014652031 -0.0007675427 -0.00021611061 -0.0014534154
000270 0d 4e 53 b7 07 9c 21 36 e9 fb be b6 46 31 06 37
       -1.2594753e-05 2.408169e-06 -5.6917675e-06 7.998495e-06
000280 87 22 17 36 e5 1a 7e 37 f9 09 33 3b d5 85 4b 3a
       2.252085e-06 1.5145842e-05 0.0027319177 0.0007763778
000290 02 f5 a5 3b f6 fe 28 3b c1 54 3e 3a 3f 01 a0 3b
       0.0050646076 0.0025786734 0.0007260554 0.004882961
0002a0 ef 68 a1 3a dd 3c b9 39 a9 c6 15 3b 12 d0 99 3a
       0.0012314598 0.00035331296 0.0022854006 0.0011734983
0002b0 2c 3b ad 39 2d a1 11 3b 66 52 98 9e 39 a8 b9 9d
       0.00033041218 0.0022221312 -1.6127705e-20 -4.914303e-21
0002c0 9d fd 0c 9f 40 29 9a 9e 99 9f ad 9d 99 f5 11 9f
       -2.9855937e-20 -1.6322445e-20 -4.595774e-21 -3.0908098e-20
0002d0 52 28 32 bb 74 5c 51 ba 93 80 a6 bb ff d7 2d bb
       -0.0027184677 -0.0007986494 -0.005081245 -0.0026526449
0002e0 7b ca 43 ba 44 98 a4 bb 58 a8 7b a2 6f 5e ad a1
       -0.00074688316 -0.0050230343 -3.4105964e-18 -1.1747932e-18
0002f0 d7 11 ec a2 25 f5 8f a2 b2 21 a2 a1 7c 4c 08 a3
       -6.3986817e-18 -3.9019785e-18 -1.0986466e-18 -7.388771e-18
000300 e9 cd d2 ba ab d5 f4 b9 3d 74 44 bb a2 4c cb ba
       -0.0016083095 -0.00046698502 -0.002997651 -0.0015510509
000310 15 f7 e4 b9 b3 7b 40 bb 10 0d bc 37 47 43 d6 36
       -0.0004367164 -0.0029370605 2.241743e-05 6.385529e-06
000320 2a 83 2f 38 ef e9 b1 37 f3 5f c8 36 c7 72 28 38
       4.1845407e-05 2.1208978e-05 5.9716344e-06 4.0161216e-05
000330 67 77 01 3a 5f b0 11 39 35 24 72 3a 5a f2 f1 39
       0.0004938752 0.00013893981 0.00092369627 0.00046147668
000340 ed 3e 08 39 0f 13 65 3a fb 2c d8 a4 82 65 61 a3
       0.00012993412 0.00087384967 -9.375127e-17 -1.22187696e-17
000350 e3 fa 6b a5 c0 27 3b a4 cf c8 52 a3 f3 32 b1 a4
       -2.0468005e-16 -4.058283e-17 -1.1426646e-17 -7.6847825e-17
000360 b9 1e a9 33 59 3a bf 32 c1 f7 1d 34 70 c9 9e 33
       7.875264e-08 2.226186e-08 1.4711897e-07 7.3940896e-08
000370 48 d5 b2 32 c4 56 16 34 a1 b5 04 b4 dd 96 1d b3
       2.0818916e-08 1.4001404e-07 -1.2359534e-07 -3.669162e-08
000380 fc f5 82 b4 d8 da 02 b4 f2 5f 13 b3 36 c9 77 b4
       -2.4393364e-07 -1.2186808e-07 -3.4313366e-08 -2.3076868e-07
000390 61 9a 5d 2e 52 8d 7a 2d 82 06 c8 2e fb 0b 50 2e
       5.03867e-11 1.4242234e-11 9.096103e-11 4.7304365e-11
0003a0 dd 4f 6a 2d 64 fa c4 2e bb f2 19 30 aa 56 33 2f
       1.3319093e-11 8.9575264e-11 5.6006016e-10 1.6310744e-10
0003b0 8b 16 8e 30 18 ea 14 30 de b6 27 2f e0 fd 8c 30
       1.0338267e-09 5.4174754e-10 1.5253529e-10 1.0258496e-09
0003c0 1c 3a c6 32 fb 56 d4 31 95 fc 31 33 2a 51 b0 32
       2.3076659e-08 6.1799006e-09 4.1440746e-08 2.0526006e-08
0003d0 90 93 c6 31 bd ef 26 33 3e a8 a5 37 f9 ec 5b 37
       5.7793343e-09 3.8867928e-08 1.9747877e-05 1.3108592e-05
0003e0 04 62 17 38 ea 9d 36 38 c7 ab 4d 37 a2 e6 ac 38
       3.609249e-05 4.353925e-05 1.2258947e-05 8.244558e-05
0003f0 f4 1b f3 af 5c 08 04 af 16 ea 5a b0 80 44 db af
       -4.4221304e-10 -1.20083e-10 -7.9640594e-10 -3.988454e-10

exp_avg_sq f4 [128, 6]
000000 73 de 91 38 30 06 b0 36 56 af 56 39 6f a2 72 38
       6.955573e-05 5.245929e-06 0.00020473948 5.7848574e-05
000010 dc f1 99 36 79 97 59 39 97 e6 2f 38 a2 82 57 36
       4.5879115e-06 0.0002075116 4.1938005e-05 3.2113535e-06
000020 98 76 01 39 77 ed 12 38 75 7a 3c 36 85 33 05 39
       0.00012346578 3.503027e-05 2.8085462e-06 0.00012703061
000030 28 af 23 1b 64 6a 60 19 4f 33 f4 1b a3 37 12 1b
       1.353964e-22 1.1602014e-23 4.0399571e-22 1.2094814e-22
000040 38 44 44 19 9a b4 0a 1c 0a 28 23 39 ef 40 47 37
       1.0146739e-23 4.589379e-22 0.00015559807 1.1876443e-05
000050 81 c1 ef 39 f1 db 07 39 b5 42 2e 37 7f 4e f6 39
       0.00045729804 0.00012956538 1.038674e-05 0.0004697926
000060 0a d0 af 29 cc ef dd 27 86 09 84 2a 18 d6 98 29
       7.80765e-14 6.159981e-15 2.3454518e-13 6.787295e-14
000070 39 19 c2 27 5c 2c 89 2a d3 e6 be 27 ac 75 ee 25
       5.3873163e-15 2.436687e-13 5.2985854e-15 4.1366156e-16
000080 65 55 8b 28 8e f4 9e 27 7f 8c d0 25 b1 62 93 28
       1.5469134e-14 4.4118956e-15 3.6177452e-16 1.6363079e-14
000090 3d 3c 13 39 8e 25 34 37 04 64 d8 39 91 85 f5 38
       0.00014041453 1.073758e-05 0.00041273248 0.00011707389
0000a0 e1 8c 1d 37 00 b0 de 39 fa bc f0 36 6a e7 12 35
       9.39073e-06 0.0004247427 7.174557e-06 5.472599e-07
0000b0 b5 95 b0 37 ed 6f c8 36 31 7a 00 35 37 98 b5 37
       2.1050548e-05 5.9734944e-06 4.786153e-07 2.1647762e-05
0000c0 ca e2 26 24 fd 08 4e 22 b5 3c f4 24 82 97 0b 24
       3.618761e-17 2.7922964e-18 1.05920974e-16 3.0269153e-17
0000d0 06 31 34 22 82 b0 fe 24 6e 91 b6 38 96 1a df 36
       2.4420502e-18 1.10453957e-16 8.705525e-05 6.649013e-06
0000e0 84 27 86 39 c9 09 98 38 81 1e c3 36 01 e5 89 39
       0.00025587913 7.2497474e-05 5.815004e-06 0.00026301297
0000f0 d9 32 45 36 35 d3 82 34 86 6d 0f 37 a0 2e 24 36
       2.9384885e-06 2.436806e-07 8.548965e-06 2.4465044e-06
000100 a1 d4 64 34 0e b8 21 37 9f d2 7e 12 9d c4 a2 10
       2.1311509e-07 9.639201e-06 8.040788e-28 6.4200664e-29
000110 77 48 3e 13 28 50 5d 12 00 5a 8e 10 72 34 49 13
       2.40171e-27 6.9834104e-28 5.614779e-29 2.5395624e-27
000120 7e 18 17 38 09 e0 3c 36 8d 26 dd 38 1b e5 fb 37
       3.6024016e-05 2.8144589e-06 0.00010545282 3.0028217e-05
000130 1c 2f 25 36 31 7a e9 38 f7 fc ba 0d 7c c0 fb 0b
       2.4614337e-06 0.00011133066 1.1524034e-30 9.69713e-32
000140 8b 6a 8c 0e 64 51 a7 0d 7d 2c dc 0b e2 99 9b 0e
       3.461526e-30 1.0311764e-30 8.4807856e-32 3.8358634e-30
000150 11 37 95 0b 5c db cb 09 c8 3d 59 0c 76 d8 82 0b
       5.747557e-32 4.9076757e-33 1.6735664e-31 5.039987e-32
000160 5a 49 b2 09 32 ff 7b 0c e9 cf 72 2a 57 a4 97 28
       4.292092e-33 1.9413132e-31 2.1566051e-13 1.6835639e-14
000170 cd 53 34 2b bb ff 4e 2a f3 9e 84 28 9d 73 3b 2b
       6.4065143e-13 1.83852e-13 1.4723877e-14 6.659619e-13
000180 9b be d1 13 a3 0a 05 12 6e f5 97 14 f7 ec af 13
       5.294697e-27 4.198051e-28 1.5343909e-26 4.4409876e-27
000190 24 b5 e8 11 7d 75 a4 14 89 e3 03 38 d3 8d 1f 36
       3.6714783e-28 1.6606109e-26 3.1444742e-05 2.3775399e-06
0001a0 0d 6e c2 38 bd a5 db 37 5c 8a 0b 36 6d 3b c5 38
       9.2711394e-05 2.6184012e-05 2.079315e-06 9.404761e-05
0001b0 18 2e db 22 33 86 22 21 c1 6a a5 23 ac b7 cd 22
       5.9408873e-18 5.5065346e-19 1.7934548e-17 5.575983e-18
0001c0 60 23 0e 21 4a e7 c8 23 1d f0 22 39 78 81 48 37
       4.815829e-19 2.1781998e-17 0.00015538973 1.1951073e-05
0001d0 4f 67 ef 39 c9 d1 07 39 0a 5b 2f 37 b6 da f7 39
       0.00045662603 0.00012952754 1.04520095e-05 0.00047274464
0001e0 48 53 14 39 3c c5 35 37 1f d2 d9 39 98 66 f7 38
       0.00014145405 1.0834363e-05 0.00041546018 0.000117969874
0001f0 7a f8 1e 37 f8 b1 e0 39 ce 6f b2 1e f3 ec d9 1c
       9.475387e-06 0.00042857206 1.8892724e-20 1.4421105e-21
000200 b0 0c 83 1f 25 8d 94 1e 31 97 be 1c aa b1 86 1f
       5.550165e-20 1.5728486e-20 1.2612227e-21 5.704513e-20
000210 a2 ec a5 38 6f aa cc 36 3d 7b 73 39 a3 35 8a 38
       7.9118894e-05 6.099515e-06 0.00023220196 6.5903434e-05
000220 6b fe b2 36 2f ff 7c 39 cc e3 82 38 f5 6c a2 36
       5.3344315e-06 0.00024127656 6.2413135e-05 4.8406605e-06
000230 a5 dd 3f 39 4a 41 5a 38 4b 0d 8e 36 24 c8 48 39
       0.00018297748 5.2036055e-05 4.2334773e-06 0.00019148045
000240 44 15 0b 39 62 ef 28 37 fd 99 cc 39 9e 85 e7 38
       0.00013263995 1.0069316e-05 0.00039024642 0.000110398265
000250 b1 be 13 37 13 d4 d0 39 65 5e ba 37 84 56 e3 35
       8.806282e-06 0.0003983086 2.2216884e-05 1.6937997e-06
000260 4d c4 89 38 73 4a 9c 37 7b d2 c6 35 f3 82 8c 38
       6.569233e-05 1.8631317e-05 1.4813407e-06 6.7001114e-05
000270 ad 98 39 36 55 59 64 34 85 1c 08 37 1e 02 1b 36
       2.7656017e-06 2.1266654e-07 8.112872e-06 2.3098032e-06
000280 dc b4 47 34 f3 22 0d 37 d2 51 9f 39 3b f8 c3 37
       1.8599115e-07 8.412392e-06 0.00030387804 2.3361403e-05
000290 d7 64 6a 3a 36 2c 85 39 80 63 ab 37 58 3f 72 3a
       0.0008941418 0.00025400677 2.0431122e-05 0.00092410063
0002a0 12 8d 66 38 d1 c1 8f 36 97 8a 29 39 45 37 41 38
       5.4967655e-05 4.2842953e-06 0.00016168725 4.606626e-05
0002b0 56 73 7b 36 79 b4 31 39 cf a8 d6 01 73 15 54 00
       3.746905e-06 0.00016947267 7.8853413e-38 7.721876e-39
0002c0 3a f7 a4 02 31 06 d2 01 6b 89 49 00 1d e1 cf 02
       2.4239535e-37 7.71507e-38 6.753287e-39 3.0545125e-37
0002d0 74 bc 9d 39 b8 01 c0 37 b3 fe 67 3a f4 2a 83 39
       0.00030085782 2.2888984e-05 0.0008849904 0.0002501827
0002e0 36 ec a7 37 39 59 6d 3a 03 eb 02 09 7f 6f 39 07
       2.0017946e-05 0.0009054128 1.5758683e-33 1.3950619e-34
0002f0 f7 64 c8 09 47 6b f0 08 03 2d 22 07 be 39 e5 09
       4.8243195e-33 1.4469695e-33 1.2200753e-34 5.5184045e-33
000300 bd 5e a3 38 84 8a c7 36 0f ab 70 39 fb 4b 88 38
       7.790092e-05 5.9467875e-06 0.00022951908 6.499138e-05
000310 13 83 ae 36 80 a9 76 39 e6 53 ed 32 ca 38 12 31
       5.200863e-06 0.00023523532 2.7628584e-08 2.1278077e-09
000320 4b ec ad 33 d4 22 c5 32 f8 c2 ff 30 75 c0 b4 33
       8.098922e-08 2.2949656e-08 1.8609105e-09 8.416911e-08
000330 43 76 b4 37 f3 fb db 35 5f 78 84 38 a2 45 96 37
       2.1512742e-05 1.6390098e-06 6.316671e-05 1.7913819e-05
000340 05 64 c0 35 5d f7 87 38 1c 15 c5 10 06 e9 f8 0e
       1.4334224e-06 6.483377e-05 7.7735323e-29 6.1361114e-30
000350 64 c4 8f 11 8c 15 a6 10 4f b0 d9 0e 49 d8 99 11
       2.2682457e-28 6.5508653e-29 5.366441e-30 2.427244e-28
000360 84 3c 24 2a 71 fd 4d 28 9b 37 f6 2a 86 78 0d 2a
       1.4587122e-13 1.1434742e-14 4.3736962e-13 1.2565131e-13
000370 ea 26 34 28 44 a2 fe 2a 4c 20 b7 2b 82 3a de 29
       1.0000445e-14 4.5232058e-13 1.3011896e-12 9.86893e-14
000380 8d 85 85 2c 13 9a 96 2b 85 5a c2 29 80 5a 89 2c
       3.7949145e-12 1.0700905e-12 8.631033e-14 3.9038217e-12
000390 5f 9b eb 1e fb 45 12 1d 6f 38 af 1f 1c e7 c6 1e
       2.4945853e-20 1.9359118e-21 7.4208744e-20 2.105965e-20
0003a0 12 da ff 1c c0 d0 b4 1f 0c 88 cd 22 93 04 fb 20
       1.6930854e-21 7.657831e-20 5.5709407e-18 4.252408e-19
0003b0 bc 25 98 23 a1 2f ac 22 24 88 db 20 b9 25 9b 23
       1.6495854e-17 4.6671122e-18 3.7190133e-19 1.682111e-17
0003c0 48 17 9e 28 e8 0a c8 26 3f 53 69 29 84 19 85 28
       1.755162e-14 1.3880744e-15 5.1808597e-14 1.4777032e-14
0003d0 5a f3 ae 26 2b 48 77 29 a5 a7 e1 36 f2 f8 0f 35
       1.2139636e-15 5.4907613e-14 6.725039e-06 5.3633914e-07
0003e0 88 e3 a4 37 b9 e4 bd 36 ac d3 fb 34 8d f8 b1 37
       1.9656276e-05 5.6592658e-06 4.6906405e-07 2.1215785e-05
0003f0 4b 54 9f 22 4a b8 cc 20 c4 2d 6d 23 77 97 88 22
       4.3186285e-18 3.4680897e-19 1.2857487e-17 3.7023244e-18

exp_avg f4 [128]
000000 f1 e0 a6 38 47 d3 8e 38 25 25 8b 29 dc 30 a2 b8
       7.9573954e-05 6.810441e-05 6.1792836e-14 -7.733863e-05
000010 80 cc d5 b0 39 70 9c b0 90 77 53 b6 88 04 9c b7
       -1.5555912e-09 -1.138239e-09 -3.1511045e-06 -1.859876e-05
000020 0e fb 9a 2a 6e 68 80 b8 ab 27 4b b7 60 13 52 a5
       2.75301e-13 -6.122967e-05 -1.2108979e-05 -1.8221161e-16
000030 76 fa 20 38 ae 28 81 a1 76 74 d9 1f 5a a1 c9 b1
       3.8380233e-05 -8.752148e-19 9.2095743e-20 -5.8682135e-09
000040 ff d5 71 a5 06 3f 5f b8 05 c8 8c 2c f8 f4 ed 38
       -2.0975923e-16 -5.322604e-05 4.001246e-12 0.000113466696
000050 9c 16 ba b7 eb 1e 98 2b 3c 4f 33 b8 bd 91 98 37
       -2.2183456e-05 1.0808831e-12 -4.275072e-05 1.8187677e-05
000060 06 23 ca 38 03 61 3e 38 a5 f1 fd b4 c9 e6 1f b9
       9.638634e-05 4.538988e-05 -4.7300742e-07 -0.00015249396
000070 1b 89 91 b8 75 dd 91 1c 0c 7d 24 39 e9 35 88 20
       -6.939677e-05 9.65254e-22 0.00015686842 2.307497e-19
000080 e3 5b c0 38 ee 56 a8 b5 2f ed e4 b7 d9 15 31 22
       9.172389e-05 -1.2542275e-06 -2.7290165e-05 2.399954e-18
000090 eb 3d 96 b1 3e a0 f7 31 d5 d9 44 ac 90 e6 0c ae
       -4.372614e-09 7.2068636e-09 -2.7974196e-12 -3.2037095e-11
0000a0 23 d4 a6 b0 0a ca 2c b6 c2 77 cf 2d 3a 50 bd b7
       -1.2138383e-09 -2.57476e-06 2.3586359e-11 -2.2567914e-05
0000b0 65 04 2d b8 ce dc c8 a8 56 a9 87 35 0b f8 e8 b8
       -4.1250507e-05 -2.230022e-14 1.0107567e-06 -0.00011108824
0000c0 ca bb c8 27 89 d9 3c 35 e6 e6 87 b3 8e 0c 9a b8
       5.5714753e-15 7.0352013e-07 -6.3284276e-08 -7.345631e-05
0000d0 04 5a 03 38 e2 5d 6a a6 65 f1 9b b8 2f c1 96 29
       3.1316667e-05 -8.1312294e-16 -7.435939e-05 6.69485e-14
0000e0 84 e2 32 2d 98 ab a1 38 b2 0a fa 37 44 57 95 b8
       1.0168425e-11 7.70904e-05 2.9807303e-05 -7.121128e-05
0000f0 fd e9 7b b6 71 45 14 af 9e 76 aa b4 a8 2d 48 b6
       -3.7538114e-06 -1.3485192e-10 -3.1751273e-07 -2.9828898e-06
000100 7c a1 8c 32 27 82 a0 2a 40 e4 b4 b8 ed 11 3a b7
       1.637158e-08 2.851202e-13 -8.625584e-05 -1.1090638e-05
000110 3e e6 b6 38 40 72 82 38 6f 2c 82 33 ef 0a 95 37
       8.721322e-05 6.220164e-05 6.061679e-08 1.7767275e-05
000120 96 f1 42 af 5f 54 66 b8 cb e0 09 39 7f 59 94 37
       -1.7730026e-10 -5.491485e-05 0.0001314908 1.768465e-05
000130 39 fd 2a b5 10 4c 87 b7 84 ae 4a b7 a3 5c 5b 38
       -6.369842e-07 -1.6128673e-05 -1.2080771e-05 5.2299943e-05
000140 b7 ff 5f 2e da b0 b3 37 76 62 80 b8 62 f5 22 b1
       5.093145e-11 2.1420816e-05 -6.1218554e-05 -2.3713587e-09
000150 e2 b7 80 a9 0e d7 b1 b7 84 88 1c b1 0e f9 60 ab
       -5.7162405e-14 -2.1200187e-05 -2.2778588e-09 -7.992642e-13
000160 64 fd 7d 2f fd cb 57 2e ea 17 35 ac bf 4e 77 37
       2.3100238e-10 4.9066518e-11 -2.5734922e-12 1.4740682e-05
000170 b3 43 ac 29 8f d0 b4 b8 df 3e d3 b2 10 e2 69 2c
       7.6500784e-14 -8.621916e-05 -2.4592223e-08 3.3236781e-12
000180 f9 7b 37 2b c2 ef 24 b2 54 95 06 18 b4 98 a6 38
       6.5186707e-13 -9.600571e-09 1.7394486e-24 7.94394e-05
000190 7e 6a 38 1d 7c 9a 25 b7 92 bf 01 a1 94 9d 9e b8
       2.4407252e-21 -9.870735e-06 -4.396044e-19 -7.563378e-05
0001a0 78 1e 06 aa 40 c6 ab 38 63 c6 e6 a5 69 d3 14 b4
       -1.1912162e-13 8.190842e-05 -4.0033072e-16 -1.3860485e-07
0001b0 12 96 9d b8 f8 4d 23 36 b8 cb ef 22 f6 1e 21 34
       -7.514296e-05 2.4334277e-06 6.4996775e-18 1.5005557e-07
0001c0 e1 26 0a 24 52 c3 b2 b0 9f 91 32 39 b0 ff ee 36
       2.9956912e-17 -1.3006718e-09 0.00017029651 7.1227187e-06
0001d0 a8 65 6a b2 f3 29 c3 b7 a6 12 92 29 4e ec 3f 39
       -1.3643707e-08 -2.3265346e-05 6.4869375e-14 0.0001830321
0001e0 03 0e c4 34 bb 23 05 b6 4e 75 5f b4 1a 5b c5 38
       3.651804e-07 -1.9839342e-06 -2.0811169e-07 9.410661e-05
0001f0 23 c3 24 a9 07 2e 86 b8 32 8c 15 a9 d8 46 c7 38
       -3.658457e-14 -6.398191e-05 -3.3206246e-14 9.502255e-05
