results/RedCells2/RedCellBehaviour/RedCellBehaviour-39654.onnx (onnx, 87296 bytes, 7 tensors)

network_body._body_endoder.seq_layers.0.weight f4 [128, 31]
000000 13 ae 09 3e c7 f8 3a 3d fc 76 f4 bd c9 13 b4 3d
       0.1344531 0.04564741 -0.11936757 0.08792836
000010 cc 3d a8 bc d1 da 7e 3d b1 b4 a0 be df 50 8b be
       -0.02053728 0.0622204 -0.31387857 -0.27210137
000020 1b 7d e0 3d 31 b1 17 bc 0a 08 97 be 19 ec 4a bc
       0.10961362 -0.009258554 -0.2949832 -0.012385392
000030 ae 57 20 3e 34 b4 f4 3d 34 3f 7a 3e 78 67 7c 3e
       0.15658447 0.119484335 0.24438173 0.24648845
000040 c0 1e bb bd 5c 5e d5 3c 3d 80 61 3e a5 8f 11 3d
       -0.091367245 0.02604597 0.22021575 0.03553738
000050 b4 46 64 be 48 ad e6 3d 94 57 6f 3c 29 e7 ce 3b
       -0.22292596 0.112635195 0.014608283 0.0063141775
000060 4e 4e b5 bd 3b db 82 3d 7f 8f 24 be 10 bd 33 3e
       -0.08852826 0.06389471 -0.16070364 0.1755259
000070 f0 91 cc bd 55 9e 35 be 23 e7 3b be 4d c3 a8 3c
       -0.09988773 -0.1773618 -0.1834989 0.02060094
000080 6b b9 78 bc 93 35 88 3e cc 55 4f 3e ba 52 2b 3e
       -0.015180926 0.26603374 0.20247573 0.16730776
000090 66 a6 bb 3e 44 0f 2c 3e f6 ee 58 3d 71 77 2c bb
       0.3665039 0.16802698 0.052962266 -0.002631631
0000a0 74 3e 81 bd c7 c2 02 be 01 3f 39 3e 60 6a e7 3e
       -0.0631074 -0.12769614 0.1809044 0.45198345
0000b0 c4 ac 4f 3d 6b fc 4b bc a2 f7 e4 3e cb 4e 6e 3e
       0.05070187 -0.012450318 0.4472018 0.23272245
0000c0 88 6d c5 bd 61 93 a6 3d f8 08 89 3e e1 b9 36 be
       -0.09640032 0.08133579 0.26764655 -0.17844345
0000d0 26 56 f4 bd fd 07 27 be 0f 2f 50 3d 06 4b 13 bc
       -0.11930494 -0.16311641 0.05082613 -0.008990055
0000e0 09 9e f0 3c 9e 78 7b 3d 32 58 a7 3e 16 74 e7 3d
       0.029372232 0.061394326 0.32684475 0.113014385
0000f0 ae 6c e3 3d c6 73 28 be b9 5d b9 bc f9 84 64 3e
       0.111047134 -0.16450414 -0.022627698 0.2231635
000100 cf 4c 1e be ba 20 9b bd b1 a2 f5 3d 18 56 9f be
       -0.15458988 -0.075746015 0.119939215 -0.31120372
000110 b8 9c e3 bd ca 90 2e bd 16 42 c2 bd 4c 4e 35 be
       -0.11113876 -0.04261855 -0.09485261 -0.17705649
000120 80 2e c6 bd 99 95 d8 bc 11 18 85 bc b6 e1 67 bd
       -0.09676838 -0.026438521 -0.016246827 -0.05661174
000130 46 d1 53 3d d9 c1 2b bd f2 85 a6 bd be 55 21 be
       0.05171325 -0.041932914 -0.08131017 -0.15755364
000140 78 b0 23 be e4 05 f9 bd d4 91 2c 3e 86 0f dd 3d
       -0.15985286 -0.12159327 0.16852504 0.107939765
000150 ca a7 81 bd 9d 84 33 be 81 63 9e 3e e8 f2 e0 bd
       -0.06330831 -0.17531057 0.3093529 -0.10983831
000160 04 f9 a2 3c bc 1e 60 be 74 b2 60 3d 20 d6 d5 bd
       0.01989413 -0.21886724 0.054857686 -0.10441232
000170 57 8b 61 3d fc cd 12 3e 4a 26 9b 3e d9 08 0b 3e
       0.055064525 0.1433639 0.3030265 0.13577594
000180 de fa c2 bd 3a 21 65 bd f4 4b 48 3e 37 f5 c6 bd
       -0.09520505 -0.05593989 0.19560224 -0.0971474
000190 3a f7 72 be 1f ef 20 be 05 45 16 be ad 2c 52 3e
       -0.23727122 -0.15716217 -0.14674766 0.20524855
0001a0 c4 99 c8 bd 25 91 d3 be aa c5 c7 bd 42 8c 3e be
       -0.097949535 -0.41321674 -0.09754498 -0.18608192
0001b0 33 1f 4a 3e 12 a0 2b 3b c2 c0 b6 be 92 d4 e0 3d
       0.19738464 0.0026187939 -0.35693938 0.109780446
0001c0 12 33 96 bd 27 1f 8d be 19 d1 ea 3e e8 00 b7 be
       -0.0733396 -0.2756283 0.45862654 -0.3574288
0001d0 fe e6 85 3e 33 2c 7b 3e fd ee 31 bd 47 b3 9a bd
       0.26152796 0.2452858 -0.043440808 -0.07553726
0001e0 0b 25 b2 3e e0 43 9b 3d 85 43 01 bd 12 20 05 be
       0.34793887 0.075813055 -0.031558532 -0.13000515
0001f0 2a 37 ae 3b 22 8e 67 bd 83 22 1b 3e 28 53 10 be
       0.0053166347 -0.056532033 0.15149884 -0.14094222
000200 e4 f2 fb bd b0 83 f0 3e 8c 87 9e be 9c 9d 06 be
       -0.12302187 0.4697547 -0.3096279 -0.1314606
000210 ff fe 54 bb fa 20 b7 3d 9f 54 35 3e 15 5a c7 bb
       -0.0032500622 0.08941837 0.17708062 -0.0060837367
000220 a7 23 b9 3e a1 d6 03 be 23 05 ba 3e 95 64 38 be
       0.36160013 -0.12874843 0.36332044 -0.18007119
000230 ec cf 9c 3c a7 25 a2 3c fc d7 55 be 88 3e f4 bc
       0.019142114 0.019793345 -0.20883173 -0.029814973
000240 54 63 85 be 62 4e 11 3e 35 75 5a be 9e 3e 54 3e
       -0.26052344 0.14190057 -0.21333773 0.20727012
000250 31 ff 36 3d 75 4c 1d bd e7 b0 36 be 5e c2 8d 3e
       0.044676963 -0.038402993 -0.1784092 0.27687353
000260 6f c9 11 be f1 03 58 be 43 56 f0 bd f8 6c 78 3e
       -0.14236997 -0.21095254 -0.11735203 0.24260318
000270 78 ba e2 bd 4f 6b 56 be 43 ef 97 bd f5 1e 0a be
       -0.11070722 -0.20939372 -0.074186824 -0.13488372
000280 68 c3 31 3e 09 8e 20 3e 94 48 41 be f5 ac 24 3e
       0.17359698 0.15679182 -0.18875343 0.16081603
000290 0f 97 15 3e 90 7a e8 bd 11 00 d4 3d 57 71 48 3b
       0.14608406 -0.11351502 0.10351575 0.0030585134
0002a0 58 ab 86 bd 01 59 d5 3d 5a 0b 46 be ec 96 d4 bd
       -0.0657565 0.10417367 -0.19340268 -0.103803486
0002b0 9c f9 ef 3e d9 c1 ba bd 42 62 26 be 55 86 a9 bd
       0.46870124 -0.09119005 -0.1624842 -0.08277575
0002c0 a5 38 81 be 6f e5 2d be d7 28 8d 3e 64 00 68 3e
       -0.2523853 -0.16982053 0.2757022 0.22656399
0002d0 08 9d ae bd d2 b8 02 be 94 d4 f6 bb 6c aa ef bd
       -0.08526045 -0.12765816 -0.0075326655 -0.11702427
0002e0 e9 31 77 be 01 cc f8 3c cb 03 c6 3d 8f fd da bd
       -0.24140133 0.030370714 0.09668692 -0.10692894
0002f0 ef 2f 8f be ef 2f 94 3d dd 06 c1 be ce 4b e8 3d
       -0.27966258 0.07235705 -0.3770055 0.113425836
000300 e6 89 0a 3e b1 0f 9f be 4c 2b 0b bd 6b 88 84 be
       0.13529167 -0.3106666 -0.033976838 -0.2588533
000310 0b 3c a6 3e 7a 40 97 3d 8c f7 3f 3e e6 6b 25 3e
       0.32467684 0.07385345 0.18746775 0.16154441
000320 25 4f d5 3d e2 64 3b be 47 5e 4f 3e ce 50 9c bd
       0.10415486 -0.18300202 0.20250808 -0.076326
000330 f0 cb bd bd b5 5f 78 3d 8e e6 80 be 23 1e dd bd
       -0.092674136 0.06063815 -0.251759 -0.10796764
000340 3f 0a b7 3e f6 b9 e3 bd 26 37 27 bd 6d e2 98 be
       0.35750005 -0.111194536 -0.040824078 -0.2986025
000350 af e4 08 3d c1 a1 d6 3d 4f fe 32 3c 16 3d 40 be
       0.033421215 0.10480071 0.01092489 -0.18773302
000360 fa 88 ea bd 1b 7c 9d be f6 c3 b4 3d b1 92 86 bd
       -0.114519075 -0.30758747 0.08826439 -0.06570948
000370 cf 68 17 bd 2b 30 32 3e e6 87 ba 3d b7 74 d8 3d
       -0.036965188 0.17401187 0.09107952 0.105691366
000380 4b d5 c2 3d 0e c7 04 3d dd ea ab 3d 58 af 55 be
       0.09513339 0.032416396 0.08394406 -0.2086767
000390 1e 00 1e be 31 08 b5 bd fc d2 a1 3d 79 db 4b be
       -0.15429732 -0.08839453 0.0790157 -0.19907941
0003a0 6c 3e f8 3b ff 28 59 bd eb 19 8d 3b 21 6f f6 bd
       0.0075758006 -0.053017613 0.004306068 -0.12032915
0003b0 53 d8 f5 3d 9a 6d 3e be ee f6 2d bd df c7 33 3e
       0.12004151 -0.18596497 -0.04247182 0.17556714
0003c0 88 a3 9b be 8c 51 97 bd 87 be dd 3c ab ab bc 3d
       -0.30398202 -0.07388601 0.02706839 0.092124306
0003d0 5a e0 11 bd 4a e6 39 3e 84 e8 c8 3d 4e 1e 74 3e
       -0.03561435 0.18154255 0.09809974 0.23839685
0003e0 28 3e d9 bb 63 16 d4 3d 36 c8 6a 3e 95 9f 2d 3e
       -0.006629724 0.103558324 0.22927937 0.16955407
0003f0 d0 fe 54 3d c3 46 a9 3e ad 07 12 3e 7f 37 c8 3d
       0.05200082 0.330618 0.1426074 0.0977621

network_body._body_endoder.seq_layers.0.bias f4 [128]
000000 af 3d f5 bb f1 80 27 bd c1 3b ae 3c 42 91 65 bb
       -0.00748416 -0.040894452 0.021268727 -0.0035029207
000010 f7 e6 ad bc 27 4f c2 3c 8d d7 2c 3c 3d 4b 18 bd
       -0.021228297 0.023719383 0.010549438 -0.037181128
000020 0f 51 18 bc 4c ed 32 bd c9 60 ee bc a6 aa 0a 3d
       -0.00929667 -0.043683335 -0.029098885 0.03385415
000030 ad 37 9a bc 80 47 ff 3a 2f 70 fe bb 12 26 89 bc
       -0.018825376 0.0019476265 -0.007764838 -0.016741786
000040 c6 62 b7 3a 1c 26 84 3c b7 66 56 bd 9d 50 b8 3d
       0.0013991229 0.016131453 -0.05234405 0.08999751
000050 6c 85 56 bd 63 87 03 3c 83 ab 88 3b 4f e0 35 bc
       -0.052373335 0.008027884 0.0041708364 -0.011100843
000060 76 c5 94 3c f6 38 be 3b ad f7 23 3c 3b 7a 04 bd
       0.018160563 0.00580513 0.010007781 -0.03234313
000070 06 a5 99 bc c5 7e a9 bb d8 2a ef 39 bd 0b 0b bd
       -0.018755447 -0.005172583 0.00045617553 -0.03394674
000080 85 4e cb 3c 40 ac fe bc 40 90 02 bd 3e 26 89 bc
       0.024817714 -0.031087995 -0.03187585 -0.016741868
000090 8b 30 d8 3b 71 fc 93 3b 89 11 28 39 62 90 e0 bc
       0.0065975836 0.0045161773 0.00016028261 -0.027412597
0000a0 3a 13 26 3c be 0f 08 3c 3b a3 a1 3c 0a 03 8d bd
       0.01013642 0.0083045345 0.019731155 -0.06885345
0000b0 c6 95 fd bc 9d a8 e5 bc 1a 69 12 bd 72 67 0c ba
       -0.030955207 -0.028034503 -0.035744764 -0.0005355991
0000c0 ff a7 0d bd d4 6f e8 3c 7a be 85 bd bb d4 35 bd
       -0.03458404 0.028373636 -0.06530471 -0.04439233
0000d0 7d 09 32 3d e5 43 7e bc 03 08 16 3c 89 6b c1 bb
       0.04346608 -0.015519117 0.009157184 -0.005902712
0000e0 c2 33 de bc d4 52 0b 3d 38 f3 ad bc 2a 7f 95 bc
       -0.02712429 0.034014538 -0.02123414 -0.018249113
0000f0 82 bc e3 3b f8 b4 0d bd 2c 98 87 bb 04 7e cf 3c
       0.006949962 -0.034596413 -0.0041380133 0.025328644
000100 ca 5b 60 3c ac 59 6b bc 1b d3 0c bd f8 a0 ca bb
       0.013693759 -0.014364641 -0.034381013 -0.0061837398
000110 e9 28 18 bd c3 1f c0 bc ec ce 4b bd 51 21 5b bc
       -0.03714839 -0.023452645 -0.049757883 -0.0133746425
000120 06 37 8c b9 89 bc 33 3c dc 3e 77 3c 5c 40 1b bd
       -0.00026743877 0.010970243 0.01509067 -0.037903175
000130 05 70 15 bd 9b 7b a5 3c ae 93 64 bc 1d af 14 bd
       -0.036483783 0.020200541 -0.013951225 -0.036299814
000140 9c 78 44 bc 6d 10 53 3b e1 c2 aa 3b 4c 59 2f bd
       -0.011991646 0.0032205835 0.0052112197 -0.04280977
000150 12 35 c6 bc de 4b bf 3b 76 f2 27 3c c3 cf e5 3c
       -0.024195228 0.0058379015 0.010250678 0.02805317
000160 5c c0 b3 3b 68 f1 1a bc 72 42 cb bc 60 3d 6b 3b
       0.0054855775 -0.00945697 -0.024811957 0.0035894737
000170 b4 e3 da 3c 8a 8a f3 3b 41 45 09 bc df 4d 96 bc
       0.026719905 0.0074322866 -0.008378328 -0.018347679
000180 e3 68 fb 3b 1a 13 02 3c bc 2e 0a 3d fb 06 34 3c
       0.0076724156 0.0079391245 0.033735976 0.010987992
000190 54 29 13 bd c7 07 e8 3b 05 f4 0b bc ac 6c b7 bc
       -0.035928085 0.0070810053 -0.0085420655 -0.022390686
0001a0 2c cd 9c bc 77 8e 84 ba 50 2e 2e 3c 1d 76 3a bd
       -0.019140802 -0.0010113259 0.010631159 -0.045522798
0001b0 44 c4 5c 3c 7e ed a2 bc e0 8d b7 bb 1f 87 41 3b
       0.013474528 -0.019888636 -0.0056016296 0.0029530001
0001c0 76 34 16 3c c3 32 22 bd a7 25 21 bd 51 b7 30 bd
       0.009167781 -0.03959919 -0.03934255 -0.043143574
0001d0 29 33 fe bc e6 10 7f 3c 5a 79 92 bc 20 d8 cb 3b
       -0.031030254 0.015567994 -0.01788013 0.0062208325
0001e0 0b c7 d7 3b d3 ca 3e bc 40 0e 8d 3c 67 07 c4 ba
       0.006585007 -0.011645037 0.017218709 -0.0014955819
0001f0 9c 78 2f bd 1f a1 88 bb 3e a0 2b bd 59 35 a7 3b
       -0.04283963 -0.0041695978 -0.041900866 0.005102795

network_body._body_endoder.seq_layers.2.weight f4 [128, 128]
000000 71 3a 11 3d 11 9f db bc 1c b1 b3 3d 6d 32 b5 bd
       0.035456125 -0.026809247 0.08774015 -0.088475086
000010 e3 72 7d 3e 27 20 e2 3d bb 09 bb 3b e4 70 b8 3c
       0.24750857 0.11041289 0.005707947 0.022514768
000020 ea 00 c4 3d d5 11 49 bd 37 ac 24 bd a7 f2 f9 3d
       0.09570487 -0.04908927 -0.0402033 0.122044854
000030 61 4e 5c be fe ff 86 bc 35 59 1b bd fb bb 37 3c
       -0.21514274 -0.016479488 -0.03792687 0.011214252
000040 e6 43 87 bd be 7d 94 bd 91 c6 8a bd 52 ce 56 bc
       -0.066047475 -0.07250546 -0.06776155 -0.013110714
000050 ec 66 1f 3d 7d 44 18 3d dd 6d 83 bd 2f 7d b4 bd
       0.038916513 0.03717469 -0.06417439 -0.088129394
000060 29 92 39 bd 52 69 35 bd 8b 09 c2 3c ae 1e e2 3b
       -0.045305405 -0.044289894 0.023686191 0.00690063
000070 33 70 91 bb 37 03 22 3c 39 e9 95 ba 1f 25 84 bd
       -0.004438424 0.009888462 -0.0011437304 -0.06452393
000080 a0 c2 d4 bd a6 56 07 be 81 41 c1 bd ac de 34 be
       -0.10388684 -0.13216648 -0.09436322 -0.17663068
000090 90 26 11 3e fd 73 c0 3c 92 93 97 3d 28 4c a1 bc
       0.14174867 0.023492808 0.07401194 -0.019689634
0000a0 98 7e 96 b9 b5 c5 dd bc a7 f5 b4 3d 86 40 14 3e
       -0.0002870455 -0.027071813 0.08835917 0.14477739
0000b0 8b 4b 75 3c d4 77 e2 bd b9 51 6f bd af a8 aa 3d
       0.014971624 -0.11058012 -0.058427546 0.08332955
0000c0 25 21 a5 3d 5d 67 48 3e 4c 15 a3 bd 1e b3 04 3e
       0.080629624 0.1957068 -0.079630464 0.12958953
0000d0 98 37 81 bd 0d 19 ea bd 35 91 9e bd 2d 69 28 3c
       -0.06309432 -0.11430559 -0.0774254 0.010278982
0000e0 84 47 43 bc 48 0f cd 3b 83 1c 40 3e 97 aa b9 3c
       -0.011918906 0.006257925 0.18760876 0.022664351
0000f0 55 09 a5 3c d6 d1 16 be 40 f5 17 be 70 4d 6f bd
       0.020146051 -0.14728484 -0.14839649 -0.05842346
000100 39 be 3a 3d 23 9c c8 bd 77 88 98 3d e1 93 90 3d
       0.045591567 -0.09795406 0.074479036 0.07059456
000110 48 9f 9f bd eb 0d 2c be 26 9f 88 bc c9 b6 ae 3c
       -0.07794052 -0.16802184 -0.01667745 0.021327393
000120 8c 46 af bd 0e df b2 3d a4 7c 6c 3c 6d a7 1c bd
       -0.085583776 0.087339506 0.0144340135 -0.038245607
000130 80 74 d4 3d 07 1b 21 be fb 37 a6 3d ec e6 58 3a
       0.10373783 -0.15732966 0.08116146 0.0008274156
000140 b2 95 8d 3d c4 4a 0e bc ba b3 71 3d 83 fd 83 bd
       0.06913318 -0.008684818 0.05900929 -0.06444838
000150 98 bf e4 bc ad cf 0a 3e 78 b5 58 3e d1 ba 96 3c
       -0.02792339 0.13555785 0.21162975 0.018399628
000160 40 dc ee 3d bf d4 21 3d 86 7f 43 3c 48 a0 27 bd
       0.11663103 0.03950953 0.011932259 -0.04092434
000170 c1 2c c3 bd b6 90 2c bd 7a 63 10 be 8d e6 e7 3c
       -0.095300205 -0.042130195 -0.14100447 0.028308177
000180 e8 d8 99 3d 5a 1c 07 3d bc 8b 8a bd 38 e6 bb bd
       0.07512075 0.032986023 -0.067649335 -0.0917477
000190 4f f8 e8 bd ff 8f 00 be ad 54 2b b9 0f 0a 80 bd
       -0.11375486 -0.1255493 -0.00016339375 -0.062519185
0001a0 ab 7a 8e bd 9e fc 57 bd bb 7e 4a 3c 5c 0d f0 bc
       -0.06956991 -0.05273115 0.012359316 -0.029303245
0001b0 16 57 8d 3c 07 c6 38 bd 06 19 27 be 68 ba b8 3d
       0.01725344 -0.04511073 -0.1631814 0.09019929
0001c0 7d 7a c3 3d 46 af 04 3c b9 42 3c 3d ba 12 2d 3e
       0.09544847 0.008098429 0.04596207 0.16901675
0001d0 db 53 80 3d e8 5a 9d 3d fb fa a6 bd d0 61 10 bd
       0.06265994 0.076833546 -0.081533395 -0.03524953
0001e0 1c a5 88 3d d7 d1 c5 bd d2 73 c6 3c e3 f0 5f bd
       0.06672117 -0.096591644 0.02422515 -0.054673087
0001f0 03 b0 01 be 90 3c e4 3d be db bb 3d c7 b3 b8 bd
       -0.126648 0.11144364 0.09172772 -0.09018665
000200 4d 9f 08 be 33 b0 90 3d 7f a1 a0 3d 44 d4 91 bd
       -0.13342018 0.07064857 0.07843303 -0.071205646
000210 51 fa ba bd 50 8a 67 3d 88 fd 75 bd b2 cd 91 3d
       -0.09129775 0.05652839 -0.06005624 0.071193114
000220 23 47 c5 3d 8c fb 12 bd 04 0b 7b 3d 29 68 41 be
       0.09632709 -0.035884425 0.061289802 -0.1888739
000230 51 c9 cb 3d 19 dc 3c 3b f7 c3 46 3e 5a 4c 86 3d
       0.099505074 0.0028817712 0.19410692 0.06557532
000240 35 00 11 3d 07 8c 55 bd 4b 34 97 3d dd 36 e8 3d
       0.035400588 -0.052135494 0.07383021 0.11338589
000250 67 29 ce bd 2f ff f5 bc f8 6f 78 3d 62 f6 6f bc
       -0.100664906 -0.030028908 0.060653657 -0.014646145
000260 a8 de 9c 3d 25 f6 2e 3d 83 87 bf bd b7 c0 a1 bc
       0.07659656 0.04271521 -0.09352019 -0.019745214
000270 e9 9d 81 3d fa 18 d0 3b e8 1c bd 3d 98 ae 17 be
       0.06328947 0.0063506337 0.09234029 -0.14812696
000280 1f c4 a5 3d 49 26 e0 3c 3a e1 59 3d c8 e1 35 3e
       0.08094048 0.027362006 0.05319331 0.1776191
000290 66 87 68 3d a8 77 07 be 13 a3 e9 bd 64 f2 3a bd
       0.05676975 -0.13229239 -0.11408057 -0.045641318
0002a0 fe e1 d8 bc 69 06 96 bd 95 12 e6 bd ca de a2 3c
       -0.026474949 -0.073254414 -0.11234013 0.019881625
0002b0 8c ac e4 3b 0d 34 67 3d 57 da a3 3d ce 3b 59 bd
       0.006978577 0.056446124 0.080006294 -0.05303555
0002c0 5e 8a 91 bd 53 04 39 be 7c fa e1 ba 2d 1f 31 bd
       -0.071064696 -0.18068056 -0.0017240788 -0.043242622
0002d0 9d 63 b6 3d 47 7b 3d 3d 16 d8 04 bd f7 0b 92 3d
       0.089057185 0.046260145 -0.032432638 0.07131188
0002e0 b4 42 30 bd b0 26 12 bd 60 b8 65 bd 82 9c a4 bd
       -0.043032363 -0.035681427 -0.056084037 -0.08037664
0002f0 e9 29 74 3b 95 22 c9 bd d6 e2 c1 3d ba 8c b4 bd
       0.0037256426 -0.09821049 0.09467094 -0.08815904
000300 a4 84 e1 3b 6c b8 ce bc 09 59 3b bd dc ad 26 be
       0.006882267 -0.025234424 -0.045739207 -0.1627726
000310 32 8e 14 3c c2 59 11 bc 35 d0 f9 bc e2 a1 e2 3b
       0.009067105 -0.008871498 -0.030494789 0.0069162706
000320 09 dd 1c be 72 17 84 bd db fa d8 3d 88 81 48 3e
       -0.15318693 -0.06449784 0.10594722 0.19580662
000330 ee da a0 bc c2 f0 8b 3d 0e b7 6c bd 19 4f 4b 3e
       -0.019635644 0.0683303 -0.057791762 0.19854392
000340 a5 9e ad 3d 4e 11 0e be 7f 81 c0 bd d5 93 8c 3c
       0.08477525 -0.13873789 -0.093996994 0.017160336
000350 f3 cd 84 bd 33 71 41 bb c9 cf 61 bd 21 bc 35 bd
       -0.06484594 -0.0029516935 -0.0551298 -0.044368867
000360 69 98 c8 bc f9 f9 26 be 99 9e a3 be 73 11 12 3e
       -0.024486737 -0.16306295 -0.31956938 0.14264469
000370 e5 73 04 3e 41 8e 03 3e cf de 91 bd b4 f7 d5 bc
       0.12934835 0.12847234 -0.071225755 -0.02611909
000380 1a 21 a8 bc 5d c8 76 3c f9 ca 0b be 96 38 71 bc
       -0.020523597 0.015062419 -0.13651647 -0.014722964
000390 c9 92 86 3d 51 51 b1 bd 24 f9 89 bd cf 07 a9 3c
       0.06570966 -0.08658088 -0.06736973 0.020633606
0003a0 c8 34 a4 3d 8c 25 21 bd e1 95 04 3d ab 97 66 3c
       0.0801788 -0.039342448 0.0323695 0.014074246
0003b0 5e 7c 55 bb ce 57 a3 3d 79 19 73 3d d6 8c e7 bc
       -0.003257535 0.07975732 0.059350464 -0.028265398
0003c0 ba f5 b5 3c ed 78 33 bd 35 12 8a 3d eb e4 8a bd
       0.022211898 -0.043816496 0.06741754 -0.06781944
0003d0 38 47 aa 3d e7 6c f7 3c 65 88 4a be ff 85 04 bd
       0.08314365 0.030203296 -0.19778593 -0.03235435
0003e0 95 40 d0 bc 4c 16 b3 3d 89 68 8c 3d de f4 17 bd
       -0.02542142 0.08744487 0.06855876 -0.037098758
0003f0 dc 5f d8 bc d9 91 c1 3c 15 27 16 3e 70 c8 20 be
       -0.026412897 0.023629116 0.14663346 -0.15701461

network_body._body_endoder.seq_layers.2.bias f4 [128]
000000 ca 38 91 3a dc 88 36 bc b8 2e 0e bd 32 3a 2d bc
       0.0011079547 -0.011141028 -0.034712523 -0.010572957
000010 0a c7 ab bc 1f 5a 2d 3c df c3 3f bb 7a 97 d5 bc
       -0.020968933 0.010580569 -0.0029261035 -0.026073206
000020 5f c3 3f 3c 5d f7 9b bc 18 d6 98 3a 91 67 b3 bc
       0.011704295 -0.01903885 0.0011660485 -0.02189997
000030 f7 b6 3c bc 68 fe a4 3c b6 1a 99 bb f2 6f 14 3b
       -0.011518232 0.020140842 -0.0046723736 0.0022649732
000040 56 f7 8b bc 69 69 7c 3c 93 3b cf 3c 79 92 d4 bb
       -0.017085712 0.015405991 0.025296962 -0.0064871875
000050 fe 57 b8 bb ac ba 0d bc 66 4d a4 bc 13 3f bf bc
       -0.005625724 -0.008650463 -0.020056438 -0.023345506
000060 33 07 c5 3b 11 4d d0 bc b0 ed 04 bd 36 9a 54 bc
       0.006012821 -0.025427373 -0.03245324 -0.01297622
000070 c5 b6 68 bc 0c bc f7 bc bf 73 33 3c a8 ac ac bc
       -0.014203732 -0.030241035 0.010952889 -0.021078423
000080 0d 43 20 bc 22 64 c6 3c 9d 9c 39 bd ff 32 14 bd
       -0.009781611 0.024217669 -0.045315374 -0.036181446
000090 22 20 5b bd 55 50 ed bc 1b 06 74 bc 24 93 93 bb
       -0.05349744 -0.02896897 -0.014894034 -0.0045036245
0000a0 fd 83 3e bc a8 c1 d9 bb 41 95 f0 bc 51 ca da bc
       -0.011628148 -0.0066454 -0.029368045 -0.0267078
0000b0 55 dc dd bb 66 08 b2 bc ed c9 26 bd 08 4c 6b 3c
       -0.0067706504 -0.02173252 -0.040719915 0.014361389
0000c0 6d 0d 22 bc ac 11 04 bb 6c d9 6d bb 8d a4 a9 bc
       -0.009890896 -0.0020152135 -0.0036292924 -0.020708347
0000d0 cd 1b 0b bd c7 e9 6f bc 24 5a d6 bc a1 12 95 bb
       -0.03396206 -0.014643139 -0.02616603 -0.00454934
0000e0 2a 5e 09 bd dd 56 54 3a a7 25 3c ba ed 3e 29 3c
       -0.033537067 0.0008100102 -0.00071772415 0.010329944
0000f0 63 f4 a5 3c 8d 76 0b bc b2 67 66 bc 36 11 a5 ba
       0.020258134 -0.008512151 -0.014062809 -0.001259363
000100 76 86 1f 3c 03 67 d7 bc 3b 7d 02 bc 9e cd 4c 3c
       0.009736648 -0.026294237 -0.007964428 0.012500195
000110 c8 c2 ee bc d4 d1 f7 bc 5a 64 90 3c f8 db 37 bc
       -0.029145613 -0.030251421 0.017625976 -0.011221878
000120 3e 62 57 bc 33 5f 45 3c 0c ca 4f bc 92 1d b9 bb
       -0.013145981 0.012046623 -0.012682449 -0.005649277
000130 3c 21 a7 bc d4 33 9a b9 ba 5b 74 3c 44 b1 77 bc
       -0.02040159 -0.00029411784 0.014914447 -0.015117947
000140 d5 c2 40 bd 0f 0a 69 bc 09 0d 5e bb b2 cb 0c bc
       -0.047060806 -0.01422359 -0.0033882281 -0.008593487
000150 39 59 17 bc 0c c0 2a bc 6a c8 3d 3c 88 f7 5c bc
       -0.009237581 -0.010421764 0.011583427 -0.01348675
000160 44 5a 83 bc 2d 9d a7 3c 7d 3c 55 3a 71 d3 c3 bc
       -0.016034253 0.02046069 0.00081343186 -0.023904534
000170 f7 f6 84 3c 57 4e 0f bc c4 8c d4 bb be 72 85 3c
       0.016231043 -0.008746705 -0.006486507 0.016290065
000180 b9 a0 57 bc 23 3f fd b8 08 e5 cf 39 ab de 33 bc
       -0.013160878 -0.0001207574 0.00039652758 -0.010978381
000190 e8 49 b9 bc 1c 69 58 bb b7 d7 97 bb a1 f0 3b bd
       -0.022618249 -0.0033021634 -0.0046338695 -0.04588378
0001a0 b8 9d 5d 3c 30 44 ce bc f9 c1 00 bd c8 0a 98 bc
       0.013526373 -0.025178999 -0.031434987 -0.018559828
0001b0 da fc 7e bc 7e bb ed bb 74 68 c4 3c 24 2d 94 3c
       -0.015563214 -0.007255017 0.023975588 0.018087931
0001c0 48 f4 03 3d 2c b0 41 bb e6 67 b7 3b d4 ee ed 3c
       0.032215387 -0.002955447 0.0055971025 0.029044546
0001d0 b4 29 2a 3c a8 0c af bc 44 92 03 bc 96 59 5c 3b
       0.010385919 -0.02136834 -0.008030478 0.0033622733
0001e0 dc 43 22 bc 4d 5d 04 3d 34 c9 c2 bc 51 fe e2 bb
       -0.009903874 0.03231554 -0.023777582 -0.0069272895
0001f0 4a d6 16 bd 6d 77 b7 bc 9f d7 9c 3b 70 1c 0f 3c
       -0.036825456 -0.022395814 0.004786446 0.008734807

action_model._continuous_distribution.log_sigma f4 [1, 4]
000000 96 6b 66 ba 15 2b 33 bd e1 0d 95 bd a8 c3 d7 bb
       -0.0008789835 -0.043742258 -0.07278038 -0.0065846033

action_model._continuous_distribution.mu.weight f4 [4, 128]
000000 b9 c7 c1 3c ce d0 e4 3b a7 45 21 3c 1d c9 a3 3a
       0.023654805 0.0069828993 0.009843267 0.001249585
000010 ff 94 1c bc e0 47 df 3c 5b a9 d9 bc 15 f0 8f 3c
       -0.009557008 0.027255952 -0.026570013 0.017570535
000020 67 d5 7d 3d d5 de 8d 3c f9 98 2e 3d f2 02 2a 3d
       0.061971094 0.017318169 0.042626355 0.041506715
000030 ce 9e f0 3b 96 01 41 3d 4f 97 87 bc bc 1f 22 3d
       0.0073431497 0.047120653 -0.016551642 0.039581046
000040 cd 2a 28 bb 40 f3 96 3c d7 ef ac 3d c3 d8 b2 3c
       -0.0025660277 0.018426538 0.08444183 0.021831876
000050 b0 75 e9 bc 62 4b 17 3d 0d 75 c6 36 1c 2f 98 ba
       -0.0284985 0.036937125 5.9144863e-06 -0.0011610719
000060 ad c9 01 bd 22 e1 0e 3c f3 1b 3c bc 2a 33 d9 bc
       -0.031686474 0.008720668 -0.011481273 -0.026513655
000070 eb fa 80 bc c1 ab 38 3c 14 91 16 3c 71 96 d8 3b
       -0.015744647 0.011271418 0.009189863 0.006609731
000080 85 1e 79 3b 22 09 a5 bc de 44 1e bd 32 81 3a bc
       0.0038012576 -0.020145956 -0.038639896 -0.011383342
000090 d7 d0 2b b8 6b 13 20 3c e8 be ec ba 5c e3 c9 3c
       -4.0964074e-05 0.009770255 -0.0018062266 0.024644546
0000a0 dc 07 14 3d 99 71 b7 bb 88 1b 0a 3c cb 32 31 3c
       0.036140308 -0.0055982587 0.0084294155 0.010815333
0000b0 82 cb 34 3b a8 11 5e bc f8 0a 44 bc 76 ee b0 3b
       0.002758712 -0.013554014 -0.011965506 0.0053995205
0000c0 95 45 90 3c 62 06 ae bb d2 0a 06 3d c3 51 ab 3b
       0.017611304 -0.0053108195 0.032725163 0.0052282526
0000d0 48 2c e9 bc c1 b9 0f bd 7f 27 c8 bc dc 1d af bc
       -0.028463498 -0.035089258 -0.024432896 -0.021376543
0000e0 b6 72 16 bb 30 55 2c bc 60 a2 2f bd 93 44 4f bb
       -0.0022956557 -0.010518357 -0.042879462 -0.0031626567
0000f0 89 30 34 3d 9d 21 10 bd 0d 2a 89 b9 03 09 20 bb
       0.0439916 -0.035188306 -0.00026162007 -0.0024419434
000100 f1 d2 20 bd bc ba e1 3c 0b 2d b9 bb e7 08 13 bc
       -0.03926367 0.027554862 -0.0056511215 -0.00897429
000110 2f 61 ff bc 5a 95 de 3c fd 24 2c bd 3b 71 04 ba
       -0.03117427 0.027170826 -0.042027462 -0.0005052273
000120 ba 79 00 3d bb 8c d4 bc 09 bc 99 ba 89 ea 1e 3c
       0.031366087 -0.025946012 -0.0011729012 0.009699472
000130 53 44 4a bb 2a 31 03 3d 6d 53 c4 bb 5e e9 08 3d
       -0.0030863478 0.03202931 -0.0059913904 0.03342568
000140 8e 1d 36 3c f1 2e ba bc 13 25 60 3d d3 ba 35 3d
       0.011115445 -0.022727462 0.054722857 0.044367623
000150 9d 9c e7 3b 6a c8 d5 bc 02 88 01 bc 93 ca 2c bc
       0.0070682303 -0.026096541 -0.007905962 -0.010546344
000160 fc 76 57 3c cb 58 71 3c 4c 92 27 3d c6 77 26 3d
       0.013150927 0.014730643 0.040911004 0.04064157
000170 75 22 e2 ba d1 da 9a 3b 4c 5c a4 3c 2b a2 71 3d
       -0.0017252701 0.004725792 0.020063542 0.058992546
000180 4c 8c 0f 3d 49 2c 46 bd 9e e4 e0 3c d6 78 39 bd
       0.035045907 -0.048382077 0.027452763 -0.045281254
000190 93 92 9a bc fb 27 02 bc 4a aa a7 bc f0 e8 3c 3c
       -0.01886872 -0.007944102 -0.020466942 0.011530146
0001a0 c2 55 31 3c d8 39 03 3d 29 ad 0d bb 37 1b 68 3c
       0.010823669 0.032037586 -0.0021618104 0.014166645
0001b0 3f e4 1d bc b7 c2 73 3d 04 d0 7e 3b 97 07 50 3c
       -0.009636938 0.059511866 0.0038881311 0.012697122
0001c0 3e 77 a2 3c 4c f6 e0 3c 11 97 86 3c ec 1f a2 bb
       0.01983225 0.027461194 0.016429456 -0.004947653
0001d0 9b 3d e0 3c b8 0b 97 3c df 8b b5 bb 58 43 30 3d
       0.027373126 0.018438205 -0.0055403556 0.043032974
0001e0 bc 5c b7 3c 22 75 80 bc 2e 8e 8a bb d9 b6 8d bc
       0.022383086 -0.015680853 -0.004228375 -0.017299103
0001f0 7e bf ce 3b eb 5b 08 bc f3 cf 94 b8 47 cc 04 bc
       0.0063094487 -0.008322696 -7.0959235e-05 -0.008105344
000200 c4 14 98 bc 39 97 bf bc 96 3d b5 3c b6 e9 f2 bc
       -0.01856459 -0.023387538 0.022124093 -0.029652458
000210 d1 63 97 bb bd d2 ee bc 00 88 9b 3d fd 0d 81 3d
       -0.0046200533 -0.029153222 0.07594299 0.06301496
000220 3b bb a0 3c b7 b8 69 3c 88 68 18 3c 1a c1 8f 3c
       0.019620528 0.014265231 0.009302266 0.017548133
000230 35 65 95 3d f4 c3 02 bd 8b 23 27 bd 63 68 a3 bc
       0.07294694 -0.031925157 -0.04080538 -0.019947236
000240 63 20 da 3c 8e d0 00 bd fa d9 2f bd 05 02 d6 bc
       0.026626771 -0.031448893 -0.042932488 -0.02612401
000250 94 d1 01 3d 37 fb c7 bb 20 97 34 3d 99 50 5a 3c
       0.03169401 -0.006102945 0.044089437 0.01332488
000260 35 d0 28 bb 3a 6b d0 b9 97 d5 de bc 94 92 97 3d
       -0.0025758867 -0.00039752742 -0.027201457 0.074010044
000270 bd 7c 8d 3b 1e ce cb 39 f3 fa b3 3a f1 1f ed 3c
       0.0043178485 0.00038872747 0.0013731405 0.028945895
000280 be 23 34 3d b7 6d 52 bc 50 c9 91 3d 7d 1d e6 3c
       0.0439794 -0.012843541 0.071184754 0.028090233
000290 20 5b db 3c 4c 40 18 3d 33 42 9c bc 8b 9f 8a 3d
       0.02677685 0.037170693 -0.019074535 0.06768712
0002a0 26 78 d4 3c 14 03 17 bd f6 a9 29 bb 33 e5 92 3c
       0.025936197 -0.03686817 -0.0025888658 0.017931556
0002b0 08 c1 67 bb 17 1f b5 bb b9 d0 1a 3d e4 1e 8f 3b
       -0.0035362858 -0.005527388 0.03779671 0.004367696
0002c0 2a cc 3f 3c 79 1b 35 3d 8d 4e 2c 3d a0 7e 3e 3d
       0.011706391 0.044215653 0.0420671 0.046507478
0002d0 1d 55 31 3d 44 28 1d 3c 87 35 dc bc 61 93 0a bc
       0.04329406 0.00959212 -0.026880993 -0.008457989
0002e0 0e 89 72 3d ef bc 4b bc 71 a0 31 3d e1 64 a5 bc
       0.059212737 -0.012435182 0.0433659 -0.020189704
0002f0 0d d2 0d bc 90 d6 b2 b9 25 dd b8 3c 7d 9e fe 3b
       -0.008656037 -0.00034110667 0.022566387 0.007770358
000300 b6 e1 c4 bc 66 3d a5 3b a6 da 2c bd 67 db 9f 3a
       -0.024033409 0.0050427197 -0.042200707 0.0012196124
000310 b7 06 92 3d 1c 99 11 3d 78 fe 9d bc ac eb 84 bb
       0.07130187 0.035546407 -0.01928638 -0.0040564146
000320 a4 b7 65 3a 66 c7 d1 3c 7e 60 80 bc 2e af d6 3c
       0.00087630213 0.025607776 -0.015671011 0.026206579
000330 09 0b 76 3c 4d fb ac bc ae fc 46 bd d0 da dd 3c
       0.015017279 -0.021115923 -0.048580818 0.027081877
000340 7d 1e 7c 3c 4d 5b 63 3c ed 1a e3 bc da 87 ac bc
       0.015388128 0.013876748 -0.0277228 -0.021060873
000350 df fe 8c 3b c8 63 ac bb f2 7c 37 bd bf bf 4f 3d
       0.004302844 -0.0052609183 -0.04479689 0.050719973
000360 41 1a d3 ba c8 a1 6a bd c1 ca 80 bc ce b7 c2 bb
       -0.0016105847 -0.057283193 -0.01572168 -0.0059423214
000370 49 57 42 bd 08 21 3b bc 91 b3 5e bc 6b 9d a6 bc
       -0.047446523 -0.0114214495 -0.013592617 -0.020338735
000380 bd 8e 00 bc 28 72 be bb 9f e9 a2 bb 1c 5e 32 3c
       -0.007846531 -0.0058119483 -0.0049716975 0.010886695
000390 f9 43 2e 3d 7d 00 eb bb d3 9b 01 bd 78 ae a2 3c
       0.042545293 -0.007171689 -0.031642746 0.019858584
0003a0 0d 41 f5 bc c8 82 9a 3a c0 a0 a4 3c 50 18 a2 bb
       -0.029938245 0.0011788243 0.020096183 -0.004946746
0003b0 3e 1d 12 bc e7 fb 1a bc c7 b4 62 bd b3 1b 62 bd
       -0.008918105 -0.009459472 -0.055348184 -0.055202197
0003c0 09 95 5a bd 13 4e a5 bb 9c 3b 62 bc 42 3b 80 bd
       -0.053364787 -0.0050447076 -0.013808157 -0.062613025
0003d0 22 b9 8d bc b2 fe e7 bb e9 0b af bb be 45 17 bd
       -0.017300192 -0.0070799226 -0.005341996 -0.036931746
0003e0 1d 85 db bb f4 7f aa bd 4b d7 19 3d 28 9d b3 bc
       -0.006699218 -0.08325186 0.037558835 -0.021925524
0003f0 fa 30 57 3c d5 45 09 bd 96 c8 5d 3d 40 9d 7c 3b
       0.0131342355 -0.033513863 0.05414637 0.0038545877

action_model._continuous_distribution.mu.bias f4 [4]
000000 d2 bf 6b bb 86 bc 38 bd 36 fd ad bc ce 9f 50 3c
       -0.0035972488 -0.045101665 -0.021238904 0.012733413
