results/MoveToGoal2/MoveToGoal/MoveToGoal-84217.pt (torch, 441140 bytes, 36 tensors)

network_body._body_endoder.seq_layers.0.weight f4 [128, 6]
0	0x3d70e423	0.058811318
1	0x3cd8c0b1	0.02645907
2	0xbe8e585d	-0.2780179
3	0xbf3b9674	-0.7327645
4	0xbcdd2ca3	-0.026998824
5	0x3f17c8d0	0.5929079
6	0xbdd679e1	-0.10472465
7	0xbe575302	-0.21027759
8	0x3e836e73	0.25670204
9	0xbd5bb799	-0.05364189
10	0x3f69018a	0.91017973
11	0xbf570d34	-0.8400452
12	0x3e8842fa	0.266136
13	0xbedcf4e1	-0.43155578
14	0x3e907f02	0.282219
15	0x3e37dde8	0.17955744
16	0x3d9432c1	0.07236243
17	0x3e8d8ca6	0.2764637
18	0xbe700694	-0.2344001
19	0x3ea69012	0.32531792
20	0x3ef399a5	0.4757816
21	0xbeab4080	-0.33447647
22	0x3f1df4fa	0.6170193
23	0xbebe47e6	-0.3716423
24	0xbdc69104	-0.09695628
25	0x3e349695	0.17635567
26	0x3f0a91fd	0.5412901
27	0xbf2d7f87	-0.67772716
28	0x3e351e12	0.17687252
29	0xbd043257	-0.03227457
30	0x3d97fb5d	0.074209906
31	0x3eb8aa98	0.36067653
32	0xbcc5fc23	-0.02416808
33	0xbd1ebf2c	-0.038756534
34	0x3dd3851b	0.10328122
35	0x3e3e49e3	0.18582873
36	0xbd22b39e	-0.039722078
37	0x3ed94193	0.42432842
38	0xbe1d8208	-0.15381634
39	0x3eac168e	0.33610958
40	0xbf23bb91	-0.6395808
41	0xbe695e00	-0.22789764
42	0xbe47e18f	-0.19519638
43	0x3ee1280c	0.43975866
44	0xbe8f30f7	-0.27967045
45	0xbea1c875	-0.3159825
46	0x3e0fd778	0.14047039
47	0xbdd783e6	-0.105232045
48	0xbe957006	-0.2918703
49	0x3ed0b725	0.40764728
50	0x3eb4edc0	0.3533764
51	0xbdfc1872	-0.1230935
52	0x3e1ae7e0	0.15127516
53	0x3e8eabae	0.27865356
54	0xbe0338d0	-0.12814641
55	0xbe621daf	-0.22081636
56	0x3dd9f288	0.10641962
57	0x3dd76cb7	0.105187826
58	0xbee55b29	-0.44796112
59	0xbf783f75	-0.9697183
60	0xbd7666af	-0.06015652
61	0x3e47972a	0.19491258
62	0xbf10e321	-0.5659657
63	0xbf1b53ec	-0.6067493
64	0x3e9b5609	0.30339077
65	0xbe982dec	-0.29722536
66	0x3e3c7caf	0.18406938
67	0xbe26eda8	-0.16301596
68	0x3e30dabc	0.1727094
69	0xbe7a06f7	-0.2441672
70	0xbf1d33c5	-0.6140712
71	0x3f666b5d	0.90007573
72	0x3ec5664d	0.38554612
73	0x3b9042fc	0.0044025164
74	0x3e0dd48a	0.13850608
75	0xbe5da3b5	-0.2164448
76	0xbf0927ad	-0.53576165
77	0xbe782d71	-0.24236085
78	0x3ef25d8a	0.4733699
79	0x3f214229	0.6299158
80	0x3e15f441	0.14643957
81	0xbddf0978	-0.10890478
82	0xbe0f3ca8	-0.13987982
83	0x3f1cf04a	0.6130415
84	0xbe152fa5	-0.14568956
85	0x3f3fc865	0.7491515
86	0x3f1b9b68	0.60784006
87	0x3ea7c84e	0.32770008
88	0x3e5c3ef2	0.21508387
89	0x3e84f500	0.2596817
90	0x3d5febb2	0.054668136
91	0x3ea0dbfe	0.3141784
92	0x3e400b03	0.187542
93	0xbebafc9f	-0.3652086
94	0x3effc815	0.49957338
95	0xbd4541cd	-0.048158456
96	0xbee9ff6e	-0.4570269
97	0x3e43dfbf	0.19128321
98	0x3f020cc3	0.5080072
99	0x3ed27a3c	0.41108882
100	0x3dbc8f02	0.09206964
101	0x3ed53770	0.41643858
102	0xbe1c0b2e	-0.1523864
103	0xbf0e677f	-0.5562667
104	0x3ea77748	0.32708192
105	0xbe8bda2f	-0.27314898
106	0x3f5cb4fe	0.8621367
107	0xbf3587ca	-0.7091032
108	0x3f48b81b	0.7840592
109	0x3ec1c89e	0.3784837
110	0x3e2a1ec4	0.16613299
111	0x3e89ef4c	0.26940382
112	0xbf4712e8	-0.77763224
113	0xbd5aa2b6	-0.05337783
114	0x3ed5c299	0.4175003
115	0x3d891e29	0.06695206
116	0x3b8b3e8d	0.0042494
117	0xbcf6b18a	-0.030113954
118	0xbebc23e8	-0.36746144
119	0xbf41744e	-0.7556809
120	0xbd82bc54	-0.06383577
121	0x3c97cec0	0.018531203
122	0xbd07e039	-0.03317282
123	0xbed4e4bb	-0.41580757
124	0x3e94b675	0.29045454
125	0x3e0611e2	0.13092759
126	0x3d37495c	0.044747695
127	0xbe585de9	-0.21129574
128	0xbc648ef9	-0.013950103
129	0x3da6c272	0.08142556
130	0x3e5407cc	0.207061
131	0x3f298823	0.66223353
132	0x3e179161	0.14801551
133	0x3eddf777	0.43352863
134	0x3dabd8ff	0.08390998
135	0x3e055d02	0.13023761
136	0xbe7a48f4	-0.24441892
137	0xbeac795e	-0.33686346
138	0x3e7d5bb4	0.24742013
139	0xbe79d906	-0.24399194
140	0x3eb231bc	0.3480357
141	0xbdcd04b0	-0.1001066
142	0x3f3f3262	0.74686253
143	0xbf5ee8dd	-0.8707407
144	0xbf5e1fe9	-0.8676744
145	0xbf20d582	-0.6282579
146	0x3ededd6f	0.43528315
147	0x3dab010e	0.083498105
148	0x3e89bafe	0.26900476
149	0xbe87bec4	-0.2651273
150	0x3e4ae49c	0.1981377
151	0xbe0f2267	-0.13977967
152	0xbeed232e	-0.46315902
153	0x3d4428b0	0.047890365
154	0xbd9cc358	-0.07654446
155	0xbc685ed2	-0.014182763
156	0x3ea9913a	0.33118612
157	0xbdc33ea8	-0.09533435
158	0xbe1a1cc9	-0.15050043
159	0xbf76b8cc	-0.9637573
160	0x3f203556	0.62581384
161	0x3e5977ad	0.21237059
162	0x3e2eae7a	0.17058745
163	0xbe03827e	-0.12842748
164	0x3e2bae83	0.1676579
165	0xbf607ae7	-0.87687534
166	0x3b458b81	0.0030142965
167	0xbe8cab72	-0.27474552
168	0xbea79b4a	-0.32735664
169	0xbe8c9353	-0.2745615
170	0x3e68cd86	0.22734651
171	0x3c5b09a1	0.013368995
172	0xbd7af9c0	-0.061273336
173	0xbd2ff981	-0.042962555
174	0x3f6cf346	0.92558706
175	0xbe69099d	-0.22757573
176	0x3f1c736d	0.61113626
177	0x3f208129	0.6269708
178	0x3c742a15	0.014902611
179	0xbd4fcf76	-0.05073496
180	0xbee5f579	-0.44913843
181	0xbef018b5	-0.4689385
182	0x3c55a39a	0.013039494
183	0x3e6c8478	0.23097408
184	0xbf0c0049	-0.54687935
185	0x3e4ae2af	0.19813035
186	0x3f644b99	0.8917785
187	0x3ef40ab9	0.4766443
188	0xbe4a204d	-0.19738884
189	0x3f510be4	0.8165877
190	0xbd2c3b07	-0.04204848
191	0x3ea2609b	0.3171433
192	0xbf18cf72	-0.59691536
193	0xbd90763f	-0.07053804
194	0xbec385b1	-0.38187936
195	0xbe2bbc9a	-0.16771165
196	0xbf871526	-1.0553329
197	0xbea60bda	-0.32430917
198	0xbe392a20	-0.18082476
199	0xbe230176	-0.15918526
200	0x3c1fad26	0.009745872
201	0x3e2fae93	0.17156439
202	0xbea3476f	-0.31890437
203	0x3e1481b1	0.14502598
204	0x3e9b2f3c	0.30309474
205	0x3f397ed7	0.7245917
206	0xbf10677e	-0.56407917
207	0xbe58ac01	-0.21159364
208	0xbefbedc8	-0.4920485
209	0xbed28b85	-0.4112207
210	0xbeab5d81	-0.33469775
211	0xbe4aa7c7	-0.19790564
212	0x3ec98b82	0.3936425
213	0x3e6236b8	0.22091186
214	0xbed89024	-0.4229747
215	0x3f3dd1bb	0.7414815
216	0x3e0b47a3	0.13601546
217	0xbf8c7f61	-1.0976373
218	0x3e8840fb	0.26612076
219	0xbd405e7a	-0.0469651
220	0xbd700c07	-0.05860522
221	0x3e4fe625	0.20302637
222	0xbf0d68de	-0.5523814
223	0xbe608051	-0.21923949
224	0x3e5c85fc	0.21535486
225	0x3dd0a49f	0.10187649
226	0xbef875d5	-0.485274
227	0x3e82e0ed	0.2556223
228	0x3f055450	0.52081776
229	0xbf584a0d	-0.8448799
230	0xbf32f669	-0.6990724
231	0x3f19f479	0.6013866
232	0x3f64447f	0.89167017
233	0x3e383d70	0.17992187
234	0x3e5e05dc	0.21681923
235	0x3d5c0498	0.05371532
236	0xbdb86c87	-0.09005075
237	0x3e9458bb	0.28973946
238	0x3f349375	0.705375
239	0x3ecf34a7	0.40469858
240	0x3e7da157	0.24768578
241	0xbe582c11	-0.2111056
242	0xbe975cb8	-0.29562926
243	0x3eadf833	0.33978423
244	0xbf129be6	-0.5726913
245	0x3e27a3b6	0.16371045
246	0xbe8d932b	-0.27651343
247	0xbdbd0ed1	-0.09231342
248	0x3ea549df	0.32282922
249	0x3e343807	0.17599498
250	0xbf4487af	-0.76769537
251	0xbe4f750f	-0.20259498
252	0x3ef5b0da	0.4798649
253	0x3eb15d40	0.34641457
254	0xbe124511	-0.14284159
255	0x3ec1da2f	0.37861773

network_body._body_endoder.seq_layers.0.bias f4 [128]
0	0x3b960b37	0.0045789736
1	0xbd0ed167	-0.03486767
2	0x3730f012	1.0546313e-05
3	0xbd24ac9e	-0.040203683
4	0x3d9b1b9b	0.07573625
5	0x3d0ac143	0.033875715
6	0xbcbef9b7	-0.023312433
7	0xbde5ecb8	-0.11226791
8	0xbc4e7ce5	-0.012603019
9	0xbd746bfd	-0.0596733
10	0xbdf42227	-0.119205765
11	0x34ac26bc	3.206568e-07
12	0xbc4bfd70	-0.012450561
13	0x2ebaa93e	8.488364e-11
14	0x2e4b1966	4.6179414e-11
15	0x3d8338bb	0.06407305
16	0xb4e488c6	-4.2567825e-07
17	0xbd0947a8	-0.033515602
18	0xbaf23e70	-0.0018481743
19	0xbd522ec6	-0.051314138
20	0xbd09da3c	-0.03365539
21	0xba4655d4	-0.000756589
22	0xbcc41587	-0.023936046
23	0xbc52d593	-0.012868303
24	0xbb9d874f	-0.00480739
25	0xbd9c8ddd	-0.07644246
26	0xbd2e0ca3	-0.04249252
27	0xbd787a5c	-0.060663566
28	0xbba03a62	-0.0048897723
29	0x2a086d61	1.2117175e-13
30	0x3c2e024c	0.010620665
31	0x2f912215	2.6399563e-10
32	0xbdc1c993	-0.09462275
33	0x3d014824	0.03156294
34	0xbddfa758	-0.1092059
35	0xb44f1ca0	-1.9288791e-07
36	0x3ca9ed04	0.0207429
37	0x3da3a6f0	0.07990825
38	0x3df2037a	0.11817069
39	0xbb52b126	-0.0032149046
40	0x3dc31460	0.095253706
41	0x3ca8e989	0.02061917
42	0xbb129c4d	-0.0022370995
43	0xbc9cce6e	-0.019141402
44	0xbd0271da	-0.03184686
45	0xb980c51c	-0.0002456092
46	0x3c14e70f	0.009088292
47	0xbd32bd23	-0.043637406
48	0xb80fbe7e	-3.4271266e-05
49	0x3ceebca7	0.02914269
50	0x3d86ec5f	0.06588053
51	0x3b1ef2c4	0.0024253586
52	0xbc965315	-0.018350163
53	0x3761fd4c	1.347002e-05
54	0xbd93e2d4	-0.072209984
55	0x38feb360	0.00012145075
56	0x3db44220	0.08801675
57	0xbd623d13	-0.055234026
58	0xbcba2e07	-0.022727026
59	0xbd65be84	-0.056089893
60	0x3add4a99	0.0016883194
61	0x3dbc4327	0.09192496
62	0x3d3fa36b	0.046786707
63	0xbceb75b6	-0.028742652
64	0x3da4da56	0.08049457
65	0xba554334	-0.0008135319
66	0xbd35207a	-0.044220425
67	0xbcff7b6a	-0.031186778
68	0xbd1a0836	-0.037605487
69	0xbd151b26	-0.036402844
70	0x3cf6b372	0.030114863
71	0x3c0e93f9	0.008702272
72	0xbc9609f7	-0.018315298
73	0xbd8ba017	-0.06817644
74	0xbd6724db	-0.056431632
75	0xbd9b2671	-0.075756915
76	0xbbcc3df9	-0.0062329737
77	0x3d871f31	0.06597746
78	0xbd97dde3	-0.074153684
79	0xbd8113cc	-0.06302604
80	0x3ddbf369	0.10739786
81	0xbd184f7b	-0.037185173
82	0xbc167440	-0.00918299
83	0x3d811a76	0.06303875
84	0xb6b1ffbf	-5.304784e-06
85	0xbd17a6b6	-0.037024222
86	0x3d7fe0d4	0.062470272
87	0x3dd122d0	0.10211718
88	0x3d2bc490	0.041935503
89	0xbba81ca5	-0.005130368
90	0x3ac93da8	0.0015353458
91	0xbba8ffa0	-0.005157426
92	0xb8003f0b	-3.057629e-05
93	0xbc37002b	-0.011169474
94	0x3da3a5cc	0.079906076
95	0x3de21cbe	0.110406384
96	0xba151e18	-0.0005688383
97	0x3d6f3a96	0.05840548
98	0xa68b735e	-9.676333e-16
99	0xbd8e8524	-0.06958988
100	0x2e9d9c7f	7.167333e-11
101	0xbdd1711d	-0.10226653
102	0xaff9414d	-4.5339235e-10
103	0xbd2d655e	-0.042333
104	0xb8b6a386	-8.708895e-05
105	0xbca65c6d	-0.020307744
106	0xb54cc98c	-7.628921e-07
107	0x3d7a5ca0	0.06112349
108	0xbcf65613	-0.03007034
109	0xbcf014e5	-0.029306838
110	0x31d17720	6.0962435e-09
111	0x3d844721	0.06458879
112	0x32bb1a0f	2.1781515e-08
113	0x3dc3ab1a	0.095541194
114	0xbccfc7af	-0.025363771
115	0xbd25e43c	-0.040500864
116	0xbd12440f	-0.035709437
117	0xbd2ad6d5	-0.041708786
118	0xb9ee9343	-0.00045504616
119	0x3bef3551	0.007300057
120	0xbc870d6b	-0.01648589
121	0x3d04d62d	0.032430816
122	0x3cefe92e	0.029285993
123	0xbd148d24	-0.036267415
124	0xb9e5e6a5	-0.00043850127
125	0xbbbb3ab8	-0.005713787
126	0xb72f9298	-1.0464944e-05
127	0xbd12f2f1	-0.03587622

network_body._body_endoder.seq_layers.2.weight f4 [128, 128]
0	0xbcc62063	-0.024185365
1	0x3dd0ec8a	0.10201366
2	0x3e09a045	0.13440044
3	0xbdf0f255	-0.11764971
4	0xbd215c8b	-0.039394896
5	0xbd9f4019	-0.077758975
6	0xbe21fee2	-0.15819886
7	0xbe1c1e4e	-0.15245935
8	0xbdcebb3a	-0.100943044
9	0xbd67bbcc	-0.05657558
10	0x3da7d64a	0.08195169
11	0x3bd8e622	0.006619231
12	0xbd97a352	-0.07404198
13	0xbd822fea	-0.06356795
14	0x3b4a234b	0.003084379
15	0x3d72b6d9	0.05925641
16	0xbe41f160	-0.18939734
17	0xbd89eb1b	-0.06734296
18	0xbca7d47f	-0.020487068
19	0xbddd8513	-0.108163975
20	0x3e07fedf	0.1328082
21	0x3c38bd60	0.011275619
22	0x3c8a7690	0.016902238
23	0xbe09639d	-0.13416906
24	0x3c0aff6f	0.008483752
25	0x3d5a3be6	0.05327978
26	0xbd931577	-0.071818285
27	0x3d267328	0.040637165
28	0x3db19513	0.08671012
29	0xbdcfba3e	-0.10142945
30	0xbd89b58b	-0.0672408
31	0x3c4a1df5	0.012336244
32	0xbd50668e	-0.050879054
33	0x3b4d4b94	0.0031325566
34	0x3d8dec8d	0.06929884
35	0x3d12d372	0.03584618
36	0xbd6befd5	-0.05760177
37	0x3a8c8143	0.0010719675
38	0x3ddf9a0a	0.109180525
39	0x3d66d1df	0.056352492
40	0x3c793aa0	0.015211731
41	0x3c6e158e	0.014531506
42	0x3d018477	0.03162047
43	0x3cece510	0.02891782
44	0xbe3f884a	-0.18704334
45	0x3d2dec05	0.042461414
46	0xbd4a8e7e	-0.049452297
47	0x3c9fbc7c	0.019499056
48	0x3d8a3556	0.06748454
49	0x3db929f8	0.09041208
50	0x3e1c444e	0.15260431
51	0xbd2fae49	-0.04289082
52	0xbd9c2035	-0.076233305
53	0xbe07ddba	-0.13268176
54	0x3cca579b	0.024699977
55	0xbdd1db65	-0.10246924
56	0xbd683d40	-0.056699038
57	0xbd444534	-0.04791756
58	0xbc3fe6fb	-0.011712785
59	0xbdcb38eb	-0.099229656
60	0xbd0ef343	-0.03489996
61	0x3df5de84	0.12005332
62	0xbce9f17b	-0.02855753
63	0xbbd4c363	-0.0064930185
64	0x3e798523	0.24367194
65	0x3dfed21e	0.124424204
66	0x3d421793	0.047385763
67	0x3cfde539	0.030993091
68	0xbdc0dcd4	-0.094171196
69	0x3df0d684	0.117596656
70	0x3cffcc1a	0.031225253
71	0x3d931bfe	0.071830735
72	0xbd0d7e9d	-0.034544576
73	0x3d20fbab	0.03930251
74	0x3d8ba0d6	0.068177864
75	0xbde7c023	-0.11315944
76	0xbe2300dd	-0.15918298
77	0xbe07e690	-0.13271546
78	0xbc718bc8	-0.014742799
79	0x3d342d67	0.04398861
80	0x3de2f5a5	0.11082009
81	0xbd9e3b9e	-0.07726215
82	0x3ddf6ce8	0.10909444
83	0x3d0e60b8	0.034760207
84	0xbd0c888b	-0.034309905
85	0x3d6cb755	0.057792027
86	0xbd122908	-0.03568366
87	0x3dc56137	0.09637683
88	0xbdc27ec8	-0.09496838
89	0xbcefe83b	-0.02928554
90	0xbe2e51b2	-0.17023352
91	0xbc2702ce	-0.01019354
92	0xbde35fc6	-0.11102252
93	0xbdc8d4d1	-0.098062165
94	0xbd2cb110	-0.042161047
95	0xbe1983ac	-0.14991635
96	0xbd459453	-0.048237156
97	0xbdf2727e	-0.11838244
98	0xbd7472d4	-0.05967982
99	0x3d9ebc64	0.077507764
100	0x3db01830	0.085983634
101	0xbd34ed2f	-0.04417151
102	0x3dea0ce5	0.11428241
103	0x3b35f89f	0.0027766598
104	0x3e4193af	0.18903993
105	0xbda1f493	-0.07907977
106	0xbbba1f2b	-0.005679985
107	0xbbce30d5	-0.0062924423
108	0xbc3b727e	-0.011440871
109	0x3df9125c	0.12161705
110	0xbc624659	-0.0138107175
111	0x3e095caf	0.13414262
112	0x3cbff5be	0.023432609
113	0xbd3855d2	-0.04500372
114	0x3c5145d7	0.012772999
115	0xbc8fa81a	-0.017536212
116	0xbbec52db	-0.0072120256
117	0xbc9b3dc0	-0.018950343
118	0xbbb7d234	-0.005609775
119	0x3c563cbd	0.013076005
120	0xbd9a9829	-0.075485535
121	0xbd8970f3	-0.067109965
122	0xbd30a79b	-0.04312859
123	0xbd9e58b3	-0.07731762
124	0xbdaa6d14	-0.08321586
125	0xbe4be074	-0.19909841
126	0xbd7d04a2	-0.061771996
127	0xbae3acc1	-0.001737021
128	0xbe0f7ceb	-0.14012496
129	0xbddb0453	-0.10694184
130	0x3b5268b3	0.0032105863
131	0x3d57f61e	0.05272495
132	0xbdb2a140	-0.08722162
133	0x3cc3ad11	0.023886235
134	0xbda4f144	-0.0805383
135	0xbdb195d9	-0.08671159
136	0x3dae1948	0.08500916
137	0xbc020260	-0.007935137
138	0xbc516688	-0.012780793
139	0xbb954afa	-0.004556057
140	0xbd8605c4	-0.065440685
141	0xbbf64631	-0.0075156917
142	0x3e09577a	0.13412276
143	0x3d6f6d6f	0.058453973
144	0x3b130747	0.0022434758
145	0xbd308e8d	-0.043104697
146	0x3cfdf60b	0.031001111
147	0x3dc73595	0.09727017
148	0xbd96b756	-0.07359187
149	0x3dd2cd4c	0.102930635
150	0xbc6a925c	-0.014317121
151	0x3c31eec1	0.010860146
152	0xbd2efee2	-0.042723544
153	0xbe1fdced	-0.1561162
154	0xbe271247	-0.16315566
155	0xbcdb1b9a	-0.02674656
156	0x3da00c5e	0.07814859
157	0xbd07ef68	-0.0331873
158	0xbdf804ba	-0.121102765
159	0xbc85f69f	-0.01635295
160	0xbd353e5d	-0.044248927
161	0x3d98d6f2	0.074628726
162	0x3d3bbf11	0.045836512
163	0x3d8ec426	0.06971006
164	0xbc98e9b9	-0.018666135
165	0x3dbb3648	0.09141213
166	0x3b99c142	0.0046922276
167	0x3e1ee6d4	0.15517741
168	0x3e02a965	0.12759931
169	0x3d675015	0.056472857
170	0xbc846291	-0.016160281
171	0xbd24eb7b	-0.040263634
172	0xbd5f344d	-0.054493237
173	0xbd96f9ec	-0.073718876
174	0x3c9ec956	0.019383114
175	0xbd9005a8	-0.07032329
176	0xbd2efa3c	-0.04271911
177	0x3d086928	0.03330341
178	0x3d2c71e3	0.0421008
179	0xbdb8001b	-0.08984395
180	0xbd7b052c	-0.06128423
181	0x3dbe452b	0.092905365
182	0x3de81732	0.11332549
183	0x3d67b90f	0.05657297
184	0xbd88036e	-0.06641279
185	0xbd12f9f7	-0.035882916
186	0xbe3ffc50	-0.18748593
187	0x3d302a8b	0.043009322
188	0x3e57c9b4	0.21073037
189	0x3da8aa8a	0.08235653
190	0x3b927e6c	0.004470637
191	0xbbe8a51c	-0.0070997607
192	0x3c676bd3	0.014124828
193	0xbd9ec073	-0.077515505
194	0xbe5538eb	-0.20822494
195	0x3daa797f	0.08323955
196	0x3d801d88	0.06255633
197	0xbd11567d	-0.035482872
198	0x3e5dc699	0.2165779
199	0xbdb1eba1	-0.08687521
200	0x3c92ec24	0.017934866
201	0x3d583d0b	0.05279259
202	0x3e88836f	0.26662776
203	0xbd5ca7d1	-0.05387098
204	0x3dc632ca	0.09677656
205	0x3dd2623e	0.102726445
206	0xbd54d5a4	-0.051961556
207	0xbd8f6f38	-0.07003635
208	0xbda4fc64	-0.08055952
209	0xbd329c29	-0.043605957
210	0xbc04c55f	-0.008103698
211	0x3dabcddd	0.08388875
212	0xbe2abf98	-0.1667465
213	0xbd44c529	-0.04803959
214	0xbe046fa6	-0.12933215
215	0xbdb8b657	-0.090191536
216	0x3d822fd3	0.06356778
217	0x3d14e604	0.036352172
218	0x3d03801e	0.032104604
219	0xbe898a08	-0.26863122
220	0x3dd2bb7e	0.102896675
221	0x3d4d7942	0.05016447
222	0xbe2895db	-0.16463415
223	0xbdbc4280	-0.09192371
224	0xbd28f6a4	-0.04125084
225	0xbcf02d87	-0.029318584
226	0xbdbec72e	-0.09315334
227	0x3c69f796	0.0142802205
228	0xbd70318f	-0.058641013
229	0xbe16c446	-0.1472331
230	0xb9602a18	-0.00021377986
231	0x3c4635f4	0.012097824
232	0xbe1476aa	-0.14498392
233	0x3c3f9deb	0.011695365
234	0xbd68271f	-0.056677934
235	0xbcd94c99	-0.026525782
236	0x3da3f141	0.08005
237	0xbd2f2aa0	-0.04276526
238	0x3df9d455	0.12198702
239	0x3e0032df	0.12519406
240	0x3db10ba9	0.08644802
241	0xbc8b58bf	-0.01701009
242	0xbdb67bce	-0.089103326
243	0x3b5f24e3	0.0034049086
244	0xbdbfe542	-0.09369899
245	0x3d451c39	0.04812262
246	0x3ddbee42	0.107388034
247	0xbe4c45c3	-0.19948487
248	0x3d77110d	0.060318995
249	0x3cc0feb8	0.02355896
250	0xbd964d75	-0.073389925
251	0xbdb15c64	-0.086602
252	0x3d234212	0.03985793
253	0xbd898c51	-0.06716216
254	0x3e1ad7bc	0.15121359
255	0x3d033007	0.032028224

network_body._body_endoder.seq_layers.2.bias f4 [128]
0	0x39e78890	0.000441615
1	0xbcc38763	-0.023868268
2	0xbca20d11	-0.019781621
3	0xbbaac5c0	-0.005211562
4	0xbc59549d	-0.013264802
5	0xbc85b099	-0.01631956
6	0xbcd3a114	-0.025833644
7	0xbca70c58	-0.020391628
8	0xba15e8cf	-0.000571859
9	0x3b24357c	0.0025056293
10	0xbc0bfbf2	-0.008543955
11	0xbc9e7044	-0.019340642
12	0xbca71c86	-0.020399343
13	0x3b893bfa	0.004188058
14	0xbc2795cd	-0.010228586
15	0xbc4bea5c	-0.012446012
16	0x3bed658b	0.007244771
17	0xbca65a83	-0.020306831
18	0xbbc20276	-0.0059207035
19	0xbc3402d6	-0.010987004
20	0xbc8ec756	-0.017429035
21	0xbca7f29e	-0.020501431
22	0xbcd7ad58	-0.026327774
23	0xbcbbd810	-0.022930175
24	0xbbde44cc	-0.0067831036
25	0xbc8ab3db	-0.016931465
26	0xbccbc618	-0.024874732
27	0x3bf2a1c9	0.00740454
28	0xb9dbe78f	-0.0004194346
29	0x3b7d1060	0.0038614497
30	0x3b7248b0	0.0036969595
31	0xbccad514	-0.024759807
32	0xbbca27e6	-0.006169307
33	0xbc33716e	-0.010952337
34	0xbc27f7b6	-0.01025193
35	0xbc4fe62d	-0.0126891555
36	0xbc67d3ff	-0.014149665
37	0xbc223b3e	-0.00990182
38	0xbc874598	-0.016512677
39	0xbc539920	-0.012914926
40	0xbb6fa6c7	-0.0036567913
41	0xbc8651ff	-0.01639652
42	0x3a4ebde3	0.00078865717
43	0xbc6dbbe7	-0.014510131
44	0xbb8c12fd	-0.0042747245
45	0xbc10ef20	-0.008846074
46	0x3bc22fba	0.0059260996
47	0xbc6bffee	-0.01440428
48	0xbcc24390	-0.023713857
49	0xbd39ef3e	-0.045394175
50	0x3b811807	0.003939632
51	0xbc8b614e	-0.017014172
52	0xbb968628	-0.0045936294
53	0x381c7b8c	3.730836e-05
54	0xbbe77ab1	-0.0070641865
55	0xbc46c8af	-0.012132808
56	0xbc5398bb	-0.012914832
57	0xbbd71512	-0.006563791
58	0xbc306736	-0.010766795
59	0xbca25edc	-0.019820623
60	0xbc7f4b9f	-0.015581994
61	0xbb2eecdb	-0.002669147
62	0xbc073b18	-0.008253835
63	0xbc16aec9	-0.0091969455
64	0xbd04c11e	-0.032410733
65	0xbbfc2e95	-0.0076959827
66	0xbc664d40	-0.014056504
67	0xbc8567f1	-0.016284915
68	0xbbbbdb62	-0.0057329396
69	0xbbaf8ef5	-0.005357618
70	0xbc81ae07	-0.015830053
71	0xbc4811cf	-0.012211277
72	0xbc9fe586	-0.019518625
73	0xbc89a296	-0.01680116
74	0x397c1f7b	0.0002404432
75	0xbc114c25	-0.008868252
76	0xbcda6234	-0.026658155
77	0xbca13721	-0.019679608
78	0xbc6e3dd0	-0.014541104
79	0xbc127f04	-0.008941416
80	0xbccf5d9b	-0.02531319
81	0xbcf2e4bf	-0.02965009
82	0xbc07aa98	-0.008280419
83	0xbc4216e5	-0.011846279
84	0xbbbca36c	-0.005756786
85	0xbccbd48a	-0.02488162
86	0xbcd1a686	-0.0255921
87	0x3bd301d4	0.006439427
88	0xbcaee582	-0.021349672
89	0xb9324070	-0.00016999408
90	0x3b624a8c	0.0034529297
91	0xbc8826bd	-0.016620034
92	0xbb32299f	-0.0027185453
93	0xbba2aed3	-0.0049646883
94	0x3a3defc4	0.00072455057
95	0xbc395de4	-0.011313889
96	0xbc9934ba	-0.0187019
97	0xbc791076	-0.0152016785
98	0xbcb38846	-0.021915566
99	0x3ab2aa6a	0.001363111
100	0xbc6d38b6	-0.014478853
101	0xbbe1bc62	-0.006888912
102	0xbccfbea8	-0.025359467
103	0xbcd34ab6	-0.02579246
104	0xbaef09dc	-0.0018237191
105	0xbcbccef2	-0.023047898
106	0xbcd23231	-0.025658699
107	0xb998cefe	-0.0002914592
108	0xbcc7946a	-0.024362762
109	0xbcd93cf9	-0.026518332
110	0xbc52956f	-0.012853011
111	0xbc91f3b7	-0.017816408
112	0xbaa74051	-0.0012760257
113	0xbbea04db	-0.007141692
114	0x3be8cc02	0.0071043978
115	0xbc662f1b	-0.014049317
116	0xbbb9ac5c	-0.005666299
117	0xba32403c	-0.0006799733
118	0xbc2b1852	-0.01044281
119	0x3aff6c3b	0.0019487211
120	0xbc15d1d7	-0.009144268
121	0xbccaaca1	-0.024740519
122	0xbd2b77ab	-0.04186217
123	0x3bcd1932	0.006259107
124	0xbb8d48ea	-0.0043116705
125	0xbb4b85a2	-0.0031054993
126	0xbc8db1f7	-0.017296774
127	0xbc4a63c2	-0.012352886

action_model._continuous_distribution.log_sigma f4 [1, 2]
0	0xbd4b0a02	-0.04957009
1	0xbc9fcd1a	-0.01950698

action_model._continuous_distribution.mu.weight f4 [2, 128]
0	0xbc81bf94	-0.015838422
1	0xbc75bf73	-0.014999258
2	0xbbb520c0	-0.0055275857
3	0x3d03fede	0.032225482
4	0xbb99412a	-0.0046769576
5	0xbcb747c1	-0.022373082
6	0xbdd77973	-0.105212115
7	0xbc553a95	-0.013014455
8	0xbb67b463	-0.0035355322
9	0x3c19241f	0.009346991
10	0xbd1881b6	-0.037233077
11	0xbcb838bb	-0.022487989
12	0xbb6798b8	-0.003533883
13	0x3cc552eb	0.02408739
14	0xbb3ae3f4	-0.0028517218
15	0xbcdc8f82	-0.026923899
16	0xbc825a47	-0.015912188
17	0x3c3b9c2a	0.011450807
18	0x3d08df58	0.033416122
19	0xbc96d753	-0.018413221
20	0xbc958d8e	-0.018255975
21	0xbcad02ba	-0.021119464
22	0xbbc8abf6	-0.006124015
23	0xbb61d63b	-0.0034459967
24	0xbc95fb18	-0.018308207
25	0xbb9c648b	-0.004772728
26	0x3b815f50	0.0039481297
27	0x3d3dde15	0.046354372
28	0xbd3f1fae	-0.04666107
29	0x3cbaf79c	0.022823147
30	0xbbd1578b	-0.0063886098
31	0xbb3bbac3	-0.0028645254
32	0xbc8ff7ab	-0.017574152
33	0xbc85def0	-0.016341656
34	0xbd12ba4b	-0.035822194
35	0x3da04111	0.078249104
36	0x3c4e84bf	0.012604891
37	0xbd20078e	-0.039069705
38	0x3bccd768	0.0062512644
39	0xbc1a1667	-0.009404755
40	0x3c53d997	0.012930295
41	0xba83d572	-0.0010058118
42	0x3da2bf69	0.07946665
43	0xbd1f1b4a	-0.038844384
44	0xbcab8dbe	-0.020941611
45	0xbc241e5a	-0.010017002
46	0xbd0671b9	-0.032823298
47	0x3a86e4ce	0.0010291578
48	0x3c42cec4	0.011890117
49	0x3bf354d4	0.007425884
50	0xbd5bd3aa	-0.053668655
51	0x3dab1e67	0.08355408
52	0xbce7f7a1	-0.02831632
53	0xbbe54aa7	-0.0069974246
54	0xbc257ca4	-0.010100517
55	0x3c9b1c88	0.018934503
56	0x3b0d054f	0.0021518057
57	0x3d1d9ae0	0.03847778
58	0xbcc965f2	-0.024584744
59	0xbc0bafe8	-0.008525826
60	0x3cbec058	0.023285076
61	0xbd2ee049	-0.042694364
62	0x3ce238b3	0.027614927
63	0xbd27eafa	-0.040995575
64	0x3c4e3f40	0.012588322
65	0xbcc3b756	-0.023891132
66	0xbc0ca9be	-0.008585392
67	0x3c2e627d	0.010643599
68	0x3ccfd98e	0.025372293
69	0x3c24e1b8	0.010063581
70	0xbd3dd170	-0.046342313
71	0xbc948834	-0.018131353
72	0xbc2d9337	-0.010594181
73	0x3cd0015d	0.025391275
74	0xbcd64906	-0.026157867
75	0xbc34b4e7	-0.011029459
76	0xbe065f17	-0.13122211
77	0x3c861cab	0.016371092
78	0xbb9ee224	-0.0048487354
79	0xbb570df4	-0.0032814713
80	0xbb2f9bc9	-0.0026795736
81	0x3abb1d89	0.001427577
82	0xbc814c0c	-0.015783332
83	0x3d7ab8f0	0.061211526
84	0x3c8000aa	0.015625317
85	0xbb4d9cf2	-0.0031374064
86	0x3bf36b95	0.0074285963
87	0x3d827186	0.06369309
88	0x3b8b4dd9	0.0042512235
89	0xbcc55cf4	-0.024092175
90	0x3dd595da	0.104289725
91	0xbc0cce3d	-0.008594093
92	0xbd021ce4	-0.031765833
93	0xbc99d959	-0.018780397
94	0xbcdda061	-0.027054014
95	0xbc57a5c2	-0.013162078
96	0xbe268103	-0.16260152
97	0xbc8ce2f4	-0.017198063
98	0xbcc8498f	-0.024449138
99	0xbbcc66ae	-0.0062378263
100	0xbd0d305e	-0.034469955
101	0x3c4ff762	0.012693258
102	0x3c033e51	0.008010463
103	0x3bc882fb	0.0061191297
104	0x3ad6c9af	0.0016387011
105	0xbc2ced92	-0.010554688
106	0xbd121faa	-0.03567473
107	0x3c928fa8	0.017890766
108	0xbc30f93b	-0.010801609
109	0xbc3c32df	-0.011486738
110	0x3da05902	0.07829477
111	0xbdb3f423	-0.087868
112	0xbc789580	-0.015172362
113	0xbc03bf0d	-0.0080411555
114	0x3e098738	0.13430488
115	0xbbd9382e	-0.0066290116
116	0xbc499300	-0.012303114
117	0xbcb9b313	-0.022668397
118	0x3c89f8b2	0.01684222
119	0x3e130d78	0.14360607
120	0x3dbbf900	0.09178352
121	0x3bb3b856	0.005484621
122	0xb70a97fc	-8.260828e-06
123	0x3d88f319	0.06686992
124	0xb923b02d	-0.00015610522
125	0xbc81197d	-0.015759224
126	0x3d3fa393	0.046786856
127	0x3c09d4c7	0.0084125465
128	0xbd6bd183	-0.057572853
129	0xbb592a96	-0.0033136955
130	0xbc0eaca2	-0.008708151
131	0x3a5b3a70	0.0008362895
132	0xbcad3dcb	-0.02114763
133	0xbc2c17fa	-0.010503763
134	0xbe14729b	-0.14496844
135	0xbc1c54fd	-0.009541747
136	0xbc1a75c5	-0.0094274925
137	0xbcb0c86c	-0.021579944
138	0x3a4a3e98	0.00077150157
139	0xbba165aa	-0.0049254494
140	0xbc3a9415	-0.011387845
141	0x3d27852f	0.0408985
142	0xbce810e6	-0.02832837
143	0xbca94568	-0.020662978
144	0xbcb0f229	-0.021599846
145	0xbc4c7ba7	-0.012480653
146	0x3c1f8708	0.009736784
147	0xbccf0f74	-0.025275923
148	0xbbfbabff	-0.0076804156
149	0xbc248656	-0.010041794
150	0xbb782397	-0.003786301
151	0xbc533ba4	-0.012892637
152	0xbcaf1ed3	-0.021377003
153	0xbc9a6190	-0.01884535
154	0xbc2b5f5d	-0.010459748
155	0x3d059776	0.032615148
156	0xbd0b5e27	-0.034025338
157	0x3dbffc0d	0.09374247
158	0xbcad5bf1	-0.021162005
159	0xbca3de0b	-0.02000334
160	0x3c9f469e	0.019442853
161	0xbccfc21e	-0.025361117
162	0xbc30f849	-0.010801383
163	0xbcf7af2c	-0.030234896
164	0xbc45440f	-0.012040152
165	0xbc295d97	-0.010337255
166	0xbcf0ed67	-0.029410077
167	0x3a934333	0.0011235237
168	0xbd2f40be	-0.042786352
169	0xbbc7d861	-0.0060987924
170	0xbb319808	-0.0027098674
171	0xbcbfef99	-0.023429679
172	0x3d50c4cd	0.050968934
173	0x3c9ca1bd	0.019120092
174	0x3dd88cf5	0.105737604
175	0x3bc1de41	0.0059163873
176	0xbb8971e0	-0.004194483
177	0xba937235	-0.0011249246
178	0xbbe0bc1d	-0.0068583624
179	0xbc0e5377	-0.008686892
180	0xbdab255a	-0.083567336
181	0xbccf63a3	-0.025316065
182	0xbc66cfbe	-0.014087616
183	0xbc5af6c9	-0.013364502
184	0xbd04eb76	-0.032451116
185	0xbc1ace5a	-0.009448612
186	0xbce4247b	-0.027849426
187	0xbcc70c76	-0.024297934
188	0xbd449a37	-0.047998633
189	0xbd1b6ea2	-0.037947305
190	0xbd07fc02	-0.033199318
191	0xbc956fa0	-0.018241704
192	0xbd4f0213	-0.050539088
193	0xbc651bcb	-0.013983677
194	0xbcb474c7	-0.02202834
195	0xbc54d245	-0.012989585
196	0xbccaeb8e	-0.024770524
197	0xbcd9a266	-0.026566695
198	0xbd164898	-0.036690325
199	0xbcab1d6b	-0.020888051
200	0xbcf22c25	-0.029562065
201	0xbda1a077	-0.07891934
202	0xbd58f36c	-0.05296652
203	0xbd0bb7f5	-0.034110982
204	0xbdb729db	-0.0894353
205	0x3b7286d9	0.0037006645
206	0x3d6f9801	0.05849457
207	0xbd11a7e1	-0.035560492
208	0xbb12024e	-0.0022279206
209	0xbaed81c4	-0.0018120338
210	0xbcc9e99c	-0.024647526
211	0x3d64a55f	0.055821773
212	0xbd112f53	-0.035445523
213	0xbbc74347	-0.006081018
214	0x3c30bc8b	0.01078714
215	0x3dcdf17e	0.100558266
216	0xbd0172dc	-0.03160368
217	0xbc9aec66	-0.018911552
218	0xbd45898b	-0.048226874
219	0xbc51b5ea	-0.012799719
220	0x3d28e3ad	0.041232754
221	0x3e08fa4c	0.1337673
222	0xbd42d709	-0.047568355
223	0xbce3be27	-0.027800633
224	0xbd6facf6	-0.058514558
225	0x3afc1dd4	0.0019234964
226	0x3beb1d20	0.007175103
227	0xbd9671a4	-0.07345894
228	0xbcbb5163	-0.022865957
229	0x3dd6b90e	0.10484515
230	0xb8f8fdcf	-0.00011872837
231	0xbc19b386	-0.009381181
232	0xbd04f4a0	-0.032459855
233	0xbc133a36	-0.008986047
234	0x3c13fb63	0.009032103
235	0x3ca3bc5c	0.019987278
236	0x3a5f37bf	0.0008515082
237	0xbc230c6e	-0.009951694
238	0xbd37acc7	-0.044842508
239	0x3dd1537a	0.10221
240	0xbcfb9b86	-0.030713808
241	0xbd1a4075	-0.037659127
242	0xbc261534	-0.010136891
243	0x3c6a23b4	0.014290739
244	0x3c2c718d	0.0105251195
245	0xbd118cae	-0.035534553
246	0xbdf85035	-0.12124673
247	0x3d3798b6	0.04482337
248	0xbe26840c	-0.1626131
249	0x3c7ac43e	0.015305577
250	0x3993590e	0.00028104376
251	0x3d5689c3	0.052377474
252	0x3b45cb9a	0.003018117
253	0xbdbcd334	-0.09219971
254	0x3d416cfd	0.04722308
255	0xba97b10f	-0.0011573153

action_model._continuous_distribution.mu.bias f4 [2]
0	0x3bf48df6	0.007463212
1	0x3c6fc2f6	0.014633885

exp_avg f4 [128, 6]
0	0x3e1814b8	0.14851654
1	0x3d1b2ba4	0.037883416
2	0x3e77cf1a	0.24200097
3	0x3e1ae53f	0.15126513
4	0x3d111cde	0.03542792
5	0x3e80088a	0.25006515
6	0xbd608e52	-0.054823227
7	0xbc586e7d	-0.013209936
8	0xbdaebc4f	-0.08532011
9	0xbd67a2a6	-0.056551598
10	0xbc4a6734	-0.012353707
11	0xbdb0e834	-0.08638039
12	0x2bbf8158	1.3607266e-12
13	0x2ae77c99	4.11203e-13
14	0x2c79bb28	3.548892e-12
15	0x2bd9bf5a	1.5471888e-12
16	0x2ad87b8e	3.845504e-13
17	0x2c2e6449	2.4782557e-12
18	0xbd2cfe4c	-0.042234704
19	0xbc0e9d9f	-0.008704572
20	0xbd716242	-0.058931597
21	0xbd57f725	-0.05272593
22	0xbc055f37	-0.008140377
23	0xbd6c0749	-0.057624135
24	0x3c303238	0.010754161
25	0x3b42cd73	0.0029724508
26	0x3c8bcf62	0.017066661
27	0x3c32812a	0.010895053
28	0x3b362d0d	0.0027797848
29	0x3c9e3e3f	0.01931679
30	0x3879d79c	5.9567028e-05
31	0x3780adaf	1.5339667e-05
32	0x38d028ad	9.925789e-05
33	0x3890bd6f	6.90174e-05
34	0x3770acfc	1.4345391e-05
35	0x38d4291a	0.000101166035
36	0x3b5e3dc9	0.0033911339
37	0x39f6a88d	0.00047046356
38	0x3bc36ffe	0.0059642782
39	0x3ad9f8c6	0.0016629926
40	0x39e6abec	0.0004399711
41	0x39f803ba	0.00047305023
42	0xbc1ae491	-0.009453909
43	0xbb06b284	-0.002055318
44	0xbc50d14c	-0.012745213
45	0xbc162733	-0.009164619
46	0xbafbeef6	-0.0019220996
47	0xbc582006	-0.013191229
48	0xb3556448	-4.9684132e-08
49	0xb275d108	-1.4308405e-08
50	0xb3b9d480	-8.653387e-08
51	0xb3bc894a	-8.779405e-08
52	0xb265e231	-1.3380984e-08
53	0xb3f50406	-1.14094334e-07
54	0xbc25bc23	-0.010115656
55	0xbb1a6946	-0.0023561283
56	0xbc657488	-0.014004834
57	0xbc68b17c	-0.014202472
58	0xbb10671e	-0.002203412
59	0xbc8ecca1	-0.017431559
60	0x3cb36b90	0.021901876
61	0x3bbcd9ed	0.0057632835
62	0x3d1548a3	0.036446225
63	0x3cb6bca3	0.022306746
64	0x3bb09c43	0.0053897216
65	0x3d1962e3	0.03744782
66	0xa97b5795	-5.580916e-14
67	0xa8b891e7	-2.0491379e-14
68	0xa9f8e4ef	-1.1053126e-13
69	0xa991b781	-6.4711264e-14
70	0xa8ac9b45	-1.9163173e-14
71	0xaa0648f3	-1.19269e-13
72	0xbc91c686	-0.017794859
73	0xbb754822	-0.0037427028
74	0xbcd956c5	-0.026530633
75	0xbc8e94c3	-0.01740492
76	0xbb65621b	-0.0035001102
77	0xbca973d5	-0.020685116
78	0xa638c7c0	-6.4108536e-16
79	0xa56141dc	-1.9537953e-16
80	0xa6b241cd	-1.2369066e-15
81	0xa61f699a	-5.5307323e-16
82	0xa552a825	-1.8271566e-16
83	0xa67a5b7c	-8.686016e-16
84	0x25931b9b	2.551914e-16
85	0x24ad019b	7.502951e-17
86	0x26009640	4.461255e-16
87	0x25734d18	2.110301e-16
88	0x24a1cad9	7.016626e-17
89	0x25f9cdbc	4.3334026e-16
90	0x3b27fd20	0.0025633052
91	0x3a6bee77	0.00090000726
92	0x3ba4ed8d	0.005033201
93	0x3b3bee1b	0.0028675857
94	0x3a5ca399	0.0008416712
95	0x3bd00709	0.006348495
96	0xa9ef4bae	-1.06268604e-13
97	0xa9484db6	-4.4476324e-14
98	0xaa85068a	-2.3630083e-13
99	0xaa340430	-1.5988664e-13
100	0xa93b51f8	-4.1593438e-14
101	0xaa9a6aed	-2.743009e-13
102	0xbd0578dd	-0.032585967
103	0xbc03f8fc	-0.008054968
104	0xbd5472cd	-0.051867295
105	0xbd0f0788	-0.03491929
106	0xbbf6d644	-0.0075328667
107	0xbd59e8c7	-0.05320051
108	0xaf93d01d	-2.6887018e-10
109	0xaeaea6ee	-7.9422566e-11
110	0xb005e545	-4.871093e-10
111	0xaf97ffbb	-2.7648447e-10
112	0xaea354e0	-7.4274586e-11
113	0xb0167441	-5.473489e-10
114	0xbc208d2e	-0.009799285
115	0xbb22210e	-0.002473894
116	0xbc8530a2	-0.016258541
117	0xbc43859c	-0.01193371
118	0xbb179ed1	-0.0023135433
119	0xbc8d4e4c	-0.017249249
120	0x3d59838f	0.05310398
121	0x3c5edd45	0.013602559
122	0x3db5fe55	0.088864006
123	0x3d4b493c	0.04963039
124	0x3c506b3e	0.012720881
125	0x3db1ebbe	0.086875424
126	0xae8029a6	-5.828164e-11
127	0xad378209	-1.0431219e-11
128	0xaecd0c2e	-9.324484e-11
129	0xae1d34d9	-3.5744605e-11
130	0xad2b9d27	-9.7551195e-12
131	0xae81ebc0	-5.9081184e-11
132	0xbccd1cf4	-0.02503822
133	0xbbcfc6a2	-0.0063408175
134	0xbd2acedc	-0.041701183
135	0xbcf62fe7	-0.030052138
136	0xbbc24ef5	-0.0059298226
137	0xbd3023bd	-0.043002833
138	0xbd327764	-0.04357089
139	0xbc28ed99	-0.010310554
140	0xbd8e15ea	-0.069377735
141	0xbd2efdf9	-0.042722676
142	0xbc1dfa8f	-0.009642257
143	0xbd832a66	-0.06404571
144	0xbd9bb1c0	-0.076022625
145	0xbca34de2	-0.019934598
146	0xbe04b544	-0.12959772
147	0xbd8fc93e	-0.07020806
148	0xbc98b824	-0.018642493
149	0xbe040531	-0.12892605
150	0xb99d2c3f	-0.0002997834
151	0xb9af94e1	-0.00033489525
152	0xbaeb0407	-0.0017930277
153	0x3b0f7582	0.0021890108
154	0xb9a4334b	-0.00031318734
155	0xbaf879d3	-0.0018957205
156	0x3d89406b	0.0670174
157	0x3c8e1008	0.017341629
158	0x3de65281	0.11246205
159	0x3d846a43	0.0646558
160	0x3c84dac3	0.016217595
161	0x3dea7981	0.11448956
162	0xba88c8b2	-0.0010435788
163	0xb8862455	-6.396385e-05
164	0x3a2675ad	0.00063499325
165	0xbba4baf0	-0.0050271675
166	0xb87ae4e8	-5.981783e-05
167	0xbb0f9ed3	-0.0021914735
168	0xbd6deca0	-0.05808699
169	0xbc76492d	-0.015032095
170	0xbdc8c79b	-0.09803697
171	0xbd705d3b	-0.05868266
172	0xbc665282	-0.014057757
173	0xbdca0b33	-0.09865417
174	0x1f338581	3.8015156e-20
175	0x1e4cf292	1.08498324e-20
176	0x1fa95646	7.171701e-20
177	0x1ef5df35	2.60327e-20
178	0x1e3fa9d7	1.0146578e-20
179	0x1f61ba23	4.7799572e-20
180	0xbd828cce	-0.063745126
181	0xbc946026	-0.018112253
182	0xbdebe11c	-0.115175456
183	0xbd524dd1	-0.051343743
184	0xbc8ac21f	-0.016938267
185	0xbdf0c343	-0.11755993
186	0x25bf6788	3.3203374e-16
187	0x24ddaca9	9.613597e-17
188	0x2627f6c1	5.827418e-16
189	0x25a876ba	2.9223807e-16
190	0x24cf4e5b	8.990468e-17
191	0x261bf3b0	5.4106686e-16
192	0xbc48983d	-0.012243328
193	0xbb5dc3f5	-0.0033838723
194	0xbca603ae	-0.020265426
195	0xbc4dc001	-0.012557984
196	0xbb4f641e	-0.0031645368
197	0xbcbd540e	-0.02311137
198	0x3b5e4186	0.0033913567
199	0x3a2ca791	0.00065862486
200	0x3b8b0f16	0.0042437417
201	0x3b41f504	0.0029595504
202	0x3a2176b2	0.00061593496
203	0x3b786b98	0.0037905928
204	0x3cc65ab2	0.024213169
205	0x3bd1bdb0	0.0064007863
206	0x3d2468df	0.040139075
207	0x3cc9a192	0.024613176
208	0x3bc42569	0.005985905
209	0x3d2de1ca	0.042451657
210	0x2a49b026	1.79135e-13
211	0x292befba	3.8177557e-14
212	0x2a6f21cc	2.123919e-13
213	0x2a0479f3	1.1766265e-13
214	0x2920cabe	3.5702988e-14
215	0x2a80245b	2.2762594e-13
216	0x35f5897b	1.8293935e-06
217	0x3502fd19	4.879708e-07
218	0x366c864e	3.5244916e-06
219	0x36699ed0	3.4812147e-06
220	0x34f4ff30	4.5634215e-07
221	0x36a12c63	4.803341e-06
222	0xbaa07188	-0.0012240866
223	0xb9c0dc8d	-0.00036785417
224	0xbb1c9aaf	-0.002389591
225	0xbb145d7f	-0.0022638736
226	0xb9b45c64	-0.00034401112
227	0xbb585dd1	-0.0033014903
228	0x373d7e82	1.1294733e-05
229	0xb8def0ca	-0.000106306354
230	0xb97c745a	-0.00024075937
231	0xb9ad75cf	-0.00033084906
232	0xb8d07d56	-9.9415585e-05
233	0xba9b3e9f	-0.0011844224
234	0x2d3bc48c	1.06733615e-11
235	0xac048fd2	-1.8838165e-12
236	0x2ccf94fb	5.899834e-12
237	0xacbaf791	-5.3139233e-12
238	0xabf7efcc	-1.7616963e-12
239	0xab3cad73	-6.7031726e-13
240	0xba92ee90	-0.0011210013
241	0xba2218ca	-0.00061835034
242	0xbb36b8bb	-0.0027881104
243	0xba5fb760	-0.00085341
244	0xba17970a	-0.00057826994
245	0xbb81518d	-0.003946489
246	0xbe13d76f	-0.1443765
247	0xbd126de1	-0.03574932
248	0xbe6dc341	-0.23219015
249	0xbe1a5341	-0.15070821
250	0xbd08f026	-0.03343215
251	0xbe724edd	-0.23662896
252	0xaf682ca9	-2.1116144e-10
253	0xae734f61	-5.5322306e-11
254	0xafc924ce	-3.6587838e-10
255	0xaf556c8a	-1.9410798e-10

exp_avg_sq f4 [128, 6]
0	0x3eba7530	0.36417532
1	0x3cc48720	0.023990214
2	0x3f796f12	0.97435105
3	0x3ea0e4de	0.31424612
4	0x3cabe07a	0.020981062
5	0x3f6efc6b	0.9335391
6	0x3dadd42f	0.084877364
7	0x3bb8ae19	0.0056359884
8	0x3e6b5149	0.22980227
9	0x3d96432b	0.0733703
10	0x3ba183da	0.004929048
11	0x3e620294	0.22071296
12	0x1cf645d1	1.6296962e-21
13	0x1b145b47	1.2271766e-22
14	0x1db3a232	4.754861e-21
15	0x1cd8b55b	1.434056e-21
16	0x1b01bf5e	1.0732464e-22
17	0x1da73a6c	4.426494e-21
18	0x3f2dd65e	0.67905223
19	0x3d3991c9	0.045305047
20	0x3fea4593	1.8302482
21	0x3f1a07a3	0.601679
22	0x3d224b01	0.03962231
23	0x3fe5cfc3	1.7954029
24	0x3b8956c5	0.004191252
25	0x398ea344	0.00027205993
26	0x3c2cbefc	0.010543581
27	0x3b82a925	0.0039874488
28	0x39797e27	0.00023793486
29	0x3c2de3cd	0.010613394
30	0x349e8fb7	2.953436e-07
31	0x32aae4a9	1.9894587e-08
32	0x3556a170	7.9956135e-07
33	0x348c417e	2.6124684e-07
34	0x32957533	1.7399179e-08
35	0x35498cd8	7.508329e-07
36	0x3d2139e6	0.039361857
37	0x3b2b21f6	0.0026112772
38	0x3ddcefb5	0.10787908
39	0x3d0e52b6	0.034746848
40	0x3b15aad5	0.002283742
41	0x3dcf1666	0.10111694
42	0x3ae20e34	0.0017246665
43	0x38f53201	0.00011691824
44	0x3b9f3e87	0.0048597488
45	0x3ac7e915	0.0015251959
46	0x38d67095	0.00010225285
47	0x3b956531	0.004559182
48	0x2af12aa1	4.283978e-13
49	0x28eb2e12	2.6110221e-14
50	0x2b87f75f	9.660986e-13
51	0x2ad081b3	3.703822e-13
52	0x28cdae25	2.2835095e-14
53	0x2b8ae1dc	9.868178e-13
54	0x3c71390f	0.0147230765
55	0x3a810333	0.0009842872
56	0x3d207324	0.039172307
57	0x3c51023e	0.012756882
58	0x3a61a904	0.0008608254
59	0x3d23baa8	0.03997293
60	0x3c5ee909	0.013605365
61	0x3a6aa6bb	0.00089512364
62	0x3d180716	0.037116133
63	0x3c3e6352	0.0116203595
64	0x3a4d37dd	0.00078284537
65	0x3d0cd501	0.034382824
66	0x179e0caa	1.0213708e-24
67	0x15acca2a	6.9789205e-26
68	0x1850b6e9	2.6975716e-24
69	0x17989f16	9.862929e-25
70	0x15971dbf	6.1035345e-26
71	0x183bbfe6	2.4266067e-24
72	0x3e3c79cd	0.18405838
73	0x3c4a0fee	0.0123328995
74	0x3eff7080	0.49890518
75	0x3e26d9ec	0.16294068
76	0x3c30b77d	0.0107859345
77	0x3ef97187	0.48719427
78	0x11da9cda	3.4491003e-28
79	0x1006add7	2.6560762e-29
80	0x12a184d1	1.019327e-27
81	0x11e202f6	3.5658338e-28
82	0x0feb9260	2.322917e-29
83	0x12943093	9.352088e-28
84	0x0e1482e9	1.830544e-30
85	0x0c199e46	1.183432e-31
86	0x0ead1049	4.2663475e-30
87	0x0de2f9f1	1.3988497e-30
88	0x0c065974	1.0349903e-31
89	0x0eaea81b	4.305619e-30
90	0x3b405cf3	0.0029352277
91	0x394db2a8	0.00019616878
92	0x3c01ddce	0.0079264175
93	0x3b2fcfe3	0.002682679
94	0x3933e589	0.00017156279
95	0x3bfdf3dd	0.007750018
96	0x18fc0371	6.514395e-24
97	0x16e57bcc	3.7075072e-25
98	0x19819039	1.3396538e-23
99	0x18a75e62	4.326379e-24
100	0x16c8b2ec	3.2424658e-25
101	0x19803167	1.3254843e-23
102	0x3d273976	0.040826283
103	0x3b30ff0e	0.0027007493
104	0x3de0205a	0.109436706
105	0x3d0ea84d	0.034828473
106	0x3b1acb85	0.0023619842
107	0x3dda5bd4	0.10662046
108	0x221ddb79	2.1393655e-18
109	0x206223b9	1.9154764e-19
110	0x230c35e0	7.600824e-18
111	0x22183cf8	2.0632118e-18
112	0x2045c629	1.6752115e-19
113	0x2307c074	7.359118e-18
114	0x3bc7842d	0.0060887546
115	0x39d54fb2	0.00040685904
116	0x3c858641	0.016299369
117	0x3bac0cb2	0.005250537
118	0x39ba8e16	0.00035582547
119	0x3c85c4d6	0.01632921
120	0x3d56adb5	0.052411754
121	0x3b6683cc	0.0035173772
122	0x3e154109	0.1457559
123	0x3d3b5350	0.04573375
124	0x3b4999cd	0.0030761838
125	0x3e0b5729	0.13607468
126	0x20bdbd75	3.2143218e-19
127	0x1ec899b6	2.1239397e-20
128	0x21824093	8.826235e-19
129	0x209ae6a3	2.6241237e-19
130	0x1eaf7044	1.8575278e-20
131	0x215c3d0a	7.4619684e-19
132	0x3d756d8a	0.059918918
133	0x3b830a9c	0.0039990675
134	0x3e25e198	0.16199338
135	0x3d4ff4a4	0.050770417
136	0x3b653590	0.0034974553
137	0x3e23c4b5	0.15993007
138	0x3e269b57	0.16270195
139	0x3c31a00f	0.010841384
140	0x3ee3c178	0.44483542
141	0x3e11e96a	0.14249197
142	0x3c1b585c	0.009481516
143	0x3ed87385	0.42275634
144	0x3e4b0386	0.19825563
145	0x3c588410	0.01321508
146	0x3f0936d3	0.5359928
147	0x3e308bc9	0.17240824
148	0x3c3d5b8f	0.011557474
149	0x3f05c2d3	0.52250403
150	0x3d08130e	0.033221297
151	0x3b0f8021	0.002189644
152	0x3db5f6b2	0.08884944
153	0x3ce910db	0.02845042
154	0x3afb0062	0.0019149894
155	0x3db0d381	0.08634091
156	0x3e257daa	0.16161218
157	0x3c2f88c5	0.010713761
158	0x3ede866b	0.43461928
159	0x3e0e41b0	0.13892245
160	0x3c198447	0.009369916
161	0x3ed8bbc6	0.4233076
162	0x3c56beb4	0.013106991
163	0x3a63b6dd	0.00086866115
164	0x3d0d3b3d	0.034480322
165	0x3c3b9ac1	0.01145047
166	0x3a4726c7	0.0007597026
167	0x3d0f1eda	0.03494153
168	0x3dc46b88	0.095908225
169	0x3bce7e80	0.006301701
170	0x3e834031	0.25634912
171	0x3da66e5d	0.08126519
172	0x3bb497c5	0.0055112564
173	0x3e7d9058	0.24762094
174	0x02c237f6	2.8537858e-37
175	0x010bf4b9	2.5705848e-38
176	0x03a6961c	9.7910665e-37
177	0x02b6ef1f	2.6879745e-37
178	0x00f4cd3d	2.2481487e-38
179	0x039f0897	9.347152e-37
180	0x3f3c617f	0.7358627
181	0x3d4b4857	0.049629536
182	0x400009bf	2.0005949
183	0x3f298f49	0.6623426
184	0x3d31c8c5	0.04340436
185	0x3ffc98c1	1.9734117
186	0x0e9b6369	3.830618e-30
187	0x0ce860bd	3.5803482e-31
188	0x0f8fbdb3	1.4173958e-29
189	0x0e935eb8	3.632951e-30
190	0x0ccb3ade	3.1312532e-31
191	0x0f84eed5	1.31082e-29
192	0x3c09259b	0.008370782
193	0x3a152fc9	0.00056910195
194	0x3cbc68b4	0.022999145
195	0x3bfc56a8	0.00770076
196	0x3a027937	0.0004977169
197	0x3cb9d164	0.022682853
198	0x3af1d5d4	0.0018450567
199	0x3903727d	0.00012535784
200	0x3ba54ae2	0.005044327
201	0x3addf6f3	0.0016934559
202	0x38e5eb2e	0.000109633766
203	0x3ba4a4fe	0.0050245514
204	0x3c800adb	0.015630176
205	0x3a8b23da	0.0010615543
206	0x3d3028bd	0.0430076
207	0x3c6695c1	0.01407379
208	0x3a735ff2	0.00092840113
209	0x3d2d6518	0.04233274
210	0x17318d72	5.7370314e-25
211	0x1528164c	3.394492e-26
212	0x17c8ea29	1.2983807e-24
213	0x16f8b42d	4.0180268e-25
214	0x151300dc	2.968709e-26
215	0x17b7edf9	1.1886171e-24
216	0x3054514d	7.7240686e-10
217	0x2e667259	5.2397506e-11
218	0x3107d26c	1.9764697e-09
219	0x303cc99f	6.868052e-10
220	0x2e498a89	4.5825153e-11
221	0x31063c7b	1.9533946e-09
222	0x3b1a00e7	0.0023499073
223	0x391dc267	0.00015045107
224	0x3bc253a4	0.005930381
225	0x3b02830f	0.0019914543
226	0x3909f8a1	0.0001315796
227	0x3bbfda33	0.005854869
228	0x3b03099f	0.0019994748
229	0x3924947f	0.00015695578
230	0x3be22919	0.006901872
231	0x3adc13d7	0.0016790581
232	0x390fefb4	0.00013726839
233	0x3bd46184	0.0064813513
234	0x213f6aaa	6.4854486e-19
235	0x1f63274c	4.8101625e-20
236	0x220fc855	1.9486169e-18
237	0x21237ac0	5.5389006e-19
238	0x1f46a922	4.2068034e-20
239	0x22017116	1.7542627e-18
240	0x3b793799	0.0038027524
241	0x3985951b	0.0002547883
242	0x3c2bb2d9	0.010479652
243	0x3b541204	0.003235937
244	0x3969a751	0.00022282942
245	0x3c25445b	0.010087098
246	0x3f0ac4b8	0.5420642
247	0x3d1263fd	0.035739888
248	0x3fba79ae	1.4568384
249	0x3ee8a38a	0.4543727
250	0x3d00074d	0.031256963
251	0x3fb40c02	1.4066164
252	0x22119282	1.9728725e-18
253	0x20437265	1.6554992e-19
254	0x22fa54ba	6.7852344e-18
255	0x2203b418	1.7849151e-18

exp_avg f4 [128]
0	0xbbf3d340	-0.0074409544
1	0x3b2a0b28	0.002594659
2	0xa9b5df3e	-8.076741e-14
3	0x3ae018f7	0.0017097284
4	0xba190cdc	-0.0005838403
5	0xb64a327c	-3.0129731e-06
6	0xb8c1cae3	-9.240748e-05
7	0x39d3a7b6	0.0004037001
8	0x3141216a	2.810419e-09
9	0x39f2a1dc	0.00046278432
10	0xba945fdf	-0.0011320076
11	0x279102c1	4.024857e-15
12	0x3a40b5d2	0.0007351312
13	0x2430fa49	3.8375916e-17
14	0xa387ecf1	-1.4737078e-17
15	0xb9395d2c	-0.00017677684
16	0x281d5f3e	8.735903e-15
17	0x3acf5f9d	0.0015821342
18	0x2d8937f4	1.5599945e-11
19	0x39fec276	0.0004859154
20	0xbb2f18f8	-0.0026717763
21	0x2c102d49	2.048877e-12
22	0x3aa33e38	0.0012454456
23	0x3b04b8ba	0.0020251707
24	0x3b804d95	0.0039154985
25	0x3889f2e5	6.577912e-05
26	0xbb5f3a77	-0.0034061947
27	0x3752c873	1.2563646e-05
28	0x3b417fc3	0.0029525615
29	0x9d21055b	-2.1310941e-21
30	0x3b6925ec	0.0035575582
31	0xa3ae29a3	-1.8882752e-17
32	0x3a2e3bee	0.00066465035
33	0xb907a63e	-0.00012936533
34	0xbaa4c973	-0.0012572244
35	0xa80715c6	-7.498727e-15
36	0xb3cdd3cf	-9.584584e-08
37	0x38978683	7.225296e-05
38	0x37af2821	2.0880312e-05
39	0x2ad04c0a	3.7000985e-13
40	0x38feb557	0.00012145441
41	0x3be616fa	0.007021782
42	0x2d3f293e	1.0866251e-11
43	0xba9fd793	-0.0012194983
44	0x39f7bb75	0.00047251178
45	0x2b45b64c	7.0241447e-13
46	0xb994adb5	-0.00028358182
47	0x39e51c1a	0.0004369922
48	0x2b22b55d	5.7805654e-13
49	0xb8ff5bd3	-0.00012176451
50	0xba19e0fe	-0.0005870013
51	0xbb79e541	-0.003813103
52	0x3abca847	0.0014393412
53	0x29c3e71d	8.6998314e-14
54	0xba4cdb93	-0.00078147015
55	0x2b301a15	6.2563957e-13
56	0x38805146	6.118654e-05
57	0x398afb04	0.00026508432
58	0xba977a3a	-0.0011556812
59	0xbb4cf4a8	-0.0031273756
60	0xb908149f	-0.00012977653
61	0xbb36f4dd	-0.0027916946
62	0xb9772528	-0.00023569597
63	0xb9cc9967	-0.00039024206
64	0x38df07ed	0.00010634945
65	0xab93e3fa	-1.0508254e-12
66	0x3a554332	0.0008135318
67	0xbaf1fb68	-0.0018461766
68	0x3aef383d	0.0018251013
69	0xba83e57e	-0.0010062901
70	0xb9db3418	-0.00041809748
71	0xbbacc482	-0.005272449
72	0x2f3ec4dc	1.7350338e-10
73	0xba127979	-0.0005587559
74	0x39952b80	0.00028451905
75	0xb9a2a11b	-0.0003101908
76	0xb9df616e	-0.00042606465
77	0x3be9a447	0.007130179
78	0xbb12754f	-0.0022347753
79	0x3949c29f	0.00019241356
80	0x39f6101a	0.00046932773
81	0xba006f29	-0.00048993767
82	0x3b26d879	0.0025458618
83	0xb9e52046	-0.0004370233
84	0x2a208a13	1.4258759e-13
85	0xba369120	-0.00069643743
86	0xbb146254	-0.0022641616
87	0xba6c86e9	-0.0009022789
88	0x34fc84b1	4.7035203e-07
89	0x2e41ab75	4.4035404e-11
90	0x2f626e6f	2.0593814e-10
91	0xbad9760e	-0.0016590969
92	0x2c1de390	2.2437364e-12
93	0xbb3414f4	-0.002747831
94	0x3a9ae57b	0.0011817658
95	0xb9c5239e	-0.00037601305
96	0x2c20ae60	2.2834165e-12
97	0xb9dcfaca	-0.00042148522
98	0x1a92199f	6.042558e-23
99	0xb9f2b7ca	-0.0004629477
100	0xa1c38dfb	-1.3251296e-18
101	0xbb8f9f5e	-0.0043830117
102	0xa4235919	-3.542046e-17
103	0xba6528eb	-0.0008741754
104	0xab6cd0cb	-8.41338e-13
105	0x39463e50	0.00018905965
106	0x287648ff	1.3671572e-14
107	0xba4d305f	-0.0007827337
108	0x36a0ffe1	4.79816e-06
109	0xba910d85	-0.0011066651
110	0x26164eec	5.2148663e-16
111	0x3a29babb	0.00064746634
112	0xa6825cdb	-9.045731e-16
113	0xbabba076	-0.0014314789
114	0x3ad025bd	0.0015880388
115	0xb99480c4	-0.00028324698
116	0x2f2aa9a5	1.552168e-10
117	0xb949fd7a	-0.00019263281
118	0xae5cf9ba	-5.024401e-11
119	0x3ab9b919	0.0014169543
120	0xb8126f98	-3.4913042e-05
121	0x3857cb84	5.1449533e-05
122	0x3a7745da	0.0009432711
123	0xba1d01a7	-0.0005989321
124	0xacf9052f	-7.077581e-12
125	0x3b3795b3	0.0028012812
126	0x2bf443e0	1.7356082e-12
127	0x3a89bfb7	0.0010509406

exp_avg_sq f4 [128]
0	0x3a729fa6	0.0009255357
1	0x3963ff3f	0.00021743494
2	0x18b72748	4.7344055e-24
3	0x3ae5184c	0.0017478555
4	0x373017f9	1.0495999e-05
5	0x3052fa03	7.6752843e-10
6	0x38d345ac	0.000100742414
7	0x36975a6e	4.510678e-06
8	0x26912bc0	1.0073255e-15
9	0x381f45c3	3.7973525e-05
10	0x3810d82e	3.453361e-05
11	0x1355514f	2.6924468e-27
12	0x39f974ae	0.00047579914
13	0x0da644a3	1.0247064e-30
14	0x09bda64d	4.5656483e-33
15	0x36fdf1db	7.5681432e-06
16	0x148da7a0	1.4303478e-26
17	0x38da82c6	0.000104194085
18	0x1e0b9713	7.38984e-21
19	0x3783abf9	1.5696498e-05
20	0x390e4a8c	0.00013569946
21	0x1c77a6dd	8.194111e-22
22	0x3921c706	0.00015428299
23	0x39db497d	0.00041825688
24	0x3a05a656	0.00050983333
25	0x38b1289c	8.447582e-05
26	0x39d8b4d3	0.00041333455
27	0x380c8ff5	3.351267e-05
28	0x397eed85	0.0002431181
29	0x000acc77	9.91703e-40
30	0x3afaf66a	0.0019146923
31	0x0a8f70f2	1.3812884e-32
32	0x37b82db2	2.1955788e-05
33	0x36a24746	4.8362735e-06
34	0x382bc687	4.095447e-05
35	0x12cf831c	1.3095858e-27
36	0x2c0e3fc5	2.0214813e-12
37	0x36c2c30d	5.8043574e-06
38	0x36cb2ebf	6.0553134e-06
39	0x1d0c3751	1.8557444e-21
40	0x3724ea25	9.829678e-06
41	0x3ab4ba13	0.0013788365
42	0x1df14a08	6.3868715e-21
43	0x38910672	6.915339e-05
44	0x3a20c127	0.00061322976
45	0x1b16f3f8	1.248654e-22
46	0x3625ea72	2.472338e-06
47	0x38c3975e	9.326519e-05
48	0x19faffe9	2.5952755e-23
49	0x36bdbbe2	5.6545114e-06
50	0x36fc48d2	7.5186626e-06
51	0x39934df1	0.00028096096
52	0x392e90c6	0.00016647865
53	0x185f2cda	2.8844719e-24
54	0x37e75081	2.7574833e-05
55	0x1ac0b517	7.9701905e-23
56	0x3500fc65	4.8051e-07
57	0x37c0537f	2.2927064e-05
58	0x39dec5d3	0.0004249053
59	0x3957f417	0.00020594928
60	0x36c21a61	5.7847215e-06
61	0x3905e9f1	0.00012771018
62	0x36c4772d	5.855129e-06
63	0x37366dc8	1.0873606e-05
64	0x364ffbd2	3.0991982e-06
65	0x1c2c3b72	5.6986857e-22
66	0x37a6c4aa	1.988032e-05
67	0x387b5607	5.9923183e-05
68	0x3932b382	0.00017042275
69	0x38a3b9a5	7.807025e-05
70	0x371192d3	8.676859e-06
71	0x3a1814f3	0.00058014615
72	0x24d6432a	9.2921486e-17
73	0x3922d869	0.00015530143
74	0x36bb1ee6	5.5766313e-06
75	0x3808c1e2	3.2605494e-05
76	0x3710ee2c	8.638523e-06
77	0x3b8b5840	0.0042524636
78	0x396251be	0.00021583491
79	0x371035f5	8.595632e-06
80	0x36f21d0a	7.2155426e-06
81	0x3738674e	1.0991307e-05
82	0x392d96f5	0.00016554802
83	0x369b7aa8	4.633639e-06
84	0x18c513f5	5.0943458e-24
85	0x39a1a1bf	0.00030828823
86	0x379206c1	1.7407701e-05
87	0x36f52853	7.3062633e-06
88	0x2e1039ed	3.2793258e-11
89	0x1f13b1de	3.127559e-20
90	0x213d9842	6.42372e-19
91	0x38125024	3.488375e-05
92	0x1ca31022	1.0790605e-21
93	0x3a0c21c6	0.0005345609
94	0x373ef024	1.1380795e-05
95	0x36862a42	3.9984307e-06
96	0x1f14e6bc	3.1531078e-20
97	0x3636f07a	2.726009e-06
98	0x000001f4	7e-43
99	0x3788c725	1.6305197e-05
100	0x0751e731	1.5791353e-34
101	0x3a0033b0	0.00048905145
102	0x09bff8fe	4.621573e-33
103	0x3810b89c	3.4504206e-05
104	0x1ca31a1e	1.0793186e-21
105	0x36fd5c40	7.550727e-06
106	0x148ee060	1.4426836e-26
107	0x37bea700	2.272753e-05
108	0x31bd6013	5.5115463e-09
109	0x37dbac22	2.618699e-05
110	0x0da10054	9.92247e-31
111	0x385a04d4	5.1979747e-05
112	0x0ee14b30	5.5539185e-30
113	0x37cd0d61	2.4444134e-05
114	0x38625b9e	5.3967924e-05
115	0x35db5bb4	1.6343461e-06
116	0x2311ccaa	7.903805e-18
117	0x37f1908c	2.8796749e-05
118	0x1de638dc	6.0939284e-21
119	0x3a0ff538	0.00054915575
120	0x383bb092	4.474872e-05
121	0x36fa46a6	7.458805e-06
122	0x390adc03	0.00013242666
123	0x3a1ee35f	0.00060611026
124	0x1c8721a9	8.942252e-22
125	0x3a81b6a9	0.0009896356
126	0x1ac45afc	8.1210693e-23
127	0x3946dc0f	0.0001896473
