results/ppo/MoveToGoal/checkpoint.pt (torch, 145132 bytes, 11 tensors)

network_body._body_endoder.seq_layers.0.weight f4 [128, 1]
00000000: f1ba a53d 9975 183f f8f8 543f 7a4d 7ebf
00000010: 4470 893f 7ebd 783f 1c3e 3b3f 264f 573f
00000020: c850 37be 5c30 6b3e d2a7 a1bf f7b3 1dbe
00000030: 9f55 16bf b10e b3be 09a7 83bf 136c 0bbf
00000040: 2262 62be f31d 473f 9bd3 473f f33a 1a3f
00000050: 8d0b b3be 3f28 3d3f d91e 97be 0871 e93d
00000060: bbd5 c5bf ef0f 423f 2661 c23e 5ff0 593f
00000070: b2da 9b3e a720 69bf 3e98 393d 62bb 163f
00000080: a70f 56be e012 8c3f 4c1f 3d3e a5fb e5bf
00000090: eebe 163f f065 173e b7d2 593f 460f 8e3e
000000a0: ed06 f73e 846a cdbb 5d5d 15bf 169d 91bf
000000b0: b748 8dbf f40f a2be 8197 4140 ad13 c4bb
000000c0: 382a 8bbc 8252 f7be fd58 6bbf 4588 573f
000000d0: ccbc f4be 65a9 ff3c 7eb3 0b40 223e 4a3f
000000e0: f026 7b3f cc01 babf 50b5 5b3d 8bd7 953e
000000f0: 2a21 923d 5502 fcbe c39c 953f 7c94 193f
00000100: 3c58 3fbf 916b 613f a6dd 0b3f 64aa 873e
00000110: 8ffc 7abf 15ee 9a3c 5805 813f c9a5 dbbf
00000120: b9de 0ac0 5b47 803f 9a41 87bf 8f53 243d
00000130: ede1 643f 25c4 e1bf d144 7e3f 354e 773e
00000140: d69b a2bf 4027 a63f ae9d 75be 21ea 7fbf
00000150: e5c2 8c3d da33 cbbf 605e 7e3f 0077 afbf
00000160: 4633 f73e 2820 e3be 26b7 da3e 94ac 7c3f
00000170: 1b23 1bbe d68b c93e 33f5 563f 49f4 0ebf
00000180: 723a c63f 0ec5 cd3f 3e11 cabe d5c5 debe
00000190: fe7d 1bbf 55f1 31be 8749 0bbf 9ab3 51be
000001a0: ab41 353f 9ea5 90bf 59b6 de3d 8849 20be
000001b0: 588c 07bf 0c5f e9bf b902 c1be cff8 1d3f
000001c0: 289f 1e3f dc04 2fbf 04a5 6a3f 53ef 9d3e
000001d0: d18e 533e c707 7d3e 35bc f03f bbda 3e3e
000001e0: 9b8e 203e 4fd4 943c c282 4f3d 29af babe
000001f0: 8b52 3f3f ea33 da3c 4c70 03c0 80b5 8fbf
0.08092297 0.5955444 0.83192396 -0.9933697 1.0737386 0.9716414 0.73141646 0.84105146
-0.1790191 0.22967666 -1.262934 -0.15400682 -0.587244 -0.34972146 -1.028535 -0.54461783
-0.22107747 0.77780074 0.7805726 0.602462 -0.3496975 0.73889536 -0.29515722 0.11398512
-1.545585 0.7580556 0.37964743 0.851324 0.3044029 -0.9106545 0.045311205 0.58879673
-0.20904408 1.094326 0.1846897 -1.7967421 0.58885086 0.1478498 0.8508715 0.27746028
0.4824747 -0.006268801 -0.58345586 -1.1376064 -1.1037816 -0.31652796 3.024872 -0.005983791
-0.016987905 -0.48305136 -0.9193266 0.84192306 -0.4780029 0.031208703 2.1828303 0.7900106
0.9810629 -1.4531798 0.05363971 0.2926601 0.07135232 -0.4922053 1.1688465 0.59992194
-0.7474401 0.8805476 0.54635084 0.26497185 -0.98041624 0.018912354 1.0079756 -1.7159969
-2.169844 1.0021776 -1.0566895 0.04011875 0.89407235 -1.7637984 0.99323756 0.24150927
-1.2703807 1.2980728 -0.23985931 -0.9996663 0.06873111 -1.5875199 0.99362755 -1.3708191
0.48281306 -0.4436047 0.42717856 0.98700833 -0.1515011 0.393645 0.83967894 -0.558415
1.5486586 1.6075761 -0.3946628 -0.4351031 -0.60739124 -0.17377217 -0.5440907 -0.20478669
0.70803326 -1.1300542 0.10874624 -0.1565305 -0.5294852 -1.8232131 -0.3769739 0.61707777
0.61961603 -0.6836679 0.91658044 0.30846652 0.20659949 0.24709998 1.8807436 0.18638127
0.156794 0.018167643 0.05066181 -0.36461762 0.74735326 0.026636083 -2.053729 -1.1227264

network_body._body_endoder.seq_layers.0.bias f4 [128]
00000000: 0000 0000 0000 0000 0000 0000 0000 0000
00000010: 0000 0000 0000 0000 0000 0000 0000 0000
00000020: 0000 0000 0000 0000 0000 0000 0000 0000
00000030: 0000 0000 0000 0000 0000 0000 0000 0000
00000040: 0000 0000 0000 0000 0000 0000 0000 0000
00000050: 0000 0000 0000 0000 0000 0000 0000 0000
00000060: 0000 0000 0000 0000 0000 0000 0000 0000
00000070: 0000 0000 0000 0000 0000 0000 0000 0000
00000080: 0000 0000 0000 0000 0000 0000 0000 0000
00000090: 0000 0000 0000 0000 0000 0000 0000 0000
000000a0: 0000 0000 0000 0000 0000 0000 0000 0000
000000b0: 0000 0000 0000 0000 0000 0000 0000 0000
000000c0: 0000 0000 0000 0000 0000 0000 0000 0000
000000d0: 0000 0000 0000 0000 0000 0000 0000 0000
000000e0: 0000 0000 0000 0000 0000 0000 0000 0000
000000f0: 0000 0000 0000 0000 0000 0000 0000 0000
00000100: 0000 0000 0000 0000 0000 0000 0000 0000
00000110: 0000 0000 0000 0000 0000 0000 0000 0000
00000120: 0000 0000 0000 0000 0000 0000 0000 0000
00000130: 0000 0000 0000 0000 0000 0000 0000 0000
00000140: 0000 0000 0000 0000 0000 0000 0000 0000
00000150: 0000 0000 0000 0000 0000 0000 0000 0000
00000160: 0000 0000 0000 0000 0000 0000 0000 0000
00000170: 0000 0000 0000 0000 0000 0000 0000 0000
00000180: 0000 0000 0000 0000 0000 0000 0000 0000
00000190: 0000 0000 0000 0000 0000 0000 0000 0000
000001a0: 0000 0000 0000 0000 0000 0000 0000 0000
000001b0: 0000 0000 0000 0000 0000 0000 0000 0000
000001c0: 0000 0000 0000 0000 0000 0000 0000 0000
000001d0: 0000 0000 0000 0000 0000 0000 0000 0000
000001e0: 0000 0000 0000 0000 0000 0000 0000 0000
000001f0: 0000 0000 0000 0000 0000 0000 0000 0000
0.0 0.0 0.0 0.0 0.0 0.0 0.0 0.0
0.0 0.0 0.0 0.0 0.0 0.0 0.0 0.0
0.0 0.0 0.0 0.0 0.0 0.0 0.0 0.0
0.0 0.0 0.0 0.0 0.0 0.0 0.0 0.0
0.0 0.0 0.0 0.0 0.0 0.0 0.0 0.0
0.0 0.0 0.0 0.0 0.0 0.0 0.0 0.0
0.0 0.0 0.0 0.0 0.0 0.0 0.0 0.0
0.0 0.0 0.0 0.0 0.0 0.0 0.0 0.0
0.0 0.0 0.0 0.0 0.0 0.0 0.0 0.0
0.0 0.0 0.0 0.0 0.0 0.0 0.0 0.0
0.0 0.0 0.0 0.0 0.0 0.0 0.0 0.0
0.0 0.0 0.0 0.0 0.0 0.0 0.0 0.0
0.0 0.0 0.0 0.0 0.0 0.0 0.0 0.0
0.0 0.0 0.0 0.0 0.0 0.0 0.0 0.0
0.0 0.0 0.0 0.0 0.0 0.0 0.0 0.0
0.0 0.0 0.0 0.0 0.0 0.0 0.0 0.0

network_body._body_endoder.seq_layers.2.weight f4 [128, 128]
00000000: 26dc 05be 9800 133e 7ad8 ad3d 809c 84bc
00000010: 2eeb 95bd f61b 6e3e f47f 37bd 74df be3d
00000020: dfcf 68be c44c 9a3d 35c0 debd f331 25be
00000030: 81ad 99bc aae7 3f3e d86d 57bd 502a 563e
00000040: 7af2 0f3c 311a b6bd 9a1c 85bd 0e8e 1fbe
00000050: abf0 53bd 67d5 f4bc b863 15bc c281 d6bd
00000060: 10db e7bc 0145 3a3c 5fa8 8ebd 0a99 9b3d
00000070: 9208 b4bd 1f10 88bd b600 023e e6d8 2a3e
00000080: 6843 44bd 1448 69bd 8b5a b7bd a475 3a3e
00000090: a3d6 a03d e338 fbbd b026 0d3c 2c09 653d
000000a0: e39f 00be a601 b83c 35b1 c3bd 7537 c0bd
000000b0: 8b32 0b3e 7c3f e03d 87a7 97bd 5300 05be
000000c0: 5602 dbbd 39d0 8dbd 6257 bdbd d0cf 953d
000000d0: bd09 16be 2f02 0f3e 1147 bfbc 1293 80bc
000000e0: 6a43 04be a4d6 903d 7e0d a43e bea3 8bbc
000000f0: 6e86 4e3d 70e3 153e 0fba 37be dd63 293d
00000100: dd45 16be 3429 70bd dca8 ee3c 8ef0 27bd
00000110: 0e45 f5bd 818f d9bc 6299 2d3d 5176 a9bd
00000120: 8ac7 823d 7f44 733d a25e 10bd 01cf 203d
00000130: 3d0d 8a3c 98a9 adbd f92d cc3d e2d3 97bc
00000140: 5134 aa3d cbee 3e3b eba8 4e3e 50aa 4c3e
00000150: 50e9 b5bd f674 fe3d c4a4 73bc ebf9 07bd
00000160: 009c 08bd 0589 ad3d d3bb 453d a590 a43d
00000170: e23f 103e 6f91 bebc 61c4 103e 033f 343d
00000180: 21da 65bd a920 8fbc fb2f ea3d 9a6a a7bb
00000190: 8c77 5fbd 86f5 103e bffb 913d f88d b3bd
000001a0: 4af8 393d de53 6abd 52ee e6bc 9cba ccbd
000001b0: 5238 f93b 7114 573e 2629 afbd d364 683d
000001c0: e96a 5c3c 5f7f 22be 1b82 073e 2c92 9dbc
000001d0: 99d6 34bd cd5a 883d 492b 5abc 2710 8fbc
000001e0: 6ea3 113e 41da f43d 6963 df3b 0f25 223e
000001f0: a0b6 66bc cce4 c13d 4e88 b8bc 182e b03c
00000200: d9ba 833d ed27 58bd fb79 a4ba 8f36 0bbe
00000210: 046a cfbd ee64 de39 54ca 1e3d 1d65 00be
00000220: 02d9 953d 0552 7b3b 2a2b 2cbd 5775 b5bd
00000230: a4dd f33c 6e6f 253e eb7a 3f3d aa62 29bd
00000240: a3eb 1ebd 814a dcbd 0853 a2bd ebd3 c0bd
00000250: ac06 b03d 76d0 6dbe 0355 6fbd 024f f43c
00000260: 9851 2fbe b837 243e 62b5 f1bd e2cd 86bd
00000270: 2ca1 d6bd ed58 09be 29d7 3cbe 1475 e5bc
00000280: f39d 093e c8e7 053d adf4 3abd fa73 643d
00000290: 05b8 8cbd 535d 273c 69a2 f7bd 1518 99bd
000002a0: 7ed6 a5bd 1b19 6c3d 6e17 93bd 4a0a c43d
000002b0: 7e00 803d 5394 81bd f4a3 b5bc 7694 243d
000002c0: 5588 e03b c6f9 f23c b9e8 be3d 11b1 80bc
000002d0: 1850 dc3d 82e2 a53c 4891 453c f4ee fabc
000002e0: 8d63 5bbd 3eb0 6abd 95ee e63c 136e b53d
000002f0: 63ee 553a 2208 64bd 8f30 8c3c 8c89 29bc
00000300: bab7 a0bc 1b10 4e3c c017 943d 7eda 913d
00000310: 50cc 583c 49d5 c73d 5615 17bd c558 4dbc
00000320: c2fc 64bd c689 133e 5670 f63d 2553 043d
00000330: 66e8 dabc 6044 de3c dcd6 0e3a c37a c0bc
00000340: 77b5 203c ac34 bf3d 55fd 04be 2856 8ebb
00000350: f6e6 ea3d b406 ec3c c206 55bd d44d 5abe
00000360: 78ad aebd 2eb6 923c ff4c 5d3d 6949 a4bd
00000370: 672e 563d c108 ed3b cf44 e8bd d70e 2fbe
00000380: d17b 80bd 3044 063e 1122 55bd 3871 2cbd
00000390: 747e 413d 90e8 69bd bff2 d93d 585f 1f3e
000003a0: e176 1dbe 61a0 2b3e 0dc0 45bd 5660 203d
000003b0: 85aa c0bc ac60 f93d b9f2 bb3d d2df 443e
000003c0: 9cd6 6bbd 4e6c d23d c3de 643d e28e 2a3e
000003d0: 963a 233b e2f5 ec3c d234 933c 2eaa 30be
000003e0: fb80 2fbd ca26 e63d 1194 ff3d b405 943d
000003f0: 2370 1ebe d18f 803b be44 0d3d 276c 163d
-0.13072261 0.14355695 0.08488555 -0.016187906 -0.073202476 0.23252854 -0.04479976 0.09319964
-0.22735547 0.07534173 -0.10876504 -0.16132335 -0.01875949 0.18740717 -0.05259499 0.20914578
0.008785838 -0.08891714 -0.06499596 -0.15581533 -0.05174319 -0.029886914 -0.009118013 -0.10473968
-0.0283027 0.011368991 -0.06965708 0.07597549 -0.08790697 -0.066437 0.12695584 0.16684303
-0.047915846 -0.056953505 -0.089528166 0.18208939 0.07853439 -0.1226671 0.008615181 0.05591695
-0.12560992 0.022461724 -0.09555284 -0.093855776 0.135935 0.10949609 -0.07405 -0.12988405
-0.10693805 -0.06924481 -0.092451826 0.07315028 -0.14652152 0.13965677 -0.023349317 -0.015695129
-0.12916341 0.070721895 0.32041544 -0.017045852 0.05042117 0.14637542 -0.1794207 0.041355003
-0.14675088 -0.058633044 0.029133253 -0.041000895 -0.11976062 -0.026557686 0.042382605 -0.0827452
0.06385715 0.059391495 -0.0352465 0.039259914 0.016852016 -0.08479613 0.09969706 -0.01853365
0.0831076 0.002913403 0.20181625 0.19986844 -0.088823915 0.12424652 -0.014870826 -0.033197325
-0.0333519 0.084734 0.048274826 0.08035401 0.1408687 -0.023262708 0.14137413 0.044005405
-0.056116227 -0.017471628 0.11434933 -0.0051091434 -0.05455737 0.1415616 0.07128095 -0.08767313
0.045402803 -0.05720889 -0.028189812 -0.099965304 0.007605591 0.21003892 -0.0855277 0.05673678
0.013453224 -0.158689 0.13233225 -0.01923474 -0.04414997 0.06657944 -0.013315984 -0.017463757
0.142225 0.11955691 0.0068172705 0.15834449 -0.014081627 0.09467468 -0.022525933 0.021506354
0.06432123 -0.05277245 -0.001254856 -0.13595031 -0.10127643 0.00042418338 0.038767174 -0.12538572
0.073167816 0.0038348448 -0.042033352 -0.088602714 0.029768772 0.16155788 0.046748083 -0.04135386
-0.03879894 -0.10756398 -0.07925993 -0.0941542 0.085950226 -0.23224053 -0.058430683 0.02982283
-0.1712097 0.1603688 -0.11802174 -0.06582238 -0.1047996 -0.13412829 -0.18441452 -0.028009929
0.13439159 0.032691747 -0.045643497 0.055774666 -0.068710364 0.010215121 -0.12091524 -0.074752964
-0.08097552 0.05764113 -0.07182203 0.09572275 0.06250094 -0.06327119 -0.022172906 0.040180646
0.0068521895 0.029660117 0.09321732 -0.015709432 0.10757464 0.020249609 0.0120585635 -0.03063152
-0.053561736 -0.057296984 0.028189937 0.088588856 0.00081608276 -0.05567182 0.017112998 -0.010347735
-0.019618858 0.012577082 0.072310925 0.07121752 0.013232306 0.09757478 -0.036885582 -0.012533371
-0.05590511 0.14408025 0.12033145 0.032305855 -0.026722144 0.027132213 0.00054488867 -0.023496037
0.00980889 0.09336218 -0.12987264 -0.0043437667 0.114698336 0.02881179 -0.052008398 -0.21318752
-0.0852918 0.017909136 0.054028507 -0.080218144 0.052290346 0.0072337096 -0.11341249 -0.17095505
-0.06273616 0.13111949 -0.05203444 -0.04210016 0.047239736 -0.057106555 0.10642003 0.15563715
-0.1537738 0.16760398 -0.048278857 0.039154373 -0.02351881 0.12176642 0.09177155 0.19226006
-0.057577714 0.10274564 0.055876505 0.16656068 0.0024906746 0.02892584 0.017969523 -0.17252418
-0.042847615 0.11237867 0.12479413 0.0722765 -0.15472464 0.0039233943 0.034489386 0.036724236

network_body._body_endoder.seq_layers.2.bias f4 [128]
00000000: 0000 0000 0000 0000 0000 0000 0000 0000
00000010: 0000 0000 0000 0000 0000 0000 0000 0000
00000020: 0000 0000 0000 0000 0000 0000 0000 0000
00000030: 0000 0000 0000 0000 0000 0000 0000 0000
00000040: 0000 0000 0000 0000 0000 0000 0000 0000
00000050: 0000 0000 0000 0000 0000 0000 0000 0000
00000060: 0000 0000 0000 0000 0000 0000 0000 0000
00000070: 0000 0000 0000 0000 0000 0000 0000 0000
00000080: 0000 0000 0000 0000 0000 0000 0000 0000
00000090: 0000 0000 0000 0000 0000 0000 0000 0000
000000a0: 0000 0000 0000 0000 0000 0000 0000 0000
000000b0: 0000 0000 0000 0000 0000 0000 0000 0000
000000c0: 0000 0000 0000 0000 0000 0000 0000 0000
000000d0: 0000 0000 0000 0000 0000 0000 0000 0000
000000e0: 0000 0000 0000 0000 0000 0000 0000 0000
000000f0: 0000 0000 0000 0000 0000 0000 0000 0000
00000100: 0000 0000 0000 0000 0000 0000 0000 0000
00000110: 0000 0000 0000 0000 0000 0000 0000 0000
00000120: 0000 0000 0000 0000 0000 0000 0000 0000
00000130: 0000 0000 0000 0000 0000 0000 0000 0000
00000140: 0000 0000 0000 0000 0000 0000 0000 0000
00000150: 0000 0000 0000 0000 0000 0000 0000 0000
00000160: 0000 0000 0000 0000 0000 0000 0000 0000
00000170: 0000 0000 0000 0000 0000 0000 0000 0000
00000180: 0000 0000 0000 0000 0000 0000 0000 0000
00000190: 0000 0000 0000 0000 0000 0000 0000 0000
000001a0: 0000 0000 0000 0000 0000 0000 0000 0000
000001b0: 0000 0000 0000 0000 0000 0000 0000 0000
000001c0: 0000 0000 0000 0000 0000 0000 0000 0000
000001d0: 0000 0000 0000 0000 0000 0000 0000 0000
000001e0: 0000 0000 0000 0000 0000 0000 0000 0000
000001f0: 0000 0000 0000 0000 0000 0000 0000 0000
0.0 0.0 0.0 0.0 0.0 0.0 0.0 0.0
0.0 0.0 0.0 0.0 0.0 0.0 0.0 0.0
0.0 0.0 0.0 0.0 0.0 0.0 0.0 0.0
0.0 0.0 0.0 0.0 0.0 0.0 0.0 0.0
0.0 0.0 0.0 0.0 0.0 0.0 0.0 0.0
0.0 0.0 0.0 0.0 0.0 0.0 0.0 0.0
0.0 0.0 0.0 0.0 0.0 0.0 0.0 0.0
0.0 0.0 0.0 0.0 0.0 0.0 0.0 0.0
0.0 0.0 0.0 0.0 0.0 0.0 0.0 0.0
0.0 0.0 0.0 0.0 0.0 0.0 0.0 0.0
0.0 0.0 0.0 0.0 0.0 0.0 0.0 0.0
0.0 0.0 0.0 0.0 0.0 0.0 0.0 0.0
0.0 0.0 0.0 0.0 0.0 0.0 0.0 0.0
0.0 0.0 0.0 0.0 0.0 0.0 0.0 0.0
0.0 0.0 0.0 0.0 0.0 0.0 0.0 0.0
0.0 0.0 0.0 0.0 0.0 0.0 0.0 0.0

action_model._discrete_distribution.branches.0.weight f4 [5, 128]
00000000: 5d44 5b3b db7d 913b c036 33bb 85f0 01bc
00000010: ab82 89ba 2a7d 35bc 1abf 51b9 8513 3bbb
00000020: 90a6 1cbc 730b 92bc 4bdf 95bc 829f 34bb
00000030: 734c 293b d732 913c 0b20 49bb 2ac1 d1ba
00000040: e5fb 953c 94d5 223c ec5c 8f3b f7c3 3abc
00000050: e2bf af3b 45b1 5dbc 2ba5 213b addb ce3b
00000060: a78f 633c ea8b 9c3a f37d 3c3c 8253 cfbb
00000070: eb71 ca3b 10c4 f13b 11c7 413c e85d 74bb
00000080: 61e5 97bb 57ed 78ba 1502 413b 189c b43b
00000090: bcf7 b03a 827b d33b 9566 3cbb 2506 333c
000000a0: 4301 f93a 8def 343c 7ac6 5dbc 6c8c 2f3c
000000b0: 9f80 223c 8e94 263b e291 c7bb 2f13 8fbb
000000c0: 2b68 27bc 6cc3 0ebc 9fa3 3dbb 07a7 b83b
000000d0: 5dec 223b 2d92 3a3b 2523 9d3b 8477 8c3c
000000e0: 94bd 1b3c 2a82 823b e42f 803c f797 8d3b
000000f0: 3d20 503b ed5d 893c b304 04bb bf8b 133b
00000100: 03bf 32bc f78b 803c 96ed 27bc d765 f03a
00000110: 12d2 713b 6c5e 2d3b 2fd6 32bb 6498 8eba
00000120: 7f0a 8d39 e178 ab3b 30bc 1bbc fd85 62bc
00000130: da97 50bb 1101 8cbc 68c5 a43b 928f dd3b
00000140: e4a2 16bb c3e9 43bc 86ff 013c 1ddb a13b
00000150: f09b cb3a 6a56 75bb 9144 0938 63e5 5a3c
00000160: f53d 42bc 662e 1cbc 875b 74bc 1250 363c
00000170: 9d28 26b9 b0fc a23a 80ef 50bc 97a8 1abb
00000180: bcd4 c2bb 5260 b33b af3b 1dbc 5f89 183c
00000190: 1129 0cba 2b64 a13c 23ff 53bb 38ca 1abc
000001a0: 3b97 613c 02f5 0d3c 7305 243c 08ef 543c
000001b0: ae21 42bb 0023 65bc d37f 01bb 1295 d93a
000001c0: 5f7b 503c 385c d73a 86db 9e3a ef32 993b
000001d0: e1c0 ae3a 9fd5 54bb 8c53 40bc a51a ac3a
000001e0: f690 3539 30a6 b9ba c206 bf3b eba8 0d3c
000001f0: b0ef 8e3b d9a5 99bb ee53 14bc bbc1 803a
00000200: e797 64bb 7461 adbb 524c 6b3b a11a c93b
00000210: 2b70 53bb f318 043d 9490 2e3c 84c6 9eba
00000220: 9f16 083c d09f 5938 9721 163c 5504 77bc
00000230: 44fd 8a3a f7b7 a03c 4f25 053b 171c 4b3c
00000240: 9a65 56bc 0ac1 f038 6176 013c 3bcd 963b
00000250: 26f9 863b 8e25 c8bb 0386 b1bc 3dc9 c6ba
00000260: 86c1 8abb 556d a0bc cff4 79bb 25bb 37bc
00000270: 9fbe ba3b 6a74 50bc 638b 5e3c 2b78 3c3c
00000280: ed20 c3bb f0e4 fdba 934e c33c 8384 843b
00000290: a742 a33b 8ddc f93b 5794 383b 10df 6ebb
000002a0: 2504 2bbc 238d 873c b44f 87bc d7ca 82bb
000002b0: 4d6a d73b 6697 9739 73f3 21bc 3889 d2bb
000002c0: 69c8 c73b 5f4a 8dbb c9b3 953b bf65 0d3c
000002d0: f151 863c 186d 5a3c a3ae 1437 4275 dfbb
000002e0: 3b20 663b 8a53 d03b 7458 ad3c abce 62ba
000002f0: 47f2 803b 47d2 2bba 2311 8d39 0b3c 6d3b
00000300: a982 1fbb ebfb 32bc 6a87 dfbb ca61 3cbb
00000310: 930a 5eb9 b7bf 95bb dfe1 56bc 4fd8 ae39
00000320: 174b 803b 7f87 b4bb 8d5f e6bb 0813 2f3c
00000330: 5b0b ed3b eefb 313c d8b2 5cbb fa25 e8ba
00000340: d384 a53b cd0f 4e3c 5818 d6bb 1d9c 76bc
00000350: 53f7 c0bb c0e7 16bc f9cf 3cbb 3797 293c
00000360: 3282 f3bb 4ed4 c0bb b1d4 843b 2a90 7aba
00000370: f236 57bb 282d 4c3c dbe7 d83b e9d6 923b
00000380: dd4d fe3b b2c3 3e3c 0698 c63b 6d12 24bc
00000390: 2a03 21bc b37e c33a 14ae 473b 5a3d 313c
000003a0: 95b7 3bba 3b28 713a 9ed6 bfbb c758 2d3a
000003b0: 23af 193c 9f36 bf3a 03e3 9e38 e7fa 773b
000003c0: 45cb 6f3c 34b6 4b3c 0ad2 503b 35f1 6bbb
000003d0: 878a 83bc 17f1 b0b9 5c28 a2bb b880 a2bb
000003e0: c78b 38bc 4a5d 663b 9b45 6b3b ba86 cfbb
000003f0: 99c8 433b 2448 223c 43c5 8c3c 3338 c5b9
0.0033457496 0.004440052 -0.0027345866 -0.0079308795 -0.0010491213 -0.011077205 -0.00020002984 -0.002854557
-0.009561196 -0.017827725 -0.018294951 -0.0027560894 0.002583292 0.017724438 -0.0030689265 -0.0016003002
0.01830859 0.009938616 0.004375091 -0.011399261 0.0053634504 -0.013531034 0.0024665098 0.0063128085
0.01388923 0.0011943553 0.011504638 -0.0063270936 0.006178131 0.007378109 0.011827246 -0.0037287418
-0.0046354984 -0.00094958156 0.0029450704 0.005511772 0.0013501565 0.0064539323 -0.0028747667 0.010926758
0.0018997568 0.0110434415 -0.01353609 0.0107146315 0.009918361 0.0025418135 -0.0060903886 -0.0043663005
-0.010217707 -0.008713584 -0.0028936637 0.0056351456 0.0024860122 0.0028468475 0.0047954493 0.017146833
0.009505648 0.003982802 0.015647836 0.004321094 0.0031757497 0.01676842 -0.0020144403 0.0022513715
-0.010909799 0.01569174 -0.010249516 0.0018340898 0.0036898893 0.0026453985 -0.0027288308 -0.0010879156
0.00026901436 0.0052329157 -0.009505317 -0.013825891 -0.0031828792 -0.017090352 0.0050284155 0.0067614997
-0.0022985274 -0.011957589 0.007934457 0.0049394504 0.0015534144 -0.003743554 3.2727203e-05 0.013360354
-0.011855592 -0.009532547 -0.0149144 0.011127489 -0.00015846123 0.0012434926 -0.012752414 -0.0023599023
-0.00594577 0.0054741288 -0.009596749 0.009310096 -0.00053466955 0.019701084 -0.0032348118 -0.009447627
0.013768966 0.008664371 0.010011065 0.012996443 -0.0029622125 -0.013985395 -0.0019760027 0.0016600213
0.012724726 0.0016430682 0.0012119866 0.004675261 0.0013332629 -0.003247596 -0.011738669 0.0013130499
0.00017315507 -0.0014163908 0.005829663 0.00864623 0.004362069 -0.00468896 -0.0090532135 0.0009823361
-0.003488058 -0.0052911583 0.0035903645 0.0061372076 -0.0032262902 0.032250356 0.010654587 -0.0012113606
0.008306175 5.188567e-05 0.009163282 -0.015076716 0.0010604043 0.019618971 0.0020316427 0.012396834
-0.013085747 0.00011480048 0.007901759 0.004602102 0.0041190563 -0.0061079925 -0.021670347 -0.0015166175
-0.0042344956 -0.019583384 -0.0038140302 -0.011214052 0.0056989933 -0.012723068 0.013583037 0.01150326
-0.005954853 -0.0019370597 0.023841178 0.004044117 0.004982311 0.0076251687 0.002816459 -0.0036448874
-0.010438 0.016546791 -0.016517498 -0.0039914655 0.0065739513 0.00028913765 -0.009884703 -0.006425049
0.006096889 -0.0043118442 0.004568551 0.008630215 0.016396495 0.013331674 8.862148e-06 -0.006819398
0.0035114426 0.006357615 0.021160342 -0.0008652012 0.0039351317 -0.0006554466 0.00026906384 0.0036199118
-0.0024339354 -0.01092432 -0.0068215625 -0.002874481 -0.00021175509 -0.0045699733 -0.013115375 0.0003334903
0.0039152014 -0.0055093165 -0.0070304335 0.01068569 0.0072340197 0.010863287 -0.0033675935 -0.0017711513
0.0050512343 0.012577009 -0.0065336637 -0.015051869 -0.0058888583 -0.009210527 -0.0028810485 0.010350994
-0.007431292 -0.0058846837 0.004053675 -0.0009558225 -0.0032839146 0.012461938 0.006619436 0.0044811857
0.007760747 0.011643337 0.006060603 -0.010014159 -0.0098274145 0.0014915079 0.003046875 0.01081785
-0.000716084 0.0009199415 -0.005854442 0.0006612655 0.009380135 0.0014588422 7.576311e-05 0.0037838758
0.014635866 0.012433577 0.0031863474 -0.0036001925 -0.016057266 -0.00033748962 -0.004948659 -0.004959192
-0.011263794 0.003515082 0.0035899642 -0.0063331993 0.0029874204 0.009904895 0.017183905 -0.0003761664

action_model._discrete_distribution.branches.0.bias f4 [5]
00000000: 0000 0000 0000 0000 0000 0000 0000 0000
00000010: 0000 0000
0.0 0.0 0.0 0.0 0.0

network_body._body_endoder.seq_layers.0.weight f4 [128, 1]
00000000: cead b4bf e884 1bc0 c7d3 b03f 64ba ccbe
00000010: a410 483f edfd 19bf a3bc 1dbf e027 3a3e
00000020: 1b61 a1bf b223 1b3f 5c7f 8cbe f406 bebf
00000030: 73fd e53d f577 283e d8ea 603f 4323 a43f
00000040: a02a 103d cc10 0a3f 4347 91be 1b14 f63e
00000050: 204e 93bf 6e04 febf 68c7 de3e 8d47 f6be
00000060: 9ac6 8d3e 2230 afbc 5f3f 4cbf 6fcb 04c0
00000070: a9cf 75be 289a a1bf 8309 83bf ba56 053f
00000080: 9703 7ebe 7e9e fcbe 8aeb c73f 453d b1be
00000090: 5b99 c3be c728 da3e c914 f83e b166 9a3e
000000a0: c072 6a3f ed3a 2b3f bf88 18bf 9b36 97bf
000000b0: 9d01 123f 3b43 4abf e7a3 f13f b82d 433f
000000c0: 07b1 3bbf 4727 02bf 9476 9e3e 4679 8bbf
000000d0: 00c7 153f 50ac 14be 3661 bd3f cbb3 2cbf
000000e0: e565 883f 35c7 4ebf ab4c 8ebf 6ba8 dfbd
000000f0: 9409 62bf f564 1ec0 d4a6 46bf ee10 85bf
00000100: 36e9 4abe 9cdf 163f 8ad4 cd3e 1875 84bf
00000110: 06c2 913f 5a7a a9be 5cde cd3e 1150 4dbf
00000120: 6b59 96be 59bd d2bf a59c d53f 15ea a8be
00000130: b5df 7f3e 638b c6be 1994 d3bf eb74 433e
00000140: 3974 a23d b813 a43e 9cf5 32be d40d 1dbf
00000150: f079 3ebf fe66 f2be 30a5 a43e 699f ab3d
00000160: 500e 24bf 1996 1d3f 4b13 f43f eba9 1440
00000170: 0765 d3bf 4afb a2bd 10fa 023f 79a6 4cbf
00000180: 204b 3bc0 9e7b f63e 6774 dbbf 635a 4840
00000190: ee9b 14bf dc3e 0040 7a56 8cbb 5427 563f
000001a0: 2b38 a33e 58e1 27bf b7c7 d23f b387 7bbe
000001b0: b4e7 09c0 622e 53bf 8b87 50bf 90bf 033f
000001c0: ed91 563e b207 72bf c2ff 3abf a137 323f
000001d0: a2fd fe3e 0ded 863f 9c41 fbbe f289 6d3f
000001e0: 738e b2be de32 6f3d 2d77 bebd 0e4c 87be
000001f0: 4903 1ec0 8d58 3e3f da1a 983f 5856 a9bf
-1.4115541 -2.429987 1.3814629 -0.39985955 0.7815039 -0.60153085 -0.6161596 0.18179274
-1.2607759 0.6060134 -0.27440917 -1.4845872 0.11229982 0.1645201 0.87858343 1.2823261
0.0351969 0.5393188 -0.2837468 0.48062214 -1.1508217 -1.9845102 0.4351151 -0.48101464
0.27690583 -0.021385256 -0.79784197 -2.0749166 -0.24004997 -1.262517 -1.0237278 0.5208546
-0.24806057 -0.4933967 1.5618756 -0.34617057 -0.38202938 0.42609236 0.48453358 0.30156472
0.91581345 0.6688679 -0.5958366 -1.1813539 0.5703371 -0.79008836 1.8878144 0.76241636
-0.73317 -0.5084118 0.30949843 -1.0896385 0.58506775 -0.14518857 1.4795291 -0.6746184
1.0656096 -0.80772716 -1.1117147 -0.10920795 -0.88295865 -2.474912 -0.7759831 -1.0395792
-0.19815525 0.5893495 0.40201217 -1.0348234 1.1387336 -0.3310116 0.4020871 -0.80200297
-0.29365095 -1.6464034 1.6688429 -0.3299109 0.24987681 -0.3877822 -1.6529571 0.1908757
0.07932324 0.32046294 -0.17476505 -0.61349225 -0.7440481 -0.47344202 0.32157278 0.083800144
-0.6408434 0.61557156 1.9068388 2.322871 -1.6515206 -0.07958086 0.51162815 -0.7994152
-2.9264603 0.48141187 -1.7144898 3.1305168 -0.5805043 2.0038366 -0.0042827697 0.8365376
0.3187879 -0.6557822 1.6467198 -0.24563484 -2.154767 -0.8249265 -0.8145682 0.51464176
0.20954104 -0.9454299 -0.73046505 0.6961613 0.4980288 1.0541092 -0.49073493 0.9278861
-0.34874305 0.05839812 -0.09300075 -0.26425213 -2.4689505 0.7435387 1.1883194 -1.3229475

network_body._body_endoder.seq_layers.0.bias f4 [128]
00000000: 0000 0000 0000 0000 0000 0000 0000 0000
00000010: 0000 0000 0000 0000 0000 0000 0000 0000
00000020: 0000 0000 0000 0000 0000 0000 0000 0000
00000030: 0000 0000 0000 0000 0000 0000 0000 0000
00000040: 0000 0000 0000 0000 0000 0000 0000 0000
00000050: 0000 0000 0000 0000 0000 0000 0000 0000
00000060: 0000 0000 0000 0000 0000 0000 0000 0000
00000070: 0000 0000 0000 0000 0000 0000 0000 0000
00000080: 0000 0000 0000 0000 0000 0000 0000 0000
00000090: 0000 0000 0000 0000 0000 0000 0000 0000
000000a0: 0000 0000 0000 0000 0000 0000 0000 0000
000000b0: 0000 0000 0000 0000 0000 0000 0000 0000
000000c0: 0000 0000 0000 0000 0000 0000 0000 0000
000000d0: 0000 0000 0000 0000 0000 0000 0000 0000
000000e0: 0000 0000 0000 0000 0000 0000 0000 0000
000000f0: 0000 0000 0000 0000 0000 0000 0000 0000
00000100: 0000 0000 0000 0000 0000 0000 0000 0000
00000110: 0000 0000 0000 0000 0000 0000 0000 0000
00000120: 0000 0000 0000 0000 0000 0000 0000 0000
00000130: 0000 0000 0000 0000 0000 0000 0000 0000
00000140: 0000 0000 0000 0000 0000 0000 0000 0000
00000150: 0000 0000 0000 0000 0000 0000 0000 0000
00000160: 0000 0000 0000 0000 0000 0000 0000 0000
00000170: 0000 0000 0000 0000 0000 0000 0000 0000
00000180: 0000 0000 0000 0000 0000 0000 0000 0000
00000190: 0000 0000 0000 0000 0000 0000 0000 0000
000001a0: 0000 0000 0000 0000 0000 0000 0000 0000
000001b0: 0000 0000 0000 0000 0000 0000 0000 0000
000001c0: 0000 0000 0000 0000 0000 0000 0000 0000
000001d0: 0000 0000 0000 0000 0000 0000 0000 0000
000001e0: 0000 0000 0000 0000 0000 0000 0000 0000
000001f0: 0000 0000 0000 0000 0000 0000 0000 0000
0.0 0.0 0.0 0.0 0.0 0.0 0.0 0.0
0.0 0.0 0.0 0.0 0.0 0.0 0.0 0.0
0.0 0.0 0.0 0.0 0.0 0.0 0.0 0.0
0.0 0.0 0.0 0.0 0.0 0.0 0.0 0.0
0.0 0.0 0.0 0.0 0.0 0.0 0.0 0.0
0.0 0.0 0.0 0.0 0.0 0.0 0.0 0.0
0.0 0.0 0.0 0.0 0.0 0.0 0.0 0.0
0.0 0.0 0.0 0.0 0.0 0.0 0.0 0.0
0.0 0.0 0.0 0.0 0.0 0.0 0.0 0.0
0.0 0.0 0.0 0.0 0.0 0.0 0.0 0.0
0.0 0.0 0.0 0.0 0.0 0.0 0.0 0.0
0.0 0.0 0.0 0.0 0.0 0.0 0.0 0.0
0.0 0.0 0.0 0.0 0.0 0.0 0.0 0.0
0.0 0.0 0.0 0.0 0.0 0.0 0.0 0.0
0.0 0.0 0.0 0.0 0.0 0.0 0.0 0.0
0.0 0.0 0.0 0.0 0.0 0.0 0.0 0.0

network_body._body_endoder.seq_layers.2.weight f4 [128, 128]
00000000: e325 1ebd 3d99 ccbd bf76 a9bd 2ac3 9abd
00000010: 83b3 96bd 666b 4e3d 97ed 563d c57e 1a3d
00000020: d979 153e 0927 90bd a712 83be 6471 ee3d
00000030: c085 0fbe 6b94 af3d ca5d 49bc e23c b23c
00000040: a2a6 173e 3421 81bd 3c36 c6bd 837e 383d
00000050: b623 fbbc b9ff 8d3c a0e9 42bd 5e6d 253d
00000060: 9228 ac3d 809a 87bd 6bdf b2bb 2540 e8bd
00000070: b421 09bb 8414 893d 3884 c13d 6023 873d
00000080: 6e26 94bc c2c0 adbd ad40 c0bd 1391 7fbd
00000090: 32b2 19bd df5f c5bc 1360 75bc 70d6 ed3d
000000a0: 6b60 c2bc 9488 f3bd 9829 78bc 551b 41bd
000000b0: 8bdf 7ebc 9a2a 4c3e 0183 963d 2b8c bbbd
000000c0: 7e83 3d3d 5c5b 4e3d 8136 f7bc 120b ddbd
000000d0: e58a 493c 9a01 363b 956d 0f3e e432 743c
000000e0: f3c1 99bd 6c63 3fbb 52bf 2dbe c25b 65bd
000000f0: 4f5d 19bb 572a fabd 244f 3dbe cc97 d3bd
00000100: fea6 e0bd e219 e53c 91b1 62bd 3638 2bbd
00000110: b03a 80be 8d8f 33be 352e 05be 5fbf cbbd
00000120: b58d 31bd 4809 4fbc 748e c1bd 9734 573d
00000130: 2365 98bc c6ae 643d dd0c d93c 6714 26bd
00000140: 4f7a 0c3d 6c30 933d 05cd 1cbe 081a 15be
00000150: 1cfc 9c3d be16 20bd 2fcf 723d a7ec 01be
00000160: c1cf ef3d f328 513e e417 96bb efa4 713d
00000170: d848 3ebd d566 f93c 0371 61bc 4237 b3bd
00000180: a526 593d 354e 97bd 227c d33d 4029 8cbd
00000190: 8256 21be 2288 d9bc 827b afbd 3550 14bd
000001a0: 27b0 fa3d 99c4 e33c 9d5f eebd 6a41 603c
000001b0: aff4 85bd c3e6 3ebd 91ff 1c3d 40e5 5f3d
000001c0: f820 9c3d 19ba bfbc e6b6 0d3e 4268 52bd
000001d0: 619f d8bd b4e0 edbd 88cb ac3c b12f 523d
000001e0: b989 bf3d d44f 31bd 392d 3abe eb33 1e3d
000001f0: 9f64 3ebd d155 983d 75d5 b2bd c04a e6bc
00000200: 21f9 fabc eb9a f83d a6c4 d43d f467 3dbe
00000210: a3bf 313d 5eeb e1bc 6122 103e f053 d0bd
00000220: f5a8 8fbb da0c 7a3d 7d66 2cbd fc25 4cbd
00000230: c2e8 823d e0bb b8bd e998 b63d b262 ab3d
00000240: aea2 b63c 0b8a cfbd 871a 953b 5d2c e93c
00000250: 3416 8e3d 6d73 1e3d 7101 4a3d 4911 24bd
00000260: 0fb4 023c 554e 173d c728 b13d 4c62 fb3c
00000270: 4602 323d 2f6f b2bc aea6 923d fa4f c0bd
00000280: f57f 123d 371e 11bd cf61 b93c f1ea 89bc
00000290: 3ea0 513e fddc f0bd c399 4e3d e054 143d
000002a0: 4f03 9cbd 990d 96bb 7d43 a83b c300 4d3c
000002b0: 243b 8c3d 2593 dabd 3fac 3abc c08b 6bbc
000002c0: 2074 4cbd 9298 223e 1f7c 2d3d e231 debc
000002d0: a810 0bbd 3de2 d93d f01a 8fbc df4e 08be
000002e0: a944 e1bb 8bb3 823d 80bb 983d 0c5c 23be
000002f0: c638 2cbd 6127 233c e60b ffbd 8e17 b8bb
00000300: 653d e8bd 14a2 82bc 38cd 093e 04fb 2b3e
00000310: d04c 0abe 58da 3e3d c563 553b b7fd 103e
00000320: 38b7 173d bb8b 21bd 95cd bf3d fe8f 263e
00000330: e635 b6bd a55a 86bd ad39 c03d df35 97bc
00000340: 74f3 c9bd 949a 303e 8485 cf3d 2f78 c03c
00000350: 6873 5d3e 6965 b8bc c5a9 c0bc c9a5 08be
00000360: 5113 40bd a846 c8bc 49b6 63be 8c8f 00be
00000370: 2c49 8a3d 8686 02bc 960f 3f3c 12e5 49bc
00000380: b6d7 623d cbc0 38bc 8cfb a53d 24bf 973d
00000390: 2cf8 63bd fe92 91bd 549c edbc ac49 483d
000003a0: 04e2 3abc 65a3 de3d 92f4 21bd e632 6fbd
000003b0: 1cec 76bd b09e cfbd fa7d cabc 4fb4 0d3e
000003c0: 8f40 883c 07d3 7b3c 442b 0d3e 8b2d f93d
000003d0: bce3 843c 5dbc 573d 35a9 053e 1888 013e
000003e0: 409f d8bd 45a9 80bd 0d94 243c 2dfc 583d
000003f0: abf5 2abe d987 5b3c 291e a13d 37b4 b03c
-0.03861035 -0.099901654 -0.08274602 -0.07556756 -0.07358458 0.050395392 0.052472677 0.037718553
0.14597262 -0.07038695 -0.25600168 0.11642721 -0.14015865 0.0857323 -0.012290427 0.021757547
0.14809659 -0.06305161 -0.09678313 0.045042526 -0.030656677 0.017333852 -0.047586083 0.040387504
0.08406176 -0.066212654 -0.0054587624 -0.113403596 -0.002092463 0.06693366 0.09449047 0.06598544
-0.018084731 -0.08484031 -0.09387336 -0.062394213 -0.037523456 -0.024093566 -0.014976519 0.11613166
-0.023727616 -0.118912846 -0.0151466355 -0.047145206 -0.0155562265 0.19938126 0.07349206 -0.09157594
0.04626798 0.050380096 -0.030177357 -0.10793127 0.012301181 0.002777195 0.14006646 0.014904711
-0.07507696 -0.0029203547 -0.16967514 -0.05599571 -0.0023401564 -0.12215107 -0.18487221 -0.10331687
-0.10969351 0.027966443 -0.05534512 -0.041801654 -0.25044775 -0.17535229 -0.13005908 -0.099486105
-0.043348033 -0.01263649 -0.09450999 0.052540388 -0.018602913 0.05583074 0.026495392 -0.0405468
0.03429633 0.0718697 -0.15312584 -0.14560711 0.076652735 -0.03908419 0.059279617 -0.12687932
0.11709548 0.20425777 -0.0045804847 0.058995184 -0.046456188 0.030444542 -0.013759854 -0.08750774
0.05301537 -0.07387964 0.10326411 -0.06843805 -0.15755656 -0.026554171 -0.08568479 -0.036209304
0.1224063 0.027803706 -0.116393305 0.013687471 -0.0654081 -0.04660679 0.038329665 0.05466199
0.07623476 -0.023404168 0.13839301 -0.05136896 -0.10577274 -0.11615124 0.021093145 0.051315013
0.093524404 -0.04328902 -0.18181314 0.03862373 -0.04648268 0.07438243 -0.0873212 -0.028111815
-0.030636372 0.12138923 0.1038907 -0.18496686 0.04339565 -0.027578052 0.14075615 -0.1017226
-0.004384155 0.061047412 -0.042089928 -0.049840912 0.06392051 -0.09020209 0.08915884 0.08368434
0.022294369 -0.101337515 0.0045502814 0.028463537 0.06937829 0.038684297 0.04931778 -0.040055547
0.0079775 0.036939938 0.08650356 0.03068652 0.0434592 -0.021781532 0.07160698 -0.09390254
0.03576656 -0.035429206 0.022629647 -0.016835662 0.20471284 -0.117609 0.050439607 0.036213756
-0.076178186 -0.0045792577 0.0051349984 0.012512389 0.06847218 -0.10672597 -0.011393606 -0.014376581
-0.049915433 0.15878513 0.0423547 -0.027123395 -0.03395143 0.10638855 -0.0174689 -0.13311337
-0.00687464 0.06381901 0.07457638 -0.15953082 -0.04204633 0.009958119 -0.12453441 -0.0056180423
-0.11339835 -0.015946425 0.13457191 0.16794974 -0.13505864 0.046594948 0.0032560688 0.14159285
0.037039965 -0.039439898 0.093653835 0.16265866 -0.08896999 -0.06560258 0.09386001 -0.018458305
-0.09860888 0.17246467 0.10132888 0.023494808 0.21626055 -0.022509294 -0.023518452 -0.13344492
-0.04689342 -0.024447754 -0.22237505 -0.12554759 0.06752238 -0.007966643 0.011661431 -0.012322681
0.0553815 -0.011276434 0.081046194 0.07409504 -0.055656597 -0.07108115 -0.029005207 0.048898384
-0.011406425 0.10871009 -0.03953988 -0.05839815 -0.060283765 -0.10137689 -0.024718273 0.13838314
0.016632346 0.015370137 0.13786036 0.1216689 0.016221873 0.05266987 0.13052829 0.12649572
-0.105772495 -0.062822856 0.010045064 0.05297487 -0.16695277 0.013399088 0.07867081 0.021570308

network_body._body_endoder.seq_layers.2.bias f4 [128]
00000000: 0000 0000 0000 0000 0000 0000 0000 0000
00000010: 0000 0000 0000 0000 0000 0000 0000 0000
00000020: 0000 0000 0000 0000 0000 0000 0000 0000
00000030: 0000 0000 0000 0000 0000 0000 0000 0000
00000040: 0000 0000 0000 0000 0000 0000 0000 0000
00000050: 0000 0000 0000 0000 0000 0000 0000 0000
00000060: 0000 0000 0000 0000 0000 0000 0000 0000
00000070: 0000 0000 0000 0000 0000 0000 0000 0000
00000080: 0000 0000 0000 0000 0000 0000 0000 0000
00000090: 0000 0000 0000 0000 0000 0000 0000 0000
000000a0: 0000 0000 0000 0000 0000 0000 0000 0000
000000b0: 0000 0000 0000 0000 0000 0000 0000 0000
000000c0: 0000 0000 0000 0000 0000 0000 0000 0000
000000d0: 0000 0000 0000 0000 0000 0000 0000 0000
000000e0: 0000 0000 0000 0000 0000 0000 0000 0000
000000f0: 0000 0000 0000 0000 0000 0000 0000 0000
00000100: 0000 0000 0000 0000 0000 0000 0000 0000
00000110: 0000 0000 0000 0000 0000 0000 0000 0000
00000120: 0000 0000 0000 0000 0000 0000 0000 0000
00000130: 0000 0000 0000 0000 0000 0000 0000 0000
00000140: 0000 0000 0000 0000 0000 0000 0000 0000
00000150: 0000 0000 0000 0000 0000 0000 0000 0000
00000160: 0000 0000 0000 0000 0000 0000 0000 0000
00000170: 0000 0000 0000 0000 0000 0000 0000 0000
00000180: 0000 0000 0000 0000 0000 0000 0000 0000
00000190: 0000 0000 0000 0000 0000 0000 0000 0000
000001a0: 0000 0000 0000 0000 0000 0000 0000 0000
000001b0: 0000 0000 0000 0000 0000 0000 0000 0000
000001c0: 0000 0000 0000 0000 0000 0000 0000 0000
000001d0: 0000 0000 0000 0000 0000 0000 0000 0000
000001e0: 0000 0000 0000 0000 0000 0000 0000 0000
000001f0: 0000 0000 0000 0000 0000 0000 0000 0000
0.0 0.0 0.0 0.0 0.0 0.0 0.0 0.0
0.0 0.0 0.0 0.0 0.0 0.0 0.0 0.0
0.0 0.0 0.0 0.0 0.0 0.0 0.0 0.0
0.0 0.0 0.0 0.0 0.0 0.0 0.0 0.0
0.0 0.0 0.0 0.0 0.0 0.0 0.0 0.0
0.0 0.0 0.0 0.0 0.0 0.0 0.0 0.0
0.0 0.0 0.0 0.0 0.0 0.0 0.0 0.0
0.0 0.0 0.0 0.0 0.0 0.0 0.0 0.0
0.0 0.0 0.0 0.0 0.0 0.0 0.0 0.0
0.0 0.0 0.0 0.0 0.0 0.0 0.0 0.0
0.0 0.0 0.0 0.0 0.0 0.0 0.0 0.0
0.0 0.0 0.0 0.0 0.0 0.0 0.0 0.0
0.0 0.0 0.0 0.0 0.0 0.0 0.0 0.0
0.0 0.0 0.0 0.0 0.0 0.0 0.0 0.0
0.0 0.0 0.0 0.0 0.0 0.0 0.0 0.0
0.0 0.0 0.0 0.0 0.0 0.0 0.0 0.0

value_heads.value_heads.extrinsic.weight f4 [1, 128]
00000000: 01b7 0a3d ee60 043c 7d1f 81bd 14d4 0e3e
00000010: 449c 1c3e 7ab1 293e fe3c 033e 9762 2ebe
00000020: 7c60 1a3e fdc9 3ebe ce77 03be bc2e 4f3d
00000030: c13c 78bd ee93 423e 5f0a 293c 2c34 2b3d
00000040: 234d a33d bc45 4cbd 1ecc 37bd 871b 143e
00000050: cae9 963d 6c4f 843d 9190 ba3d 5f62 363e
00000060: 5820 003e eb2d 413d 0cfe 3a3e 9475 453e
00000070: 0d32 893c 101c 173d 8707 c93d e46f dcbd
00000080: 9302 313e 6106 09be 7df5 0fbe 86f6 153e
00000090: de4f cfbc ecef 9fbd d4a3 5dbc e076 ac3d
000000a0: cc70 0cbc a898 543e 7f70 6e3d 96c5 7c3d
000000b0: b384 76bd 8296 d03d b43a 1c3e 67bf 58bd
000000c0: 53d0 ea3d 8d29 d13d 898a 30bd 24b6 36be
000000d0: 17a8 43be 2438 c0bd 5dd9 a2bc a368 0fbe
000000e0: 1c12 96bd 0aa8 46bc 3b71 b13d 8307 fa3d
000000f0: 6802 163e 0486 163e 23d3 973d 9bb2 803d
00000100: eb5f 073e 0b44 423c 4d44 aa3d 296f 4bbd
00000110: 9fb1 1e3d 444b 3fbe e5dd 273e 3f56 1b3c
00000120: d064 f83d 97a3 903d b375 553e cd74 06be
00000130: 9f8c 903d 0e2c 0b3d cdc4 00bd 9503 fc3d
00000140: 5b77 0a3e da2e 03be 2b7d a73d 3c2c 39be
00000150: 03ff eb3d 624c 39be 6ca0 d5bd 09ad 57be
00000160: 556f 9ebc aa24 04bd 5594 7fbd 4123 023e
00000170: 0c37 b03d dc90 00be fa5a 34be 9c05 e3bd
00000180: f443 0dbe 4b2f 593e 7a18 d83c 19aa 483e
00000190: 9498 edbd 72e0 bbbd 75ab 45be 3daf 2bbe
000001a0: bf98 373e 135c fe3d 370e d13d 704f 8b3d
000001b0: 193f c73d 14d6 593e 712e a5bd 9f7f aa3d
000001c0: 2bd2 463e a892 14be 3cab eebb d938 4cbe
000001d0: 0d45 213e b72e e9bb b820 14be 8818 1d3e
000001e0: 0ee6 173e 7c20 043e c299 14bd 06d2 ea3c
000001f0: fea1 2d3d ac9d 293e 367b 353d 8e6d a4bd
0.033865932 0.00807975 -0.06304834 0.13948089 0.15293986 0.16571608 0.12816235 -0.17029797
0.15075868 -0.1863174 -0.1283867 0.05058168 -0.060604814 0.19001743 0.010317414 0.0417978
0.07973697 -0.04987119 -0.044872396 0.14463626 0.073688105 0.06460461 0.09109605 0.17810963
0.12512338 0.04716293 0.18260974 0.19283134 0.016747499 0.036891997 0.09815889 -0.10763529
0.17286138 -0.1338134 -0.1405849 0.14644822 -0.025306638 -0.07809433 -0.013527829 0.08421111
-0.008571815 0.20761359 0.058212753 0.06171187 -0.060185146 0.10184957 0.15256768 -0.05291691
0.11465516 0.10213003 -0.043100867 -0.17842919 -0.1910709 -0.09385708 -0.019879038 -0.1400476
-0.07327673 -0.012125025 0.08664175 0.12208464 0.14649355 0.1469956 0.07413318 0.06284066
0.13220184 0.011857043 0.083138086 -0.049666557 0.03874361 -0.18681055 0.1639324 0.009481012
0.121286035 0.07062452 0.2084568 -0.13130493 0.07058071 0.03397756 -0.031437684 0.12305371
0.13522093 -0.12810841 0.08178171 -0.1808328 0.11523249 -0.18095544 -0.10430989 -0.21062101
-0.019340197 -0.032261528 -0.06239732 0.12708761 0.08604249 -0.1255526 -0.1761283 -0.11085054
-0.13795453 0.21209447 0.026378859 0.19596137 -0.116013676 -0.09173669 -0.19303687 -0.16766067
0.17929362 0.124199055 0.102077894 0.06802261 0.09728832 0.2127307 -0.080654986 0.08325123
0.1941611 -0.1450907 -0.0072835963 -0.1994356 0.15748997 -0.0071161645 -0.14465606 0.15341389
0.14833853 0.12903017 -0.036279447 0.0286646 0.042390816 0.16564053 0.044306956 -0.080287084
