results/RedCells3Raycast/RedCellBehaviour/RedCellBehaviour-5760.onnx (onnx, 87296 bytes, 7 tensors)

network_body._body_endoder.seq_layers.0.weight f4 [128, 31]
-0.0620031 0.19613993 -0.059856288 0.14096251 0.16894451 -0.069272265 -0.19123644 -0.13909572
0.0017281595 -0.5031409 0.54966587 -0.036003634 -0.3064548 -0.061249934 -0.012404246 -0.24528769
0.0033503035 -0.21485937 0.05254646 0.08817589 -0.1226088 0.17722467 -0.021585453 -0.4209182
0.048912358 0.112956576 0.1310901 0.40031463 0.018783348 -0.2387732 0.005847397 -0.15454943
-0.15709612 0.16128416 0.08494886 -0.05332181 -0.053348653 -0.14111893 0.3884923 0.11403666
0.2999141 -0.23071185 -0.20741494 -0.04445873 0.4373125 -0.009429985 -0.20585945 -0.29613197
-0.0026966608 0.16663048 -0.15756626 -0.37868664 -0.11592727 0.022818035 0.09548128 -0.46245274
-0.052388422 -0.18058197 0.12636304 -0.03173082 0.09203481 -0.026183682 -0.25996777 0.1536081
0.3595069 0.20273612 -0.18719153 -0.00871322 0.1823923 -0.1724706 -0.104048006 0.26405063
0.10936211 -0.25128523 -0.056927055 -0.106826045 0.022919504 -0.04229324 0.14252432 -0.11758458
-0.19534422 0.3337713 -0.19206794 -0.18926263 0.31179374 0.22027312 -0.24986999 0.0111414585
-0.45830747 -0.30831623 0.004198433 -0.056213696 0.17187005 0.10333935 -0.111909345 -0.073355995
-0.27216345 -0.075967655 -0.055519156 0.13399756 -0.3004321 0.19409329 0.2552507 -0.8126606
0.16980426 0.24860142 0.41389367 -0.37094146 -0.42150235 0.17808436 -0.4129804 -0.0095031755
0.37004936 -0.20425212 0.001008433 -0.56047666 -0.3539104 -0.0343319 -0.185944 -0.22228697
-0.1881261 -0.36620796 -0.027185267 -0.021698741 0.39381233 0.10785452 -0.14270979 -0.12623906
0.1676113 0.025568977 0.12837814 -0.0797025 0.3003742 0.16921239 -0.50657856 0.15329164
0.06481356 -0.019059869 0.18419676 -0.008630534 0.26019952 0.10170664 0.21205102 -0.010397294
0.00025479405 0.04386125 -0.060741883 0.16473149 0.4034101 -0.34231716 -0.4218547 0.05624231
0.1447698 0.1021044 -0.13379078 -0.068311535 -0.041762196 -0.21017535 0.087866515 -0.38497832
0.10493457 0.28188246 -0.003675991 -0.14007975 0.000316945 -0.057598103 -0.3044206 -0.38767081
-0.5779841 0.0022923087 -0.025267448 -0.14917871 0.17396665 -0.12202831 -0.25512987 0.0019822419
-0.029559366 0.14855754 0.22018817 -0.066802785 0.38778865 -0.18741097 0.21324866 -0.07376891
0.10792253 -0.10952753 0.046502773 -0.36750776 0.06573687 0.31394726 0.38345042 -0.11477745
0.06824681 -0.0680214 0.09784223 -0.068676904 -0.2696742 -0.21807168 0.5145953 -0.042774796
-0.29217654 0.20224036 0.06769686 0.2721953 0.13527542 0.13484669 0.22931953 -0.10985254
-0.20415056 -0.29015 -0.401457 -0.34941518 -0.113867335 -0.09647834 0.0824914 -0.13377629
0.30218324 0.21117806 -0.030088939 -0.16548534 -0.11690812 -0.18942939 -0.08317325 -0.07898262
-0.28449816 -0.04434405 -0.4007537 -0.21953449 -0.25192514 -0.05794347 0.2025552 -0.28898218
0.03240983 -0.085525535 0.11143932 -0.116076216 0.16003199 -0.12851928 -0.2513148 0.16969778
-0.2682908 -0.043641128 -0.17499153 0.12429458 -0.30044743 0.13184422 0.13283606 -0.28571332
-0.37708315 -0.041477773 0.1148413 -0.109664336 -0.18772534 -0.17823844 -0.35669965 0.011268888
00000000: f6f6 7dbd e8d8 483e de2b 75bd 7a58 103e
00000010: caff 2c3e 9ede 8dbd 7cd3 43be 1c6f 0ebe
00000020: 6983 e23a d8cd 00bf e7b6 0c3f 8c78 13bd
00000030: a5e7 9cbe 36e1 7abd 2e3b 4bbc b22c 7bbe
00000040: c490 5b3b 1804 5cbe f53a 573d 9095 b43d
00000050: 531a fbbd 627a 353e fad3 b0bc 9782 d7be
00000060: 5358 483d c755 e73d 7c3c 063e 0af6 cc3e
00000070: 89df 993c f680 74be 859b bf3b 3542 1ebe
00000080: cedd 20be ad27 253e abf9 ad3d f867 5abd
00000090: 1e84 5abd 7b81 10be 76e8 c63e 0d8c e93d
000000a0: 578e 993e ba3f 6cbe 9564 54be 5b1a 36bd
000000b0: 6de7 df3e 3980 1abc d2cc 52be 9c9e 97be
000000c0: 76ba 30bb 2ea1 2a3e 0d59 21be 37e3 c1be
000000d0: 476b edbd e3ec ba3c b08b c33d 9bc6 ecbe
000000e0: 3e95 56bd 7bea 38be 5065 013e 2df8 01bd
000000f0: bf7c bc3d 297f d6bc 7f1a 85be 714b 1d3e
00000100: 4a11 b83e 0f9a 4f3e 23af 3fbe e5c1 0ebc
00000110: 0cc5 3a3e 229c 30be 1f17 d5bd a531 873e
00000120: 3ef9 df3d 75a8 80be 582c 69bd 9dc7 dabd
00000130: afc1 bb3c ad3b 2dbd e5f1 113e 2fd0 f0bd
00000140: 5108 48be 12e4 aa3e 75ad 44be 10ce 41be
00000150: 6ea3 9f3e 478f 613e ebdd 7fbe aa8a 363c
00000160: 47a7 eabe a0db 9dbe 0293 893b 5540 66bd
00000170: b4fe 2f3e 95a3 d33d ba30 e5bd ab3b 96bd
00000180: 0259 8bbe ee94 9bbd 0e68 63bd a836 093e
00000190: 3cd2 99be 64c0 463e 38b0 823e 860a 50bf
000001a0: 2be1 2d3e 5f91 7e3e dfe9 d33e 0aec bdbe
000001b0: 28cf d7be bf5b 363e 2b72 d3be 35b3 1bbc
000001c0: 1c77 bd3e 7827 51be 662d 843a 667b 0fbf
000001d0: be33 b5be 9b9f 0cbd 1b68 3ebe 329f 63be
000001e0: 21a4 40be 9c7f bbbe a3b3 debc 8fc1 b1bc
000001f0: c5a1 c93e d5e2 dc3d 8422 12be d044 01be
00000200: 4ca2 2b3e 0876 d13c 8f75 033e 103b a3bd
00000210: a6ca 993e 0346 2d3e 22af 01bf 7cf8 1c3e
00000220: f9bc 843d 7123 9cbc 139e 3c3e 1567 0dbc
00000230: df38 853e 924b d03d e723 593e 6959 2abc
00000240: e195 8539 dba7 333d 7bcc 78bd 5faf 283e
00000250: c58b ce3e 3244 afbe 57fd d7be 565e 663d
00000260: 893e 143e 1d1c d13d 7300 09be ebe6 8bbd
00000270: d60e 2bbd 3538 57be 5cf3 b33d e11b c5be
00000280: f0e7 d63d e652 903e e5e8 70bb 1171 0fbe
00000290: a32b a639 fdeb 6bbd 04dd 9bbe ca7c c6be
000002a0: c4f6 13bf 8f3a 163b aefd cebc 4ec2 18be
000002b0: 5024 323e fbe9 f9bd 62a0 82be 80e8 013b
000002c0: 7c26 f2bc 781f 183e 0279 613e e6cf 88bd
000002d0: 3c8c c63e a9e8 3fbe db5d 5a3e 2714 97bd
000002e0: 7d06 dd3d f84f e0bd b179 3e3d fa29 bcbe
000002f0: 0da1 863d b2bd a03e 9d53 c43e 7110 ebbd
00000300: fcc4 8b3d ce4e 8bbd 8261 c83d 7aa6 8cbd
00000310: bd12 8abe 2f4e 5fbe 85bc 033f a034 2fbd
00000320: 2a98 95be 1918 4f3e a7a4 8a3d 2f5d 8b3e
00000330: a485 0a3e 4015 0a3e bdd2 6a3e 5efa e0bd
00000340: d80c 51be 8a8e 94be c68b cdbe 8ce6 b2be
00000350: 4733 e9bd 7096 c5bd 40f1 a83d a7fc 08be
00000360: c3b7 9a3e 103f 583e 147d f6bc fd74 29be
00000370: 866d efbd c7f9 41be bd56 aabd a4c1 a1bd
00000380: bea9 91be 1ba2 35bd 972f cdbe a6cd 60be
00000390: 55fc 80be 2256 6dbd a16a 4f3e 79f5 93be
000003a0: 2bc0 043d 0328 afbd 4c3a e43d 5eb9 edbd
000003b0: 6ddf 233e 8f9a 03be 55ac 80be 41c5 2d3e
000003c0: 695d 89be 0ac1 32bd fb30 33be 288e fe3d
000003d0: 3fd4 99be 2c02 073e 2d06 083e 0449 92be
000003e0: 0b11 c1be 99e4 29bd ea31 eb3d b297 e0bd
000003f0: 123b 40be 2384 36be 56a1 b6be 24a1 383c

network_body._body_endoder.seq_layers.0.bias f4 [128]
0.016274566 -0.08339264 -0.018587647 0.030763764 0.05411264 0.034326386 0.017240899 -0.07309719
-0.047254 -0.072766334 -0.0005167635 -0.075182125 0.0031674488 0.013604834 0.012907597 -0.07717282
-0.00057052687 -0.016803887 -0.043897882 -0.027888479 0.031393383 -0.009320961 -0.027686613 -0.027274858
-0.05578548 -0.046379056 -0.010858633 -0.008422284 -0.07061802 -0.0036140382 -0.08449573 0.014034541
0.029400198 -0.051156584 -0.048999086 0.018728111 -0.041559648 -0.013146008 -0.010991259 0.011137953
0.02438284 -0.011879589 0.014500703 -0.028994072 0.0047694417 -0.061238267 -0.040062495 0.022850875
-0.05400647 -0.060683634 -0.10538619 0.00040682944 -0.06554553 0.040302206 -0.04980198 0.019183924
-0.02936161 0.0833918 0.0062901955 0.03567761 -0.04930919 -0.044821214 0.0053713317 0.034215916
-0.041753225 -0.018892497 -0.039361134 -0.058629774 -0.038120948 -0.011023489 0.04489643 -0.031089375
-0.04302911 -0.02806624 -0.0020820056 -0.04724364 0.00846884 -0.019651616 -0.044771507 -0.04739582
-0.019111566 -0.019789882 -0.036824033 0.034596074 -0.020105155 -0.043625023 0.00073639624 0.009297874
0.0051563224 -0.011284558 0.06876396 0.009186479 0.024344917 0.0066313725 -0.0034096218 -0.06195986
0.04459225 0.0030918168 0.008910114 -0.005916294 -0.0015187552 -0.009008938 -0.0091573205 -0.0954072
0.01162207 -0.1079673 -0.00020686028 -0.07038549 -0.034016024 -0.023560038 0.008550947 -0.008689163
-0.023670422 0.02934487 0.017262897 -0.057047278 -0.040149607 -0.03328169 -0.08763219 3.0576608e-05
-0.027994942 -0.11953411 -0.044562317 0.041456953 0.06795296 -0.05887064 0.09453247 0.029810747
00000000: 3d52 853c c3c9 aabd 1f45 98bc 4a04 fc3c
00000010: 37a5 5d3d d399 0c3d c93c 8d3c fbb3 95bd
00000020: 698d 41bd 8406 95bd 6977 07ba 16f9 99bd
00000030: f994 4f3b cfe6 5e3c 637a 533c c90c 9ebd
00000040: 698f 15ba 4ea8 89bc 44ce 33bd 6176 e4bc
00000050: 5996 003d f2b6 18bc 09cf e2bc 866f dfbc
00000060: 517f 64bd f7f7 3dbd 68e8 31bc 9ffd 09bc
00000070: 2ea0 90bd 80d9 6cbb 190c adbd 22f1 653c
00000080: afd8 f03c 9189 51bd 44b3 48bd b26b 993c
00000090: 733a 2abd 5b62 57bc ae14 34bc f67b 363c
000000a0: 86be c73c 9ca2 42bc 5b94 6d3c fa84 edbc
000000b0: fa48 9c3b fad4 7abd 9218 24bd c231 bb3c
000000c0: e335 5dbd 678f 78bd b7d4 d7bd b94b d539
000000d0: bc3c 86bd ed13 253d 29fd 4bbd 9b27 9d3c
000000e0: c287 f0bc 52c9 aa3d fc1d ce3b b022 123d
000000f0: 6ff8 49bd 7396 37bd ff01 b03b fd25 0c3d
00000100: 6e05 2bbd 70c4 9abc 2439 21bd c625 70bd
00000110: b624 1cbd dd9b 34bc 52e5 373d 25af febc
00000120: 4b3f 30bd 2ceb e5bc 4272 08bb 8c82 41bd
00000130: e4c0 0a3c 6dfc a0bc 5462 37bd 1f22 42bd
00000140: dc8f 9cbc 641e a2bc ccd4 16bd 9db4 0d3d
00000150: 91b3 a4bc 27b0 32bd b70a 413a 1c56 183c
00000160: 5ef6 a83b dee2 38bc 1ed4 8c3d e382 163c
00000170: fe6e c73c fc4b d93b f673 5fbb 9fc9 7dbd
00000180: 5da6 363d 14a0 4a3b bafb 113c 79dd c1bb
00000190: f810 c7ba 3a9a 13bc 9608 16bc da64 c3bd
000001a0: 7f6a 3e3c f61d ddbd a2e8 58b9 4526 90bd
000001b0: 6354 0bbd fb00 c1bc 4519 0c3c fe5c 0ebc
000001c0: 79e8 c1bc a764 f03c eb6a 8d3c 68aa 69bd
000001d0: ea73 24bd 6252 08bd 8178 b3bd 623f 0038
000001e0: a655 e5bc 4dce f4bd fa86 36bd c4ce 293d
000001f0: ec2a 8b3d 5722 71bd 3d9a c13d ab35 f43c

network_body._body_endoder.seq_layers.2.weight f4 [128, 128]
0.024066318 0.07616785 -0.07154357 0.0008138193 0.2229253 0.10718299 -0.11167363 0.06209901
-0.061778385 -0.08046481 -0.024884423 0.0033959022 0.027032088 -0.20695855 0.012378549 0.10338097
-0.11617065 -0.271661 0.020288356 -0.05824453 0.26885015 0.06887815 0.05060948 0.067360945
0.09737542 -0.06316551 0.11618373 0.019269213 -0.15159841 0.023180332 -0.01959685 -0.0780484
-0.01796082 0.12510929 -0.15406072 0.013984991 -0.1565303 0.031806458 0.09064087 0.14235026
0.058503285 -0.13377512 -0.090550885 -0.12367712 0.0029113556 0.090084925 0.21568121 -0.064345114
0.073827215 -0.019367553 -0.036323562 0.21543635 0.03227634 0.046848718 0.056511804 -0.016455486
-0.048879825 0.13540787 -0.15039143 -0.15447204 0.008712419 0.029812306 -0.15401626 0.103087045
-0.058415197 0.23033102 -0.12462251 0.22053877 0.0632942 0.092642255 0.026149718 -0.026957486
-0.16655597 -0.07563425 -0.1611859 -0.03196552 0.096033014 0.076585375 0.18737222 0.27088147
0.08623211 -0.17506167 0.024863295 -0.03992006 -0.0661042 0.11354474 -0.089324564 -0.10394491
-0.010484452 0.05320889 0.059391618 0.38280922 0.0908495 0.05624678 0.2894722 -0.014975448
0.107860796 -0.07010101 -0.17117757 -0.026758714 -0.026551062 -0.07610336 0.13192822 0.09507321
-0.23718603 0.003924231 0.05881236 0.13848795 0.092551656 -0.05351707 0.081571855 -0.014385475
0.052780025 0.0031063003 -0.04168589 0.029544158 0.06772737 0.063325115 -0.30112186 0.032795604
-0.06115333 0.100192346 0.21816121 0.015276418 -0.13963573 0.20026365 0.078214966 -0.07406373
-0.056753915 0.14138657 -0.09796574 0.19347432 0.00711236 0.1322765 -0.06336569 0.12652083
0.08900996 -0.19783734 -0.1374088 -0.025783697 0.13378564 0.09172466 -0.072427005 0.10832254
-0.02504881 0.16366981 -0.030710291 -0.026654448 0.1465149 -0.029395811 0.17399345 0.05319816
0.14547431 0.022692066 0.12060592 -0.1256047 0.017801618 0.021976488 -0.14943145 0.009045832
0.028478356 0.03894481 0.090669416 0.1540998 -0.12473241 -0.09918701 0.20352404 -0.16212866
0.0043300376 -0.03778141 0.027881347 -0.092622936 0.14655195 0.017821562 0.112519085 -0.06227359
0.0037658904 -0.00029498164 0.0067328033 0.15382904 0.118425466 0.041374154 0.13667458 0.1996206
0.026669271 -0.05346021 -0.23789753 0.06724018 0.019624868 0.0730874 -0.11239755 -0.22192429
0.11280616 -0.09911818 -0.089117356 0.16319682 0.14517014 -0.0894058 0.0053889123 0.16365656
-0.12811594 -0.12071869 0.03715083 -0.19099776 0.08082612 0.1052408 -0.016656782 0.021757547
-0.09816201 0.07710715 -0.029047728 0.11709405 -0.053209405 -0.20314798 0.07281417 -0.06756915
-0.10728133 -0.016615594 0.041370675 0.04638313 0.0346785 0.15310472 0.17835228 0.06174493
0.00011217873 0.14542358 -0.02477677 -0.065864995 0.110550426 0.026953392 0.24275988 -0.06443155
-0.14574337 -0.12952636 -0.012900417 0.05162536 -0.14703098 0.013103408 -0.08591079 0.07276308
0.10523614 -0.08634173 -0.118797295 -0.039252784 0.01607278 -0.11064888 -0.11950324 0.085259095
0.08734702 0.038793493 0.04369691 -0.06990611 0.008513652 -0.029322574 -0.05219315 -0.018131487
00000000: ba26 c53c e4fd 9b3d 6f85 92bd 7d56 553a
00000010: 8846 643e c182 db3d 25b5 e4bd 885b 7e3d
00000020: 550b 7dbd bcca a4bd 6bda cbbc c98d 5e3b
00000030: 6672 dd3c f1ec 53be 66cf 4a3c 67b9 d33d
00000040: e1ea edbd 2717 8bbe c433 a63c d191 6ebd
00000050: baa6 893e fd0f 8d3d e34b 4f3d 89f4 893d
00000060: c46c c73d eb5c 81bd bcf1 ed3d 78da 9d3c
00000070: 9d3c 1bbe aee4 bd3c 9389 a0bc d7d7 9fbd
00000080: 9222 93bc a61c 003e 18c2 1dbe 4e21 653c
00000090: 7b49 20be 7d47 023d eca1 b93d 44c4 113e
000000a0: 24a1 6f3d 58fc 08be be72 b9bd 6e4a fdbd
000000b0: 71cc 3e3b 727e b83d 89db 5c3e 5fc7 83bd
000000c0: b932 973d b4a8 9ebc 04c8 14bd 599b 5c3e
000000d0: 3234 043d 71e4 3f3d ec78 673d a8cd 86bc
000000e0: 3636 48bd 5ca8 0a3e 3600 1abe eb2d 1ebe
000000f0: 89be 0e3c f038 f43c 70b6 1dbe 4d1f d33d
00000100: c644 6fbd e5db 6b3e 163a ffbd ead4 613e
00000110: 64a0 813d 39bb bd3d ef37 d63c f2d5 dcbc
00000120: a68d 2abe 21e6 9abd eb0d 25be 47ee 02bd
00000130: f5ac c43d cbd8 9c3d 81de 3f3e fab0 8a3e
00000140: 769a b03d 5e43 33be 1cae cb3c 3883 23bd
00000150: a461 87bd 258a e83d ccef b6bd 12e1 d4bd
00000160: fbc6 2bbc 91f1 593d a044 733d 92ff c33e
00000170: 4d0f ba3d 0663 663d b335 943e 955b 75bc
00000180: 1fe6 dc3d 1e91 8fbd 2c49 2fbe 1735 dbbc
00000190: 9d81 d9bc 14dc 9bbd 3118 073e beb5 c23d
000001a0: e5e0 72be d696 803b 3be5 703d c9cf 0d3e
000001b0: b98b bd3d b734 5bbd 250f a73d 0eb1 6bbc
000001c0: de2f 583d 1293 4b3b d3be 2abd 9706 f23c
000001d0: a6b4 8a3d 99b0 813d a52c 9abe af54 063d
000001e0: ea7b 7abd a531 cd3d a765 5f3e f149 7a3c
000001f0: abfc 0ebe ea11 4d3e 2b2f a03d baae 97bd
00000200: cb76 68bd a4c7 103e 43a2 c8bd 221e 463e
00000210: cd0e e93b 7e73 073e dfc5 81bd ad8e 013e
00000220: db4a b63d df95 4abe e4b4 0cbe 5538 d3bc
00000230: 1aff 083e 23da bb3d 9c54 94bd 35d8 dd3d
00000240: 2933 cdbc 0f99 273e 2694 fbbc 6e5a dabc
00000250: 0008 163e 7ccf f0bc 572b 323e 50e6 593d
00000260: 38f7 143e b6e4 b93c 3d00 f73d 859e 00be
00000270: b3d4 913c 0908 b43c 8f04 19be f834 143c
00000280: 714b e93c 9884 1f3d e3b0 b93d 57cc 1d3e
00000290: b573 ffbd 8f22 cbbd 9b68 503e 0e05 26be
000002a0: fde2 8d3b aec0 1abd 6c67 e43c 18b1 bdbd
000002b0: b711 163e 86fe 913c 6870 e63d 9812 7fbd
000002c0: 28cd 763b c4a7 9ab9 d99e dc3b 5c85 1d3e
000002d0: 0d89 f23d f277 293d 6cf4 0b3e 5869 4c3e
000002e0: 8479 da3c 18f9 5abd 699b 73be 38b5 893d
000002f0: 55c4 a03c d9ae 953d b030 e6bd 1f40 63be
00000300: ea06 e73d 79fe cabd 2983 b6bd 111d 273e
00000310: 7ba7 143e 631a b7bd 7995 b03b 9695 273e
00000320: d330 03be 5c3b f7bd 782b 183d eb94 43be
00000330: 2a88 a53d 7d88 d73d ce73 88bc e23c b23c
00000340: 2a09 c9bd 5aea 9d3d 80f5 edbc 01cf ef3d
00000350: 1bf2 59bd 0606 50be 981f 953d b261 8abd
00000360: 50b6 dbbd 6d1d 88bc 4c74 293d 3dfc 3d3d
00000370: 0b0b 0e3d 7cc7 1c3e fba1 363e 40e8 7c3d
00000380: 7f41 eb38 ebe9 143e a7f8 cabc 3ae4 86bd
00000390: 4368 e23d 5ccd dc3c 0c96 783e b0f4 83bd
000003a0: c03d 15be 8fa2 04be 455c 53bc 1d75 533d
000003b0: 4a8f 16be adaf 563c fff1 afbd cf04 953d
000003c0: 0c86 d73d efd3 b0bd ff4b f3bd 87c7 20bd
000003d0: 10ab 833c e19b e2bd 1dbe f4bd 529c ae3d
000003e0: ffe2 b23d ede5 1e3d 88fb 323d ef2a 8fbd
000003f0: d87c 0b3c e535 f0bc 7cc8 55bd 7c88 94bc

network_body._body_endoder.seq_layers.2.bias f4 [128]
-0.016218731 -0.03290675 -0.04791982 0.013352447 -0.015136361 -0.005864825 -0.06058965 -0.053466678
-0.017966615 -0.018144349 0.02474109 -0.012367493 -0.026525283 -0.028179012 -0.06727804 -0.013191805
-0.034977563 -0.06515391 0.029733686 -0.08356991 -0.044555154 -0.0673249 -0.019600868 -0.014603518
-0.06891918 -0.028794104 -0.043583587 -0.0019475594 -0.023017198 -0.028379072 -0.09395577 0.01067649
-0.0014648 -0.0033243445 -0.04946242 -0.048710093 -0.006839005 0.061053284 -0.027642068 -0.054968182
-0.0589979 -0.07448677 -0.0067155054 -0.0040217033 -0.03984669 -0.06551861 -0.02326663 0.03560586
-0.0021857338 -0.010175032 0.014951841 -0.006021009 -0.08220751 0.014329437 -0.13485977 -0.14119588
-0.06356128 -0.0431804 -0.05260548 -0.05732489 -0.020579176 -0.034814093 0.015210265 -0.053622663
0.004422738 0.03921101 -0.03711773 0.004846637 -0.017160183 -0.097878374 -0.003540531 -0.10296466
-0.017666765 -0.052793045 -0.038783215 -0.056293927 -0.025167186 -0.011876708 -0.051427092 -0.01044474
-0.026359351 -0.032566525 -0.05216514 -0.020547137 0.031061478 -0.03976218 -0.050756257 -0.033416398
-0.081471354 0.037619956 -0.014550741 0.0006275247 0.0050255577 -0.040672332 -0.042846836 -0.049454253
-0.0053566084 0.013003945 -0.013389192 -0.062495515 -0.036897402 -0.086577415 -0.012687728 -0.026982274
0.0083096335 -0.08725444 0.005511102 -0.038735975 -0.00856696 -0.060571775 -0.014237025 -0.04695965
-0.033831235 -0.05080599 -0.03796665 -0.02202248 -0.022860205 -0.041723974 -0.034757674 0.013563892
0.00047768917 -0.06972938 -0.044858225 -0.036451377 -0.08636525 0.013300387 -0.0759055 -0.008707848
00000000: 25dd 84bc 3ac9 06bd 9347 44bd 39c4 5a3c
00000010: 80fe 77bc b82d c0bb da2c 78bd e0ff 5abd
00000020: b92e 93bc 75a3 94bc d4ad ca3c 06a1 4abc
00000030: 8d4b d9bc acd7 e6bc 12c9 89bd 7122 58bc
00000040: a244 0fbd 6a6f 85bd 0f94 f33c b326 abbd
00000050: 777f 36bd a3e1 89bd 0092 a0bc 9843 6fbc
00000060: 8025 8dbd 9de1 ebbc b484 32bd 4045 ffba
00000070: 908e bcbc 3a7b e8bc e26b c0bd 72ec 2e3c
00000080: 88fe bfba 3fdd 59bb 1b99 4abd 3c84 47bd
00000090: bb19 e0bb 0213 7a3d 9e71 e2bc 5126 61bd
000000a0: c8a7 71bd 858c 98bd be0d dcbb 7ec8 83bb
000000b0: 4836 23bd 9f2e 86bd a999 bebc 73d7 113d
000000c0: 873e 0fbb 2db5 26bc 91f8 743c e24b c5bb
000000d0: 695c a8bd 04c6 6a3c ae18 0abe a795 10be
000000e0: 6b2c 82bd eedd 30bd d878 57bd 81cd 6abd
000000f0: a995 a8bc 3999 0ebd 7a34 793c 70a3 5bbd
00000100: 9eec 903b b99b 203d c308 18bd 8ad0 9e3b
00000110: 8393 8cbc 7574 c8bd 4108 68bb 23df d2bd
00000120: e4b9 90bc 853d 58bd 26db 1ebd 7694 66bd
00000130: 6a2b cebc 8696 42bc 37a5 52bd 6a20 2bbc
00000140: 91ef d7bc 7a64 05bd 1dab 55bd 7852 a8bc
00000150: a474 fe3c abdd 22bd cbe5 4fbd a2df 08bd
00000160: 74da a6bd 6217 1a3d 3b66 6ebc 7880 243a
00000170: 6fad a43b 0898 26bd 2a80 2fbd 8b90 4abd
00000180: 7d86 afbb 800e 553c 575e 5bbc 4cfb 7fbd
00000190: bb21 17bd 804f b1bd 30e0 4fbc ee09 ddbc
000001a0: 2125 083c 75b2 b2bd 7996 b43b 9da9 1ebd
000001b0: 6f5c 0cbc 1c1a 78bd 6942 69bc c358 40bd
000001c0: 9f92 0abd f119 50bd eb82 1bbd 7d68 b4bc
000001d0: 5345 bbbc c2e6 2abd 105e 0ebd 163b 5e3c
000001e0: 5b72 fa39 47ce 8ebd 42bd 37bd 0a4e 15bd
000001f0: 44e0 b0bd dee9 593c 5874 9bbd 5dab 0ebc

action_model._continuous_distribution.log_sigma f4 [1, 4]
-0.37419784 -0.4276196 -0.39482328 -0.40475553
00000000: dc96 bfbe f5f0 dabe 4726 cabe 1e3c cfbe

action_model._continuous_distribution.mu.weight f4 [4, 128]
0.116968535 0.05782681 -0.012315756 -0.051946126 0.05133199 0.02306384 -0.028599905 0.05226587
0.031213347 0.02381658 0.03683212 -0.03417285 0.044968 0.10042182 -0.024314405 0.043750282
0.049457204 -0.020393299 0.03414992 0.025756465 -0.05094709 0.048689272 0.04436622 -0.04148273
0.024377303 0.033943508 -0.012645571 -0.02575381 -0.040611345 0.025410878 0.025509655 0.039664447
0.07160251 -0.035028454 -0.015810309 -0.006020282 0.02362047 -0.05355247 0.015419761 0.028466955
-0.06197837 -0.012943025 0.031983986 0.09282794 0.06263324 0.048064936 -0.024707736 0.0656133
-0.063410394 0.025932357 0.0645359 -0.06244188 0.008245749 -0.08305188 0.0045860484 0.04073234
-0.020115823 0.005581553 0.057789337 0.024653018 0.07633958 -0.001895995 0.10530912 0.0004961549
0.014166277 0.06751089 -0.004380886 -0.08877647 0.057769775 -0.00940219 0.08926878 0.0056624096
0.063806295 -0.02627539 0.015294961 -0.05648446 -0.032752268 0.07354162 0.06057468 0.082470715
-0.0034180807 0.090879895 0.0022829166 0.012449002 0.06522971 -0.018838134 -0.077073626 -0.020433577
0.030425362 0.07869571 -0.053768788 0.084576875 0.051614814 0.049153585 0.0045125447 0.017610524
0.06295459 -0.03425177 0.007717197 -0.012604995 0.05977077 -0.00061842153 0.063941315 0.009612197
-0.02701799 0.037530765 0.005116913 0.07013877 -0.014752592 0.055572804 0.05480269 0.022719307
-0.014564123 0.031298976 0.025806239 0.017910851 0.006174086 0.016053492 0.04421002 -0.0003379546
-0.06720069 0.07100233 -0.044104084 0.0057659475 -0.0013393046 -0.07847641 -0.005517111 0.07446614
0.004700508 -0.023608418 0.024904242 -0.068135336 0.05592993 0.003132003 0.06345559 0.08059665
0.007815618 0.030597115 0.06202283 -0.053001326 0.028547637 -0.047707845 -0.026711445 -0.026138512
-0.01016279 -0.052232776 -0.0072879023 -0.01030981 -0.0708552 0.035628617 0.01735103 -0.054518294
0.022468902 -0.03491114 0.024645953 -0.020671412 -0.06979971 0.043008626 -0.023555871 0.0044120466
0.048170775 0.026051592 -0.029489508 -0.012240887 -0.004129337 -0.027988859 0.004747279 0.018357774
0.02314729 0.012282553 0.0063604307 0.0076241163 0.08147685 0.043150693 -0.008675768 0.012865207
-0.04756614 -0.02078222 -0.010658045 -0.0055117644 0.015546521 -0.039903298 0.017923417 -0.028900996
0.033529673 -0.02117954 -0.028026927 0.052241612 0.06678152 0.026024057 0.017956752 -0.021597361
0.02772054 0.038313955 0.022937944 0.007786901 0.039074033 0.002202871 0.033286814 -0.015792377
-0.0375042 0.03304133 -0.021087252 -0.032929797 -0.0493448 0.0050552315 0.0032473449 0.057560112
0.04452492 -0.059451837 0.05121881 -0.03238642 0.010215662 -0.025824636 0.0301079 -0.024997955
-0.02210097 0.02949722 -0.0036424098 -0.0068930807 0.026424894 0.021916253 0.016222775 -0.034772687
0.015181465 0.02575791 0.027670255 0.016282437 -0.0045869355 -0.033960268 0.05841415 0.02699023
-0.090691954 0.027838107 0.046436552 0.018717712 -0.07723515 -0.0023767438 0.012054082 -0.035232417
-0.031126104 0.02991138 0.043612007 0.041181132 0.021022122 0.029904895 0.017995097 -0.009691954
0.043209337 -0.025559537 -0.024271645 0.026335528 0.0012973126 -0.059965525 -0.026271656 -0.03159455
00000000: 338d ef3d cedb 6c3d 06c8 49bc 76c5 54bd
00000010: 7e41 523d 61f0 bc3c 594a eabc bd14 563d
00000020: 22b3 ff3c fd1a c33c 47dd 163d d5f8 0bbd
00000030: 5e30 383d f5a9 cd3d 012f c7bc 7f33 333d
00000040: a393 4a3d d90f a7bc c9e0 0b3d 39ff d23c
00000050: e5ad 50bd 676e 473d 5ab9 353d cce9 29bd
00000060: e9b2 c73c 5908 0b3d 5e2f 4fbc a7f9 d2bc
00000070: 1558 26bd 792a d03c a0f9 d03c 3077 223d
00000080: 56a4 923d ff79 0fbd 9f84 81bc c945 c5bb
00000090: b77f c13c d659 5bbd 2aa3 7c3c 8833 e93c
000000a0: 08dd 7dbd fb0e 54bc a401 033d 931c be3d
000000b0: db45 803d bddf 443d e167 cabc 4460 863d
000000c0: 4fdd 81bd 1870 d43c 662b 843d 0fc3 7fbd
000000d0: 2e19 073c 1b17 aabd 9046 963b f4d6 263d
000000e0: f0c9 a4bc 76e5 b63b 83b4 6c3d 20f5 c93c
000000f0: ed57 9c3d 0983 f8ba 4fac d73d 6410 023a
00000100: ac19 683c 2643 8a3d 898d 8fbb 70d0 b5bd
00000110: 00a0 6c3d a50b 1abc 8dd2 b63d bc8b b93b
00000120: e0ac 823d 7d3f d7bc b797 7a3c 405c 67bd
00000130: 3e27 06bd fd9c 963d 281d 783d 68e6 a83d
00000140: e101 60bb 3d1f ba3d fc9c 153b e6f6 4b3c
00000150: 2797 853d 6e52 9abc c7d8 9dbd 5164 a7bc
00000160: 9c3e f93c 372b a13d a93c 5cbd a436 ad3d
00000170: 0e6a 533d 4555 493d f8dd 933b f243 903c
00000180: 56ee 803d 954b 0cbd 8ae0 fc3b 2e85 4ebc
00000190: 32d2 743d 911d 22ba aaf3 823d 7a7c 1d3c
000001a0: d554 ddbc dcb9 193d c7ab a73b eaa4 8f3d
000001b0: dbb4 71bc 4fa0 633d c978 603d d71d ba3c
000001c0: 5c9e 6ebc 5b33 003d 9b67 d33c c7b9 923c
000001d0: fd4f ca3b 9d82 833c 9115 353d 802f b1b9
000001e0: 84a0 89bd ab69 913d 7ca6 34bd 46f0 bc3b
000001f0: 9b8b afba 3db8 a0bd e2c8 b4bb b481 983d
00000200: b806 9a3b 7166 c1bc fb03 cc3c 8a8a 8bbd
00000210: c816 653d 4a42 4d3b 01f5 813d db0f a53d
00000220: 140d 003c cda6 fa3c a70b 7e3d eb17 59bd
00000230: bcdc e93c 4d69 43bd f6d1 dabc 6f20 d6bc
00000240: d581 26bc 09f2 55bd 5bcf eebb 7aea 28bc
00000250: 881c 91bd 50ef 113d bf23 8e3c 934e 5fbd
00000260: b410 b83c fcfe 0ebd 4fe6 c93c 1857 a9bc
00000270: 26f3 8ebd d029 303d 3ef8 c0bc ee92 903b
00000280: b84e 453d 266a d53c fb93 f1bc 008e 48bc
00000290: 644f 87bb e448 e5bc 108f 9b3b 0b63 963c
000002a0: 639f bd3c c33c 493c 296b d03b b9d3 f93b
000002b0: 56dd a63d c8be 303d cf24 0ebc 97c8 523c
000002c0: b6d4 42bd 793f aabc 159f 2ebc 089c b4bb
000002d0: d6b6 7e3c a471 23bd 21d4 923c c8c1 ecbc
000002e0: 6956 093d b780 adbc ba98 e5bc 4dfb 553d
000002f0: c0c4 883d 6730 d53c 0a1a 933c f3ec b0bc
00000300: 3016 e33c 18ef 1c3d 5be8 bb3c 4329 ff3b
00000310: 180c 203d 0b5e 103b c157 083d 045f 81bc
00000320: 019e 19bd 5856 073d 2cbf acbc 65e1 06bd
00000330: c61d 4abd 5ba6 a53b 68d1 543b 27c4 6b3d
00000340: c35f 363d c583 73bd d1ca 513d 9fa7 04bd
00000350: 985f 273c 308e d3bc d8a4 f63c 83c8 ccbc
00000360: 180d b5bc 27a4 f13c 7fb5 6ebb 5adf e1bb
00000370: 0579 d83c b789 b33c a0e5 843c ce6d 0ebd
00000380: aebb 783c 4102 d33c bbac e23c bf62 853c
00000390: 014e 96bb ec19 0bbd ad43 6f3d 9d1a dd3c
000003a0: b4bc b9bd be0c e43c 4134 3e3d e355 993c
000003b0: 762d 9ebd 25c3 1bbb 7c7e 453c de4f 10bd
000003c0: 2cfc febc b608 f53c 81a2 323d 8cad 283d
000003d0: 9636 ac3c 1cfb f43c 746a 933c 00cb 1ebc
000003e0: 46fc 303d 3c62 d1bc 54d5 c6bc 9bbd d73c
000003f0: 960a aa3a 699e 75bd a837 d7bc 4969 01bd

action_model._continuous_distribution.mu.bias f4 [4]
0.012823479 0.00530343 0.030653605 -0.0016563303
00000000: 9219 523c 65c8 ad3b 451d fb3c 3919 d9ba
