results/RedCells3RaycastP2/RedCell3Raycast.onnx (onnx, 79104 bytes, 7 tensors)

network_body._body_endoder.seq_layers.0.weight f4 [128, 15]
0.516379 0.08767414 -0.24088334 -0.014441247 0.10666296 0.4356398 0.10129068 0.17807078
0.09510728 -0.29010406 -0.16749844 -0.18713579 0.11364922 -0.035989262 -0.20286578 0.09928145
-0.17828567 0.52898353 -0.29276246 0.006008832 -0.037875846 -0.33317778 0.37898374 -0.35653654
0.37640175 -0.53294927 -0.04980014 -0.004255197 0.24240029 -0.008375234 0.10426813 0.24773732
0.08253981 0.12679707 -0.05909085 0.105038434 -0.33597952 -0.15051201 0.39806566 0.32946768
-0.50874877 -0.22080787 0.115635216 0.10452343 -0.56637836 0.08673319 0.22161707 -0.26507935
-0.014603043 -0.004195404 0.37587342 -0.12899102 0.16732888 0.32857642 0.4798239 -0.23972963
0.08885491 0.053826336 -0.037657466 -0.05666169 0.2329443 -0.06393025 -0.15897092 -0.03465501
0.05751385 -0.2902757 0.38837254 0.0909622 -0.043168306 -0.48893753 0.10581802 -0.006603641
0.1397518 0.38289434 -0.07821539 -0.23319966 0.12141703 -0.10113194 0.1718951 -0.11526929
-0.03853635 0.09449945 -0.07970245 -0.25843236 -0.58542484 0.27400714 0.19723547 0.032971743
-0.72653973 0.088781334 0.4238965 -0.5981608 0.10307353 0.011466488 1.0297903 0.58578295
-0.3112566 -0.34059513 0.3453689 -0.34697583 -0.22832485 0.12574121 -0.44389233 -0.01369293
0.21291587 0.29186398 0.23301245 -0.14009976 0.33652505 -0.22728261 -0.09315731 -0.29988366
-0.2501965 0.3926216 -0.38280842 0.67226326 0.41138917 -0.02641722 0.29422966 0.1420591
-0.90358704 0.5959635 0.09809285 -0.35692707 -0.21701722 0.052649584 0.101058275 0.12810707
-0.24515826 -0.11602621 0.083002895 0.010341078 -0.043840367 0.27064273 0.40587637 -0.11411453
0.2821761 -0.6988622 -0.040379677 -0.026375895 -0.10490719 0.0021457693 0.17320682 0.16275585
-0.026944235 -0.4673387 0.2361207 -0.28310555 0.1340815 -0.01707791 0.075428806 0.41332063
0.13165247 0.049893778 0.31123152 0.36765963 -0.794455 0.30099848 -0.38953945 -0.53450334
-0.062145326 -0.38813394 0.008513196 -0.1875982 -0.25933748 0.11690231 -0.09964067 0.41564897
0.3860012 0.2274459 -0.48521808 -0.011731677 0.12309738 -0.20811844 -0.6131625 0.015361995
0.17637676 -0.29113823 0.19931883 -0.43668813 -0.040601425 0.14085452 -0.49726537 -0.18529755
-0.013267318 -0.17123552 0.26153207 -0.115974866 -0.41210285 0.268396 0.2610926 -0.21113203
0.1260717 0.28800082 0.120694935 0.14452392 -0.64706165 0.14072452 0.18149802 -0.16088088
0.6624124 0.046668656 -0.24168766 -0.37220332 0.04157001 -0.20159863 -0.40152362 0.022122944
0.037775494 0.3830718 0.12168413 -0.11604758 -0.25955382 0.2829405 -0.0936924 -0.23959541
0.3676435 -0.14393657 -0.07465753 0.05279357 -0.059925146 -0.23776458 -0.4050386 -0.12550785
-0.13004826 0.19316307 -0.40688816 -0.30958685 -0.11346525 0.12902339 -0.071807556 0.074467674
0.17237116 -0.36702904 0.31008673 0.2517783 0.13026418 -0.019458622 0.2518546 -0.17378742
-0.019472463 -0.42604753 -0.11271087 0.28497875 -0.023343265 -0.62976104 -0.06683485 0.20770545
-0.31312117 0.25805622 -0.09417969 -0.15860647 0.059376072 0.02829553 0.11160577 -0.40501705
00000000: 6a31 043f 808e b33d 1faa 76be fb9a 6cbc
00000010: 1c72 da3d 2e0c df3e 7d71 cf3d 3058 363e
00000020: 9bc7 c23d 8588 94be b684 2bbe 86a0 3fbe
00000030: ecc0 e83d 7a69 13bd 0cbc 4fbe 1354 cb3d
00000040: 8590 36be 776b 073f f6e4 95be bce5 c43b
00000050: b423 1bbd 4796 aabe 280a c23e f58b b6be
00000060: bbb7 c03e 5d6f 08bf 3bfb 4bbd 2e6f 8bbb
00000070: c837 783e 4738 09bc 888a d53d daae 7d3e
00000080: a20a a93d 17d7 013e 3f09 72bd 641e d73d
00000090: 8205 acbe d21f 1abe 43cf cb3e fdaf a83e
000000a0: 5c3d 02bf 751b 62be 28d2 ec3d 6110 d63d
000000b0: 2cfe 10bf 2ca1 b13d 96ef 623e 7bb8 87be
000000c0: 9a41 6fbc 9979 89bb 7b72 c03e 3916 04be
000000d0: 4358 2b3e 2b3b a83e 7aab f53e af7b 75be
000000e0: 90f9 b53d 0179 5c3d b73e 1abd 1716 68bd
000000f0: f388 6e3e dded 82bd 46c9 22be 69f2 0dbd
00000100: a593 6b3d 049f 94be c4d8 c63e 644a ba3d
00000110: 40d1 30bd 0556 fabe 1eb7 d83d 5b63 d8bb
00000120: 191b 0f3e ba0a c43e 642f a0bd e4cb 6ebe
00000130: 7ea9 f83d 431e cfbd 4505 303e 4e12 ecbd
00000140: 4bd8 1dbd ed88 c13d 0a3b a3bd 3f51 84be
00000150: 67de 15bf aa4a 8c3e 18f8 493e 610d 073d
00000160: 82fe 39bf fdd2 b53d f608 d93e 1121 19bf
00000170: 3718 d33d f0dd 3b3c 2bd0 833f dff5 153f
00000180: 065d 9fbe 7c62 aebe 31d4 b03e d1a6 b1be
00000190: fdcd 69be 4ec2 003e db45 e3be 5058 60bc
000001a0: 9e06 5a3e 326f 953e d19a 6e3e 5076 0fbe
000001b0: 034d ac3e c6bc 68be 42c9 bebd 5a8a 99be
000001c0: c119 80be b305 c93e 77ff c3be 7219 2c3f
000001d0: 9aa1 d23e ed68 d8bc 45a5 963e f177 113e
000001e0: 7b51 67bf 1091 183f e7e4 c83d 25bf b6be
000001f0: c339 5ebe 17a7 573d a4f7 ce3d 802e 033e
00000200: c40a 7bbe 269f edbd 6cfd a93d a06d 293c
00000210: f591 33bd af91 8a3e 07cf cf3e e1b4 e9bd
00000220: 6379 903e a2e8 32bf 2965 25bd 4312 d8bc
00000230: 95d9 d6bd 09a0 0c3b 215d 313e 78a9 263e
00000240: 28ba dcbc 0547 efbe a0c9 713e 36f3 90be
00000250: a94c 093e f9e6 8bbc 6b7a 9a3d c39e d33e
00000260: e8cf 063e 6b5d 4c3d bd59 9f3e e23d bc3e
00000270: 6761 4bbf 791c 9a3e b771 c7be 36d5 08bf
00000280: 198c 7ebd 7eb9 c6be ef7a 0b3c be19 40be
00000290: e2c7 84be 7a6a ef3d 6810 ccbd f1cf d43e
000002a0: f3a1 c53e 94e7 683e 816e f8be 3836 40bc
000002b0: 7b1a fc3d 001d 55be 38f8 1cbf e1b0 7b3c
000002c0: 1c9c 343e 1210 95be 3c1a 4c3e 9695 dfbe
000002d0: ae4d 26bd 2b3c 103e 9199 febe a4be 3dbe
000002e0: 2a5f 59bc 5d58 2fbe 88e7 853e 3b84 edbd
000002f0: 25ff d2be 336b 893e eead 853e ff32 58be
00000300: f118 013e d874 933e e82e f73d 14fe 133e
00000310: d5a5 25bf 171a 103e 9eda 393e f5bd 24be
00000320: dc93 293f a227 3f3d f87c 77be 6f91 bebe
00000330: 5145 2a3d df6f 4ebe 8194 cdbe 2d3b b53c
00000340: 7aba 1a3d fd21 c43e 8735 f93d 5baa edbd
00000350: 3de4 84be 94dd 903e cde1 bfbd 8058 75be
00000360: c53b bc3e 1c64 13be 0ce6 98bd 123e 583d
00000370: 1274 75bd 8f78 73be 3861 cfbe 2185 00be
00000380: 5f2b 05be 8acc 453e a553 d0be 2b82 9ebe
00000390: 7860 e8bd b51e 043e d70f 93bd 8282 983d
000003a0: 1182 303e 3beb bbbe b0c3 9e3e 16e9 803e
000003b0: f963 053e b067 9fbc 16f3 803e 54f5 31be
000003c0: b784 9fbc e722 dabe f5d4 e6bd bce8 913e
000003d0: 603a bfbc 0538 21bf b6e0 88bd bdb0 543e
000003e0: 6b51 a0be f21f 843e 48e1 c0bd bc69 22be
000003f0: 5334 733d 07cc e73c 9191 e43d 655e cfbe

network_body._body_endoder.seq_layers.0.bias f4 [128]
-0.009775569 -0.030311413 0.0039318325 0.057729296 -0.17117587 -0.044166952 -0.02721344 -0.017887142
-0.08034109 -0.01626421 0.044896238 -0.043544725 -0.10450155 0.02116572 -0.03695173 -0.06313903
0.013429881 -0.024943765 -0.11405335 -0.09261639 -0.10950472 -0.15416977 -0.12390681 -0.06677235
-0.10581101 -0.042839184 -0.0106141195 -0.038418744 0.014023478 0.047588285 -0.09040119 -0.019703431
-0.1468906 0.004655789 0.046091266 0.019518457 -0.03373799 0.11957276 0.02353497 -0.02610472
-0.022371707 -0.042643726 -0.112571284 -0.0928656 -0.038126044 -0.024769854 -0.019250205 -0.052893776
0.07333858 0.001062671 0.041190136 0.022941105 -0.031973265 -0.020252211 0.049259085 -0.061249837
-0.028156796 -0.13393599 0.07774056 0.011780585 0.035495397 -0.084426716 -0.017320829 -0.016965926
0.08922317 -0.13403846 -0.072810605 -0.023604574 -0.052286543 0.05403216 -0.06425444 -0.074468695
0.043425668 0.04136733 -0.050294388 0.046359986 -0.0049773906 -0.0068001375 -0.09722774 -0.027718194
-0.03699385 -0.0932196 -0.06883398 -0.0603337 -0.013936689 0.054381296 0.06489163 -0.12190602
-0.024297416 0.023873914 -0.0345467 -0.03776015 -0.08091888 -0.048381884 -0.08593664 -0.056091372
0.06256055 -0.057082374 -0.07342462 0.02471435 -0.070892476 0.048386514 -0.033484627 0.009281202
0.08687989 0.063378505 -0.09271124 -0.09705383 -0.100460865 -0.09805646 0.014297627 0.01143124
0.017190048 -0.11863824 0.0028292052 0.0153316045 -0.08325755 -0.046858635 -0.08813994 -0.06262838
-0.08275771 -0.009647916 -0.03861419 0.055053096 -0.031555858 -0.031442847 -0.07557592 0.01945185
00000000: b529 20bc a44f f8bc 9ad6 803b 8e75 6c3d
00000010: ba48 2fbe 68e8 34bd b8ee debc 0e88 92bc
00000020: df89 a4bd 853c 85bc 1ee5 373d f45b 32bd
00000030: e904 d6bd bb63 ad3c b25a 17bd 094f 81bd
00000040: 0109 5c3c de56 ccbc ce94 e9bd a9ad bdbd
00000050: 0344 e0bd aede 1dbe dbc2 fdbd f1bf 88bd
00000060: 71b3 d8bd 2478 2fbd d8e6 2dbc f95c 1dbd
00000070: bbc2 653c efeb 423d 4224 b9bd 1769 a1bc
00000080: 7d6a 16be 978f 983b 32ca 3c3d 2ce5 9f3c
00000090: d930 0abd 90e2 f43d 69cc c03c 91d9 d5bc
000000a0: df44 b7bc 30ab 2ebd c68b e6bd 5230 bebd
000000b0: 0e2a 1cbd 26ea cabc 9bb2 9dbc 25a7 58bd
000000c0: 8a32 963d 5249 8b3a fdb6 283d fcee bb3c
000000d0: 66f6 02bd f7e7 a5bc e5c3 493d 1ce1 7abd
000000e0: 15a9 e6bc 8426 09be 7136 9f3d 5b03 413c
000000f0: 9f63 113d eae7 acbd 69e4 8dbc 20fc 8abc
00000100: a3ba b63d 6141 09be ba1d 95bd 615e c1bc
00000110: 6a2a 56bd d450 5d3d d597 83bd 0b83 98bd
00000120: 1ddf 313d ca70 293d 7d01 4ebd f8e3 3d3d
00000130: 6119 a3bb b0d3 debb 561f c7bd 4411 e3bc
00000140: dd86 17bd ebe9 bebd d4f8 8cbd 7820 77bd
00000150: b656 64bc ecbe 5e3d e7e5 843d dda9 f9bd
00000160: 600b c7bc 3a93 c33c d780 0dbd 63aa 1abd
00000170: ccb8 a5bd 152c 46bd 8dff afbd 11c0 65bd
00000180: bf1f 803d 35cf 69bd a65f 96bd c075 ca3c
00000190: 1330 91bd f030 463d 2d27 09bd 2f10 183c
000001a0: 15ee b13d 97cc 813d 64df bdbd 29c4 c6bd
000001b0: 6dbe cdbd d3d1 c8bd 9840 6a3c 184a 3b3c
000001c0: 25d2 8c3c 9bf8 f2bd 306a 393b 6931 7b3c
000001d0: ef82 aabd d7ee 3fbd b682 b4bd 4f43 80bd
000001e0: e07c a9bd 4b12 1ebc ea29 1ebd 5b7f 613d
000001f0: b740 01bd 37ca 00bd 8cc7 9abd 7c59 9f3c

network_body._body_endoder.seq_layers.2.weight f4 [128, 128]
-0.070967846 -0.05259069 -0.2032751 -0.19488686 -0.020092247 -0.019572865 -0.13096376 -0.114123024
-0.050239585 -0.10790652 -0.05554538 -0.05122018 0.040829584 -0.09765882 -0.012881152 0.009429073
0.11834726 -0.046832025 -0.15905407 -0.10887596 0.006658504 -0.04198662 -0.001993345 -0.10500942
0.062238414 -0.06727787 0.0058574546 -0.01130233 0.09833845 -0.06193282 -0.055324048 -0.03184913
0.13322541 0.025933389 -0.27705356 0.03335695 -0.18629098 -0.22552177 -0.016811844 0.108857006
-0.14377062 -0.4080325 -0.049988966 -0.0029511962 -0.044985097 -0.25659388 0.0992897 -0.08054606
0.08620473 -0.026758056 -0.22502765 0.030852044 -0.06136067 0.19563861 -0.33998078 -0.07465277
-0.03866258 0.057899658 -0.17764594 -0.05371077 -0.050449695 -0.17783567 0.049325116 0.023534736
0.010455425 0.015821626 0.23374088 0.07092893 0.014692588 0.14576845 0.1733461 0.003549904
0.009614788 -0.03918172 -0.026896106 0.11517112 0.027088353 -0.050050776 -0.3096924 -0.113783725
0.069592334 0.057698652 -0.11162162 -0.09875484 -0.2155762 -0.17888117 -0.06428242 -0.054874048
-0.29728928 0.027755143 0.06310616 -0.07741209 0.18912342 0.04629774 -0.054334003 -0.1112931
0.060582865 -0.01658342 -0.13270439 -0.032059472 -0.097032465 -0.046770457 -0.09931037 -0.14313552
0.024501285 -0.1388051 0.11179153 0.020662194 0.053397454 0.064955786 0.024419604 -0.0331438
0.04023014 -0.07286246 -0.0033024002 -0.35336515 0.08387804 0.016542435 -0.013073779 -0.25498715
0.06543022 -0.21675552 -0.113068424 -0.15358265 -0.07764323 -0.077067435 -0.103474155 -0.06889082
-0.06862928 0.061296202 0.03687883 -0.11660362 -0.015375347 0.065048814 -0.23524262 0.03346001
0.17722276 0.008059847 6.737531e-05 0.0011454873 0.123094566 0.108777136 0.18289559 0.21519229
0.09308005 -0.15631095 0.06086688 0.033013724 -0.03382273 -0.13565461 0.11553205 -0.28584176
-0.07761628 0.03215502 0.21062528 0.009545103 0.05182248 0.053824864 -0.1111116 0.06185063
0.021526732 0.029153211 -0.14397825 0.030000925 0.16146618 -0.03066553 -0.14001638 -0.10291543
-0.23143648 -0.000381958 -0.08724841 0.11365075 0.09095417 0.12109022 -0.17009383 0.040367216
-0.15314446 0.015316377 -0.12511332 0.02930554 0.035268348 0.07073516 0.012356821 0.10266928
0.13569696 -0.17426756 0.15233496 -0.02564737 0.14051615 0.09360707 -0.019269321 -0.010751373
0.11069805 0.026293917 0.109600216 0.054891992 0.030302322 -0.097311564 0.042287692 0.12870412
-0.1185879 -0.027349781 -0.034617707 0.066800736 0.09295457 -0.11876894 -0.101223744 -0.07530592
-0.062632985 -0.08770956 0.11204842 0.010305637 0.013924874 -0.11148535 -0.26793218 0.035831705
-0.113650896 0.065759785 -0.093536384 -0.009080725 0.059415914 -0.18161061 0.08063922 -0.13714916
0.07977218 0.04373479 0.021313043 -0.058824357 0.0039172173 -0.0028985464 -0.0876185 0.08510901
0.07367488 -0.10970889 -0.0056547616 0.107311875 -0.043402128 0.24556966 -0.14315124 -0.095251724
0.056818616 -0.05695635 0.13571166 0.14275609 -0.06635766 0.0055723567 -0.12546876 -0.024660088
-0.047868337 0.07962843 0.05364707 0.07425978 -0.08762055 -0.095953494 0.007557015 -0.028395522
00000000: 9757 91bd 5669 57bd 5927 50be 6c90 47be
00000010: 7f98 a4bc 4657 a0bc 5d1b 06be 55b9 e9bd
00000020: 06c8 4dbd 18fe dcbd 8d83 63bd 40cc 51bd
00000030: ec3c 273d 5901 c8bd 780b 53bc 667c 1a3c
00000040: 0c60 f23d f0d2 3fbd 12df 22be 5cfa debd
00000050: 942f da3b 29fa 2bbd c8a2 02bb 2e0f d7bd
00000060: b5ed 7e3d fbc8 89bd e4ef bf3b 682d 39bc
00000070: ab65 c93d 45ad 7dbd 789b 62bd 3c74 02bd
00000080: 3e6c 083e 4272 d43c f7d9 8dbe 4ca1 083d
00000090: 10c3 3ebe 2eef 66be feb8 89bc 6cf0 de3d
000000a0: 9b38 13be a3e9 d0be 3bc1 4cbd db68 41bb
000000b0: 4b42 38bd 4660 83be 6658 cb3d 55f5 a4bd
000000c0: 1b8c b03d b633 dbbc a66d 66be 6dbd fc3c
000000d0: 5355 7bbd 7d55 483e f611 aebe 8de3 98bd
000000e0: a75c 1ebd 3128 6d3d d1e8 35be d3ff 5bbd
000000f0: 57a4 4ebd 8e1a 36be 2209 4a3d ebcb c03c
00000100: 3b4d 2b3c 5b9c 813c c559 6f3e 3043 913d
00000110: 2eb9 703c 5344 153e a481 313e 82a5 683b
00000120: 5887 1d3c 037d 20bd 3955 dcbc d6de eb3d
00000130: 65e8 dd3c 0b02 4dbd 0190 9ebe 7107 e9bd
00000140: 6d86 8e3d 6c55 6c3d e099 e4bd fa3f cabd
00000150: 02c0 5cbe a02c 37be 80a6 83bd 9cc3 60bd
00000160: 4d36 98be c15e e33c cd3d 813d 3b8a 9ebd
00000170: 92a9 413e b3a2 3d3d 558d 5ebd a3ed e3bd
00000180: bd25 783d f4d9 87bc a9e3 07be cb50 03bd
00000190: f5b8 c6bd 6192 3fbd 3c63 cbbd 1e92 12be
000001a0: ebb6 c83c ed22 0ebe f5f2 e43d c343 a93c
000001b0: 4ab7 5a3d 8a07 853d 9f0b c83c cbc1 07bd
000001c0: 5cc8 243d ea38 95bd 156d 58bb 47ec b4be
000001d0: 40c8 ab3d 0084 873c 6733 56bc ad8d 82be
000001e0: 4700 863d 29f5 5dbe 6b90 e7bd c544 1dbe
000001f0: 6a03 9fbd 88d5 9dbd 42ea d3bd a116 8dbd
00000200: 828d 8cbd ba11 7b3d 420e 173d e1cd eebd
00000210: e1e8 7bbc 5038 853d 71e3 70be 5d0d 093d
00000220: e279 353e 730d 043c d84b 8d38 2d24 963a
00000230: 0119 fc3d 8cc6 de3d fb48 3b3e 5e5b 5c3e
00000240: c1a0 be3d fa0f 20be 8d4f 793d 6639 073d
00000250: b489 0abd 0be9 0abe 119c ec3d da59 92be
00000260: 49f5 9ebd fbb4 033d 27ae 573e 1063 1c3c
00000270: cf43 543d 7677 5c3d 7b8e e3bd 1657 7d3d
00000280: d458 b03c b7d2 ee3c 096f 13be 80c4 f53c
00000290: 6457 253e 4736 fbbc 7460 0fbe 53c5 d2bd
000002a0: affd 6cbe 8941 c8b9 4baf b2bd b9c1 e83d
000002b0: 2e46 ba3d 26fe f73d 142d 2ebe 1858 253d
000002c0: e7d1 1cbe 8bf1 7a3c b51d 00be 2c12 f03c
000002d0: 8b75 103d 98dd 903d 4474 4a3c 4544 d23d
000002e0: 25f4 0a3e 3273 32be b2fd 1b3e 6f1a d2bc
000002f0: 77e3 0f3e 10b5 bf3d b2da 9dbc 8726 30bc
00000300: a9b5 e23d 5766 d73c 1476 e03d 6dd6 603d
00000310: 933c f83c 494b c7bd dc35 2d3d 03cb 033e
00000320: 37de f2bd a60c e0bc 4ccb 0dbd d3ce 883d
00000330: f75e be3d 213d f3bd 654e cfbd fd39 9abd
00000340: b945 80bd 12a1 b3bd a479 e53d f9d8 283c
00000350: 2825 643c 6e52 e4bd 682e 89be 44c4 123d
00000360: cdc1 e8bd 11ad 863d 0190 bfbd 52c7 14bc
00000370: 1a5e 733d 22f8 39be 2d26 a53d d470 0cbe
00000380: 995f a33d 4023 333d b198 ae3c cff1 70bd
00000390: 005c 803b 8af5 3dbb 5471 b3bd a24d ae3d
000003a0: dbe2 963d 0eaf e0bd 944b b9bb 54c6 db3d
000003b0: 6ec6 31bd 9d76 7b3e 3d96 12be 5613 c3bd
000003c0: a3ba 683d 104b 69bd fff7 0a3e a72e 123e
000003d0: 86e6 87bd 5198 b63b e27a 00be f403 cabc
000003e0: 9711 44bd 3b14 a33d 08bd 5b3d 8315 983d
000003f0: 6772 b3bd 4483 c4bd d6a0 f73b ba9d e8bc

network_body._body_endoder.seq_layers.2.bias f4 [128]
-0.0066191363 -0.015356608 -0.05858395 0.0116150165 -0.08300029 0.03368571 -0.03088872 -0.04861206
-0.02119564 -0.039995875 -0.08512952 0.0005265052 -0.008471587 0.012171456 -0.08871507 -0.07183651
-0.05795826 0.023703597 -0.0115441345 -0.09478054 -0.055013116 0.010212745 -0.019272223 -0.04528559
-0.07010442 -0.025324957 -0.02407778 0.004208958 -0.07823553 -0.036649935 -0.002862165 -0.030494953
-0.00939127 0.039759427 -0.03575918 0.010079118 0.00799991 -0.0013002722 -0.025254192 -0.057867467
-0.07465715 -0.0709602 -0.03389689 -0.01622826 -0.008562119 -0.1445851 -0.019187499 0.02036037
-0.07455814 -0.034069393 -0.11724158 -0.072144635 -0.08870001 -0.05440354 -0.02769819 -0.04845185
-0.05158168 -0.04075445 0.011871417 -0.035121687 -0.07776497 -0.03628035 -0.07174683 0.011970225
-0.07624159 -0.0538286 -0.08454331 -0.07895152 -0.017705742 0.027044946 0.020745099 -0.16816089
0.016812116 0.018789524 -0.05964149 -0.050904408 -0.07977001 -0.00998832 0.019847456 -0.09398424
-0.09435791 -0.084208824 0.023124473 -0.009826308 -0.08051312 -0.0077597494 0.024119016 0.0075950627
-0.022120163 -0.048224356 -0.038198292 -0.06471095 -0.0147234015 -0.017802346 -0.07438972 -0.082835056
-0.04439921 0.04211144 -0.054115836 -0.07032994 -0.030274829 -0.021653602 -0.015046136 -0.03914672
-0.05839079 0.036024373 -0.034545913 -0.01052701 -0.12495578 -0.018617172 -0.008573947 -0.0547626
0.053620894 -0.06400318 0.015762921 -0.075449154 -0.07735176 0.04124377 -0.043983642 -0.0668101
0.06971098 -0.058430657 0.027282834 -0.09371093 0.05212014 -0.016584592 0.0038128553 -0.035387207
00000000: 57e5 d8bb 489a 7bbc b9f5 6fbd e94c 3e3c
00000010: 0efc a9bd 07fa 093d 570a fdbc 701d 47bd
00000020: 7ba2 adbc b7d2 23bd 6358 aebd 2a05 0a3a
00000030: 69cc 0abc c96a 473c 3fb0 b5bd 051f 93bd
00000040: a465 6dbd 0c2e c23c 9c23 3dbc 4d1c c2bd
00000050: 6f55 61bd 5b53 273c c8e0 9dbc 627d 39bd
00000060: e892 8fbd 4976 cfbc c43e c5bc 4ceb 893b
00000070: f339 a0bd 3e1e 16bd 2993 3bbb 8dd0 f9bc
00000080: d7dd 19bc c8da 223d 3878 12bd e322 253c
00000090: 0e12 033c e56d aaba e1e1 cebc 7006 6dbd
000000a0: d9e5 98bd 9553 91bd 77d7 0abd 21f1 84bc
000000b0: 2148 0cbc 1e0e 14be 1a2f 9dbc caca a63c
000000c0: f0b1 98bd 598c 0bbd 5a1c f0bd 91c0 93bd
000000d0: 5aa8 b5bd 3fd6 5ebd 51e7 e2bc 7275 46bd
000000e0: 5047 53bd 23ee 26bd 5580 423c c2db 0fbd
000000f0: 3e43 9fbd b49a 14bd 01f0 92bd c31e 443c
00000100: 8d24 9cbd 617b 5cbd 0b25 adbd 56b1 a1bd
00000110: a20b 91bc 5d8d dd3c a0f1 a93c 5e32 2cbe
00000120: 90b9 893c 7dec 993c a34a 74bd 2481 50bd
00000130: 765e a3bd 0da6 23bc 2297 a23c cf7a c0bd
00000140: b83e c1bd ad75 acbd 896f bd3c 86fe 20bc
00000150: 10e4 a4bd 7f45 febb 3e95 c53c 01e0 f83b
00000160: 5835 b5bc e786 45bd d075 1cbd 2d87 84bd
00000170: 6c3a 71bc 3ad6 91bc a359 98bd 6da5 a9bd
00000180: f2db 35bd 0c7d 2c3d 91a8 5dbd 2509 90bd
00000190: eb02 f8bc e562 b1bc 1284 76bc 5058 20bd
000001a0: 2e2b 6fbd 4b8e 133d 0480 0dbd 7b79 2cbc
000001b0: d1e8 ffbd 0a83 98bc bd79 0cbc c04e 60bd
000001c0: 95a1 5b3d 1914 83bd 3e21 813c 1685 9abd
000001d0: 996a 9ebd 3aef 283d 3128 34bd bcd3 88bd
000001e0: a1c4 8e3d fc54 6fbd 4080 df3c 84eb bfbd
000001f0: ee7b 553d 69dc 87bc 19e1 793b 2df2 10bd

action_model._continuous_distribution.log_sigma f4 [1, 4]
-0.3705647 -0.48859408 -0.77094394 -0.46544892
00000000: a8ba bdbe 0129 fabe 955c 45bf 524f eebe

action_model._continuous_distribution.mu.weight f4 [4, 128]
-0.07811019 0.03689904 0.06013228 0.022912854 0.03189563 -0.14707147 -0.031014755 -0.016827324
0.1485034 0.049187116 0.08929688 -0.16436929 0.008960953 -0.1016093 0.12755737 0.05068266
-0.01553327 -0.054210193 -0.09081795 0.07426824 0.089728266 0.007400549 -0.006217807 0.02085028
0.061312374 0.027374687 0.11654136 0.039725896 0.05030736 0.031427663 0.007286328 -0.012884833
-0.033114746 0.028977118 0.09762864 -0.0015555625 -0.041349564 0.051020745 0.08533766 0.0089844
0.13224949 -0.002843194 0.0036642277 -0.0055799386 0.030283043 0.09144013 0.037631385 -0.044589106
0.014813083 0.04315644 -0.018656315 0.0115978895 0.10073613 0.079201974 0.04081452 0.013544451
0.004950898 0.002489262 0.043008808 -0.02609934 0.04346794 -0.052317735 0.01549964 -0.041610595
0.019512074 -0.020354126 0.08070799 0.06429328 0.037092514 0.16974853 0.12359854 0.049675755
-0.010575253 -0.009331833 -0.0038878163 -0.022221133 0.0030401514 0.0075475727 0.039578505 -0.0016732883
0.10598841 0.015785448 -0.17196007 -0.14041288 -0.01995802 -0.040697474 -0.03660726 -0.07750313
0.079013325 0.056881547 0.035289496 0.071937926 -0.030069057 0.049545977 0.010644221 -0.009078912
-0.019551322 -0.17825712 -0.040226977 0.0647679 0.0671428 0.14037675 -0.010108781 0.08418129
0.024011392 -0.07267724 0.075506166 0.04149576 0.03590411 0.06695213 0.06916166 0.026959682
-0.010480502 0.06957898 -0.05203751 0.07144711 0.004192772 0.03584245 0.0643796 0.075474784
-0.13105936 -0.006936022 0.16260083 0.024204055 0.005891322 -0.021136021 0.11233238 0.057018567
0.0077356757 -0.010917725 0.051290117 0.038938247 0.04673404 -0.031683292 -0.010099496 -0.038312253
0.024237666 -0.034552943 -0.017699506 -0.028611518 -0.008025224 -0.06258801 -0.06624113 0.054157224
-0.032887027 0.063561365 0.076845594 0.082983285 0.051729355 0.03738999 -0.040798232 0.005315745
0.052508492 0.039355863 0.06867691 -0.014976424 0.012260682 -0.010550944 -0.003972501 0.11848452
-0.016006729 -0.011434412 0.03117381 0.0724581 0.04182159 -0.1577424 0.014301788 0.005040787
0.077476755 -0.021215305 0.062191185 0.067362994 -0.007192037 -0.052131157 0.059992634 0.038813137
0.019585924 -0.059666865 -0.01940279 0.085920654 0.048561126 0.048991874 0.032292556 0.009924634
-0.0026593893 0.0036752606 0.027882336 -0.012699482 -0.056184113 -0.016246445 -0.04014241 0.07941719
0.01795132 0.0038287342 0.01741855 -0.0033514118 0.009776379 0.03465005 -0.016074786 0.023982057
0.056269713 0.01649772 -0.018080415 0.027444985 -0.014609633 -0.10236803 -0.025053259 0.002844873
0.029311985 -0.050351933 0.052610748 0.023693409 0.07494126 -0.08874538 -0.0647963 -0.070297755
-0.013008776 0.015346866 -0.012357615 0.06784454 -0.0070640184 -0.018083366 -0.09232274 -0.034291282
-0.0054474934 -0.0071046986 -0.008710826 -0.048475236 0.013547546 -0.032138526 -0.07676595 0.01221287
0.032284915 -0.026604233 -0.041878607 -0.02507312 0.0046209516 0.009336123 0.036291245 -0.022181137
-0.0493767 0.07171097 0.016489113 0.08063424 0.0130255725 -0.0028704063 0.072160676 -0.06700579
-0.07060232 0.0338574 0.0061178105 -0.022988334 0.021350607 -0.022737898 -0.006526806 -0.05688574
00000000: 3cf8 9fbd 7323 173d 444d 763d bdb3 bb3c
00000010: fea4 023d e799 16be a812 febc 75d9 89bc
00000020: 4611 183e 6e78 493d 48e1 b63d 6c50 28be
00000030: f6d0 123c 8918 d0bd 669e 023e 9f98 4f3d
00000040: 427f 7ebc 820b 5ebd c3fe b9bd f219 983d
00000050: 74c3 b73d 4e80 f23b bfbe cbbb 35ce aa3c
00000060: af22 7b3d e140 e03c 3dad ee3d 9fb7 223d
00000070: 170f 4e3d 4bba 003d 26c2 ee3b e81a 53bc
00000080: 54a3 07bd 6c61 ed3c 86f1 c73d 04e4 cbba
00000090: 295e 29bd 21fb 503d 83c5 ae3d 4e33 133c
000000a0: 696c 073e e154 3abb 8a23 703b ebd7 b6bb
000000b0: 2514 f83c f644 bb3d 5e23 1a3d 11a3 36bd
000000c0: 93b2 723c cfc4 303d 21d5 98bc 1305 3e3c
000000d0: be4e ce3d a534 a23d 202d 273d 8ce9 5d3c
000000e0: 243b a23b e322 233b 012a 303d 48ce d5bc
000000f0: 700b 323d 1f4b 56bd 34f2 7d3c df6f 2abd
00000100: c9d7 9f3c b2bd a6bc 3b4a a53d 32ac 833d
00000110: 52ee 173d 8fd2 2d3e 3b21 fd3d ce78 4b3d
00000120: d343 2dbc 8be4 18bc bcca 7ebb 1809 b6bc
00000130: 473d 473b a151 f73b 121d 223d 3d52 dbba
00000140: 7410 d93d 7c50 813c 4d16 30be 65c8 0fbe
00000150: 007f a3bc 65b2 26bd 7ff1 15bd f6b9 9ebd
00000160: bdd1 a13d a0fc 683d b88b 103d 3154 933d
00000170: 6253 f6bc b9f0 4a3d 1965 2e3c b8bf 14bc
00000180: 182a a0bc 0989 36be 0bc5 24bd 08a5 843d
00000190: 2a82 893d ecbe 0f3e 4d9f 25bc 3d67 ac3d
000001a0: 8ab3 c43c ced7 94bd faa2 9a3d 75f7 293d
000001b0: 3010 133d 331e 893d a1a4 8d3d 8dda dc3c
000001c0: 69b6 2bbc 6d7f 8e3d 4925 55bd dd52 923d
000001d0: 8563 893b 88cf 123d 74d9 833d 8692 9a3d
000001e0: 6d34 06be 9247 e3bb d580 263e 9547 c63c
000001f0: fe0b c13b 7325 adbc 850e e63d 4d8c 693d
00000200: 8d7b fd3b 42e0 32bc 9615 523d b67d 1f3d
00000210: 316c 3f3d 57c6 01bd 5b78 25bc 4fed 1cbd
00000220: 128e c63c 6387 0dbd 8efe 90bc b462 eabc
00000230: 3b7c 03bc 252e 80bd 6ea9 87bd f7d3 5d3d
00000240: 8cb4 06bd 762c 823d 3961 9d3d 24f3 a93d
00000250: 29e2 533d 3f26 193d 0c1c 27bd b32f ae3b
00000260: 2513 573d 9d33 213d 7ba6 8c3d ad5f 75bc
00000270: 07e1 483c dedd 2cbc c12b 82bb 03a8 f23d
00000280: 8b20 83bc 6657 3bbc 3860 ff3c ea64 943d
00000290: 1e4d 2b3d 3987 21be 0c52 6a3c 302d a53b
000002a0: 22ac 9e3d b8cb adbc 2fbc 7e3d 9cf5 893d
000002b0: 2eab ebbb 7b87 55bd d6ba 753d 86fa 1e3d
000002c0: a972 a03c 3e65 74bd 9af2 9ebc 2bf7 af3d
000002d0: 08e8 463d b4ab 483d 3345 043d ef9a 223c
000002e0: 2649 2ebb a4dc 703b 7f69 e43c 7d11 50bc
000002f0: 5021 66bd 4417 85bc 5e6c 24bd 7ba5 a23d
00000300: a60e 933c 80eb 7a3b 59b1 8e3c 5ca3 5bbb
00000310: 1b2d 203c 36ed 0d3d 45af 83bc 0576 c43c
00000320: 127b 663d 3a26 873c 611d 94bc 4ed4 e03c
00000330: 3e5d 6fbc 54a6 d1bd 7e3c cdbc 0c71 3a3b
00000340: b01f f03c d43d 4ebd 5e7e 573d ae18 c23c
00000350: ce7a 993d 23c0 b5bd ecb3 84bd 45f8 8fbd
00000360: c322 55bc 6c71 7b3c 9877 4abc 14f2 8a3d
00000370: 4879 e7bb 9123 94bc b413 bdbd 0475 0cbd
00000380: e380 b2bb 88ce e8bb dab7 0ebc f88d 46bd
00000390: 87f6 5d3c b0a3 03bd 7737 9dbd 7d18 483c
000003a0: 303d 043d 1ff1 d9bc e788 2bbd 2566 cdbc
000003b0: 5a6b 973b 8af6 183c 21a6 143d 37b5 b5bc
000003c0: 393f 4abd 33dd 923d 2d14 873c 9023 a53d
000003d0: 3669 553c 6d1d 3cbb fac8 933d 553a 89bd
000003e0: f397 90bd 0fae 0a3d ea77 c83b 0852 bcbc
000003f0: 78e7 ae3c d444 babc d1de d5bb 0601 69bd

action_model._continuous_distribution.mu.bias f4 [4]
-0.087009825 0.041848898 0.04186686 0.020971304
00000000: 3532 b2bd c069 2b3d 967c 2b3d 03cc ab3c
