results/RedCells3Raycast/RedCellBehaviour.onnx (onnx, 83200 bytes, 7 tensors)

network_body._body_endoder.seq_layers.0.weight f4 [128, 23]
0	0xbea2822b	-0.31739935
1	0x3e997bb9	0.29977205
2	0x3e38631b	0.18006556
3	0xbd15caec	-0.036570475
4	0x3e7475bb	0.23873036
5	0x3e8a854c	0.27054822
6	0xbd1f361e	-0.03886997
7	0x3e51312f	0.20428918
8	0xbd97c8fd	-0.07411382
9	0x3e934f64	0.28771508
10	0x3d14248e	0.036167674
11	0x3c319cfb	0.01084065
12	0x3e4d5880	0.20053291
13	0xbbced22f	-0.006311677
14	0x3bd71a83	0.0065644397
15	0x3de2e281	0.110783584
16	0x3e42c728	0.19021285
17	0xbea123f6	-0.3147275
18	0xbe3bde59	-0.18346538
19	0xbe844ddb	-0.2584065
20	0x3daa2b2a	0.08309014
21	0x3d9d1b59	0.07671232
22	0xbe3418e2	-0.17587617
23	0xbd67a2b7	-0.05655166
24	0xbe76cce0	-0.24101591
25	0xbd9ec179	-0.07751746
26	0xbdcc48cd	-0.09974823
27	0x3ea71547	0.3263342
28	0xbd1e5f0d	-0.038664866
29	0xbecdbe61	-0.4018431
30	0xbdb41a3e	-0.08794068
31	0x3d64fdf0	0.055906236
32	0xbeac04dd	-0.3359746
33	0x3d427507	0.047474887
34	0x3de1d4b4	0.11026898
35	0x3e51ba9b	0.2048134
36	0x3e50d1ae	0.20392486
37	0x3da9cb49	0.08290727
38	0x3dcad5b5	0.09904043
39	0xbd9dff06	-0.077146575
40	0xbb98c9ef	-0.0046627442
41	0xbcd928e8	-0.026508763
42	0xbd311e4a	-0.043241777
43	0xbe592ee0	-0.21209288
44	0x3e132cfb	0.14372627
45	0x3e8d8503	0.27640542
46	0xbdcbf8f4	-0.099595934
47	0xbe5dc0b1	-0.21655537
48	0xbe276a28	-0.16349089
49	0x3da7038d	0.08154974
50	0x3cbc0911	0.022953542
51	0x3e9a5485	0.30142608
52	0xbe8f3839	-0.27972582
53	0x3cc3dac5	0.023908028
54	0x3e2aa3b1	0.16664006
55	0xbe879ec3	-0.26488313
56	0x3d8ad4f7	0.06778901
57	0xbd943445	-0.07236532
58	0xbdb50a86	-0.08839898
59	0xbbc8fc2b	-0.0061335764
60	0xbe287c4e	-0.16453668
61	0xbea1d03a	-0.31604177
62	0xbd923788	-0.07139498
63	0xbe159ec5	-0.14611347
64	0xbdcffdb8	-0.10155815
65	0xbd290b91	-0.041270796
66	0xbdcdafae	-0.10043274
67	0xbe2fcc9a	-0.17167893
68	0x3d86940b	0.06571206
69	0x3e442679	0.19155301
70	0x3d8a9d10	0.067682385
71	0xbc09a8d0	-0.008402064
72	0x3e094604	0.13405615
73	0x3e43aab1	0.19108082
74	0xbdf483ef	-0.11939227
75	0x3ccfac47	0.025350703
76	0x3d9fea47	0.07808357
77	0x3e78f8df	0.24313687
78	0x3d8b367a	0.067975
79	0xbe7a1d91	-0.24425341
80	0x3d7b0550	0.061284363
81	0x3e1a3641	0.15059759
82	0xbd238122	-0.039918073
83	0x3e0b8074	0.1362322
84	0xbcc27f00	-0.023742199
85	0x3f20b72d	0.62779504
86	0xbe581e9a	-0.21105424
87	0xbecce942	-0.40021712
88	0x3dd83fd7	0.105590515
89	0x3dabe591	0.08393396
90	0xbe0bb102	-0.13641742
91	0x3dce7795	0.10081402
92	0xbdfd828c	-0.123784155
93	0xbd90d8db	-0.07072612
94	0xbd3912e8	-0.045184046
95	0xbea0e940	-0.31427956
96	0xbd8c8b8d	-0.06862555
97	0x3d60bef2	0.0548696
98	0xbe9b3e47	-0.3032095
99	0x3e84115e	0.257945
100	0x3c79d9f5	0.015249719
101	0x3e219b6c	0.15781945
102	0x3eabc590	0.33549166
103	0xbe327525	-0.174275
104	0xbe0f1c41	-0.13975622
105	0xbe59e4db	-0.21278708
106	0x3c67920e	0.014133943
107	0xbecce7ca	-0.4002059
108	0x3c847313	0.016168153
109	0x3e28b72e	0.16476128
110	0x3d1c5a48	0.038172036
111	0x3e2db3e8	0.1696316
112	0x3e5c3131	0.2150314
113	0xbe345931	-0.17612149
114	0x3da29dad	0.079402305
115	0xbdf14d78	-0.11782354
116	0x3e544547	0.20729552
117	0xbeb494e3	-0.35269842
118	0x3d222dc8	0.03959444
119	0x3e9ab306	0.3021471
120	0xbe812c7b	-0.25229248
121	0xbd75355b	-0.059865337
122	0xbd1ad43c	-0.03780006
123	0x3ebd8d36	0.37021798
124	0x3e850179	0.25977686
125	0x3e62aa51	0.22135283
126	0x3d7e9a66	0.062158965
127	0xbd2e6349	-0.042575154
128	0x3f1ba23e	0.60794437
129	0x3dfedff5	0.1244506
130	0x3d942cb2	0.072350875
131	0xbdcba4b3	-0.09943523
132	0xbe877993	-0.2645994
133	0xbeaf6d5d	-0.34263125
134	0x3e56d301	0.20978929
135	0xbdba37a1	-0.090926416
136	0x3db100db	0.08642741
137	0xbd97a40a	-0.07404335
138	0xbdf77efe	-0.12084769
139	0x3ea3e417	0.32009956
140	0xbe2accdb	-0.16679709
141	0xbcaac6ff	-0.020846842
142	0xbe29fad8	-0.16599596
143	0x3e15a63d	0.14614196
144	0x3c33952e	0.01096086
145	0xbe0c53b6	-0.13703808
146	0xbe236fd9	-0.15960635
147	0x3e86ba83	0.26314172
148	0x3eb130d4	0.34607565
149	0x3efedf6e	0.49779838
150	0xbca66da0	-0.020315945
151	0x3e31de3f	0.17369936
152	0x3e01702f	0.12640451
153	0xbe012bca	-0.1261436
154	0x3cf1b40a	0.029504795
155	0x3d43d3d2	0.04780943
156	0x3ea7017a	0.32618314
157	0xbdd89585	-0.105753936
158	0x3d05ab99	0.03263435
159	0xbdab36b1	-0.08360041
160	0x3ede194b	0.43378672
161	0xbe436bf1	-0.19084145
162	0x3e369aaf	0.17832445
163	0x3e030dfc	0.12798303
164	0x3e46f6c0	0.19430065
165	0x3eef4b65	0.4673721
166	0x3e1c52cc	0.1526596
167	0x3dd0b27a	0.10190292
168	0xbd555885	-0.052086372
169	0x3d19dec0	0.037565947
170	0xbde5b3b0	-0.11215913
171	0xbc53b2b2	-0.012921022
172	0x3dc8629b	0.097844325
173	0xbe43b463	-0.19111781
174	0x3dedccae	0.11611305
175	0xbeb767a7	-0.35821268
176	0xbe1c4294	-0.15259773
177	0x3ec94193	0.39307842
178	0x3e5a3f00	0.21313095
179	0xbe820710	-0.25396013
180	0x3dcb1eba	0.0991797
181	0x3deff7bd	0.11717174
182	0x3d6aa2c5	0.057284135
183	0x3d65fa3a	0.056146838
184	0xbe88c86a	-0.26715404
185	0xbeae0829	-0.339906
186	0xbdfebc20	-0.12438226
187	0xbe542d2c	-0.20720357
188	0x3e3af2c1	0.18256666
189	0x3d15a4c2	0.03653408
190	0x3e80c347	0.25148985
191	0x3e875f63	0.26439962
192	0xba639fe6	-0.00086831895
193	0x3e4be32e	0.19910881
194	0xbdf2b2ab	-0.118504845
195	0xbde3cf56	-0.111235306
196	0x3bdfd315	0.006830583
197	0x3e7e80ae	0.24853775
198	0xbea5d492	-0.3238874
199	0xbdaad5d6	-0.08341567
200	0x3e4302de	0.19044062
201	0x3e034a68	0.12821352
202	0x3f000048	0.5000043
203	0xbe5f2b99	-0.21793975
204	0xbd74a559	-0.059728
205	0x3c87da0e	0.016583469
206	0xbdf38970	-0.118914485
207	0xbc616098	-0.01375594
208	0x3eb59c73	0.35470924
209	0xbe08073f	-0.13284014
210	0xbe902baf	-0.28158328
211	0xbd21251c	-0.03934203
212	0x3db88a0e	0.09010707
213	0x3e2da6c7	0.16958152
214	0xbca00582	-0.019533876
215	0x3e26ccf0	0.16289115
216	0x3e10e695	0.1415046
217	0x3e50ed55	0.20403035
218	0x3deb1d6c	0.11480221
219	0x3ec0a557	0.37626144
220	0x3e5ea542	0.21742728
221	0xbe06b1fd	-0.13153835
222	0xbd7391f2	-0.059465356
223	0x3a9194c4	0.0011106958
224	0x3ecfdaf8	0.40596747
225	0x3d560c27	0.052257683
226	0xbdb351b1	-0.08755816
227	0xbdf7ba1a	-0.12096043
228	0x3c5d75f9	0.013516896
229	0x3b7824c6	0.0037863716
230	0xbc2d37a1	-0.010572345
231	0x3d2264e8	0.039647013
232	0x3e097808	0.13424695
233	0x3e9012b6	0.28139275
234	0xbd8604e3	-0.06543901
235	0x3eb59597	0.3546569
236	0x3e58b235	0.2116173
237	0xbe8b3930	-0.27192068
238	0xbe08917d	-0.1333675
239	0x3d8ccdfd	0.06875227
240	0xbe68a2c5	-0.22718342
241	0xbec49ccb	-0.38400874
242	0xbd9cac19	-0.076500125
243	0x3cd85dad	0.026411856
244	0xbf16f3fa	-0.5896603
245	0xbdd17b2f	-0.102285735
246	0xbe702a82	-0.23453715
247	0xbde3289f	-0.11091732
248	0x3e06f8ae	0.13180801
249	0xbe061925	-0.1309553
250	0xbddf9306	-0.10916714
251	0xbd9b8c4b	-0.07595118
252	0xbd38f11e	-0.045151822
253	0xbe1f1bd5	-0.15537961
254	0x3d995fb1	0.07488955
255	0x3ab84247	0.0014057838

network_body._body_endoder.seq_layers.0.bias f4 [128]
0	0x3ca2c2d3	0.01986829
1	0xbda906c5	-0.08253244
2	0xbc97de89	-0.01853873
3	0x3d258824	0.040413037
4	0x3d89a0fe	0.0672016
5	0x3d1db7fb	0.038505536
6	0x3cbfaa07	0.023396505
7	0xbd990a29	-0.07472641
8	0xbd446ca7	-0.04795518
9	0xbd9848bb	-0.07435747
10	0x3c82beb4	0.015960075
11	0xbd791a56	-0.06081613
12	0x3c90ef4c	0.01769223
13	0x3c26a51b	0.0101712
14	0x3c86a686	0.016436826
15	0xbd8e44b8	-0.06946701
16	0x3b9d3f43	0.004798801
17	0xbca3e02c	-0.020004354
18	0xbd3e7c56	-0.046505295
19	0xbccdbe04	-0.02511502
20	0x3cfb267a	0.030657995
21	0xbc634fab	-0.013873975
22	0xbcb4a8c6	-0.022053134
23	0xbcc785cf	-0.024355797
24	0xbd5de019	-0.054168794
25	0xbd29f419	-0.041492555
26	0xbc15669f	-0.009118705
27	0xbc93be12	-0.018034969
28	0xbd83b962	-0.06431843
29	0xbbc55e62	-0.006023214
30	0xbdb075d3	-0.08616223
31	0x3c704fba	0.014667446
32	0x3cdddac4	0.027081855
33	0xbd3c87ab	-0.04602782
34	0xbd6e5e11	-0.058195177
35	0x3c154519	0.009110712
36	0xbd15f485	-0.036610145
37	0xbc26244e	-0.010140492
38	0xb95124fe	-0.00019945574
39	0x3a916c0f	0.0011094826
40	0x3cbd0e9a	0.023078252
41	0xbbcff2c9	-0.006346081
42	0x3c18993f	0.0093138805
43	0xbc771594	-0.015080828
44	0x3b8fdbf1	0.0043902327
45	0xbd888b73	-0.06667223
46	0xbd17a408	-0.037021667
47	0x3ca203d8	0.019777223
48	0xbd2d6f0c	-0.04234223
49	0xbd65fddd	-0.056150306
50	0xbdc843eb	-0.09778579
51	0x3b39c0e4	0.0028343732
52	0xbd6a509f	-0.057205793
53	0x3d1181aa	0.035524048
54	0xbd3ad58b	-0.045613807
55	0x3cc865ce	0.024462607
56	0xbd187473	-0.03722043
57	0x3dab0c2a	0.083519295
58	0x3b2f6847	0.0026765035
59	0x3d284f6a	0.04109136
60	0xbd25ef22	-0.040511258
61	0xbd4b9bf6	-0.049709283
62	0x3b6a4feb	0.0035753201
63	0x3d18e3b7	0.03732654
64	0xbd279ed9	-0.040922973
65	0xbca3b634	-0.019984342
66	0xbd12f643	-0.035879385
67	0xbd770b27	-0.06031337
68	0xbcf6a7a0	-0.030109227
69	0xbbd17e89	-0.006393258
70	0x3d1b087e	0.037849896
71	0xbd162758	-0.036658615
72	0xbcfe3016	-0.031028789
73	0xbcec119d	-0.028816992
74	0x3aa7e4a3	0.0012809228
75	0xbd28a1a3	-0.041169774
76	0x3c44a5a3	0.0120023815
77	0xbc33c6a3	-0.010972652
78	0xbd1ad44f	-0.03780013
79	0xbd31ff71	-0.0434565
80	0xbc3fae2e	-0.0116992425
81	0xbc48983d	-0.012243328
82	0xbd15952b	-0.03651921
83	0x3d0af426	0.033924244
84	0xbd02b149	-0.031907354
85	0xbd435010	-0.047683775
86	0x3b4f95b2	0.0031674919
87	0x3c1a7526	0.009427344
88	0x3bcb9d1a	0.0062137963
89	0xbc131d00	-0.008979082
90	0x3d865776	0.065596506
91	0x3c1f1b43	0.00971109
92	0x3cedc32a	0.029023726
93	0x3bbb084b	0.0057077757
94	0xbbab4e12	-0.0052278126
95	0xbd8ab8c3	-0.06773522
96	0x3d5948e5	0.053048033
97	0xbad97fd4	-0.0016593882
98	0x3c9224d0	0.01783982
99	0xbc10ebda	-0.008845294
100	0x3be11dc8	0.0068700053
101	0xbc16944f	-0.009190633
102	0xbbda1535	-0.00665536
103	0xbdb9c376	-0.09070484
104	0x3c6c5671	0.014424906
105	0xbddc33a5	-0.10752038
106	0x3b73f941	0.0037227424
107	0xbd8f98d5	-0.07011572
108	0xbd08a540	-0.03336072
109	0xbcb8bf15	-0.022552053
110	0x3c2c48ac	0.010515373
111	0x396ff9c0	0.00022885855
112	0xbce50fa4	-0.02796156
113	0x3cfac030	0.03060922
114	0x3ca7d33b	0.020486465
115	0xbd73924d	-0.059465695
116	0xbd1d2523	-0.038365494
117	0xbd3694cc	-0.044575498
118	0xbda4e5a4	-0.08051613
119	0xbbb6d0de	-0.005579098
120	0xbcc82fcc	-0.024436854
121	0xbdf571f2	-0.11984624
122	0xbd35dfd1	-0.0444029
123	0x3d16b649	0.036794934
124	0x3d8c8e73	0.068631075
125	0xbd2459bc	-0.04012464
126	0x3dc80e1c	0.09768316
127	0x3cf964a5	0.030443499

network_body._body_endoder.seq_layers.2.weight f4 [128, 128]
0	0x3c32b740	0.010907948
1	0x3d5d9780	0.05409956
2	0xbd7276e0	-0.0591954
3	0xbbb64cf7	-0.005563374
4	0x3e564d31	0.20927884
5	0x3dc9e7d8	0.09858674
6	0xbdd1f204	-0.10251239
7	0x3d8815df	0.066447966
8	0xbd616899	-0.055031393
9	0xbdaa1280	-0.0830431
10	0xbd0a289d	-0.033730138
11	0x3c61eee6	0.013789868
12	0x3cced4c4	0.025247939
13	0xbe5ceabc	-0.21573919
14	0x3c244b53	0.010027724
15	0x3dce0a36	0.10060541
16	0xbdf56169	-0.1198147
17	0xbe8c072d	-0.27349225
18	0x3baa5827	0.005198497
19	0xbd664725	-0.056220192
20	0x3e8b819b	0.2724732
21	0x3d8975e8	0.06711942
22	0x3d7cb60d	0.061697055
23	0x3d504fe4	0.05085744
24	0x3da92434	0.08258858
25	0xbd88cd58	-0.06679791
26	0x3ddcb7d8	0.10777253
27	0x3c875065	0.016517827
28	0xbe193255	-0.14960606
29	0x3ccd96c7	0.02509631
30	0xbc4eade9	-0.012614706
31	0xbdb3bb98	-0.08776015
32	0xbc74371a	-0.014905715
33	0x3e08d277	0.13361536
34	0xbe10857e	-0.14113423
35	0xba44a5c7	-0.00075015094
36	0xbe28acd7	-0.16472183
37	0x3cf6107d	0.03003716
38	0x3db323db	0.08747073
39	0x3e03cf6c	0.12872094
40	0x3d3ae9de	0.04563319
41	0xbe00e15e	-0.12585971
42	0xbdcd635a	-0.100287154
43	0xbe06c2d0	-0.13160253
44	0x3b0fa6a4	0.0021919394
45	0x3d9d0b38	0.076681554
46	0x3e56de0e	0.20983145
47	0xbd60fd53	-0.05492909
48	0x3d6fe150	0.058564484
49	0xbca685ba	-0.020327438
50	0xbd79ba2e	-0.06096857
51	0x3e625650	0.22103238
52	0x3cd7aa91	0.02632645
53	0x3d2a1f8b	0.041533988
54	0x3d46ebeb	0.048564833
55	0xbcd94dfa	-0.02652644
56	0xbd6729ac	-0.056436226
57	0x3e1991a3	0.14996962
58	0xbe0facfb	-0.1403083
59	0xbe1afad2	-0.15134743
60	0xbbfcafcc	-0.0077113863
61	0x3c9aeb51	0.018911036
62	0xbe1c8d1d	-0.15288205
63	0x3dc6b4d0	0.09702456
64	0xbd43e56d	-0.04782622
65	0x3e5df43c	0.216752
66	0xbe02c40a	-0.12770095
67	0x3e56d185	0.20978363
68	0x3d8feb31	0.07027281
69	0x3da84537	0.08216327
70	0x3ce4ce3f	0.027930377
71	0xbd268393	-0.040652823
72	0xbe23ed68	-0.16008532
73	0xbd9fb5c7	-0.07798343
74	0xbe2212d9	-0.15827502
75	0xbc9998d5	-0.018749634
76	0x3dc13c0f	0.094352834
77	0x3d91dc33	0.07122078
78	0x3e4398f9	0.19101323
79	0x3e833e1b	0.2563332
80	0x3da8e21f	0.08246254
81	0xbe34202c	-0.17590398
82	0x3d185580	0.037190914
83	0xbccbed68	-0.024893478
84	0xbd96ec80	-0.073693275
85	0x3de541c1	0.11194182
86	0xbdce44f0	-0.100717425
87	0xbdcac365	-0.0990055
88	0xbcbe7151	-0.023247393
89	0x3d5e43c4	0.054263845
90	0x3d55245e	0.052036636
91	0x3ecc83c0	0.39944267
92	0x3dc24dd9	0.094875045
93	0x3d37b9b5	0.04485484
94	0x3e94f868	0.2909577
95	0x3c08754f	0.00832875
96	0x3dd561be	0.104190335
97	0xbd9d4168	-0.07678491
98	0xbe241fd9	-0.16027774
99	0xbd0303e0	-0.031986117
100	0xbd43d845	-0.047813673
101	0xbd82fba0	-0.0639565
102	0x3deb3978	0.11485571
103	0x3dcb2366	0.09918861
104	0xbe7cc8be	-0.24685952
105	0x3af4e3d6	0.0018683623
106	0x3d5ef36a	0.054431356
107	0x3e1b6c2c	0.15177983
108	0x3dc2216e	0.094790325
109	0xbd9e0f3a	-0.07717748
110	0x3d7b8dca	0.061414517
111	0x3a34a825	0.00068915106
112	0x3d4f7829	0.050651703
113	0xbc2a031a	-0.010376716
114	0xbd314bf4	-0.043285325
115	0x3d116e63	0.035505664
116	0x3d95699d	0.07295535
117	0x3d58035b	0.052737575
118	0xbe96b778	-0.2943685
119	0x3d1e90c5	0.03871228
120	0xbd81d438	-0.06339306
121	0x3dea095e	0.11427568
122	0x3e5c960d	0.21541615
123	0x3c1310f6	0.008976212
124	0xbe0cd005	-0.13751228
125	0x3e4d123a	0.20026484
126	0x3d7a3175	0.061082322
127	0xbda57b7d	-0.08080194
128	0xbd5dcdf0	-0.054151475
129	0x3e03112e	0.12799522
130	0xbdb84597	-0.08997648
131	0x3e36c70f	0.17849372
132	0xbacffa61	-0.0015867465
133	0x3e0644dc	0.13112205
134	0xbd476d68	-0.048688322
135	0x3dfd88d0	0.123796105
136	0x3dd15f0f	0.10223209
137	0xbe51e1ed	-0.2049634
138	0xbe205e7b	-0.15661041
139	0xbcaa8990	-0.020817548
140	0x3e047a14	0.12937194
141	0x3dd67b6f	0.10472762
142	0xbd840ca2	-0.06447722
143	0x3de4eadf	0.111776106
144	0xbcd073aa	-0.025445778
145	0x3e3284e9	0.17433514
146	0xbd3dfe4a	-0.046385087
147	0xbc8c849d	-0.017153079
148	0x3e166acf	0.14689182
149	0xbcb91f60	-0.022597969
150	0x3e3012fe	0.17194745
151	0x3cea7e74	0.02862475
152	0x3e0c36e3	0.13692813
153	0x3cb3d070	0.021949977
154	0x3de7aba0	0.11312032
155	0xbe03de88	-0.12877858
156	0x3c4c9a09	0.012487897
157	0x3cea508f	0.028602866
158	0xbe17da1c	-0.14829296
159	0x3b82e19f	0.0039941813
160	0x3d4207f0	0.04737085
161	0x3d1cb0a9	0.038254414
162	0x3db3b235	0.08774225
163	0x3e11d74d	0.14242287
164	0xbe029d6b	-0.12755363
165	0xbdd61077	-0.10452359
166	0x3e4dce5e	0.20098254
167	0xbe26b2d6	-0.16279158
168	0xbb09fdb1	-0.0021055753
169	0xbce3d917	-0.027813477
170	0x3d30ff08	0.043211967
171	0xbdca77fd	-0.09886167
172	0x3e25985b	0.161714
173	0x3b6b0336	0.0035860068
174	0x3de8b4c2	0.11362602
175	0xbd67b518	-0.05656919
176	0xbaad0801	-0.0013201238
177	0x3b07e691	0.0020736794
178	0xbcb140f3	-0.021637416
179	0x3e1e42de	0.15455195
180	0x3df14516	0.11780755
181	0x3d3df3df	0.04637515
182	0x3e04acb5	0.12956508
183	0x3e3cc757	0.18435417
184	0x3c9ba04c	0.018997334
185	0xbd2d7a14	-0.04235275
186	0xbe6f96dc	-0.23397392
187	0x3d8ee94e	0.06978093
188	0x3ad0a075	0.001591696
189	0x3d7b5582	0.061360843
190	0xbdeb47cb	-0.11488303
191	0xbe622ad3	-0.22086649
192	0x3e03042d	0.12794562
193	0xbde27c4a	-0.110588625
194	0xbdcde461	-0.100533254
195	0x3e18acb9	0.14909638
196	0x3e0eed75	0.1395777
197	0xbdc10886	-0.09425454
198	0x3c0ccd5e	0.008593885
199	0x3e15eab3	0.14640312
200	0xbdf8dc43	-0.121513866
201	0xbddcae1b	-0.107753955
202	0x3d195be0	0.037441134
203	0xbe38fb1b	-0.18064539
204	0x3da10508	0.07862288
205	0x3ddf88ba	0.109147504
206	0xbc7c2549	-0.015389749
207	0x3c550092	0.013000624
208	0xbdda08ae	-0.10646187
209	0x3d973d81	0.07384778
210	0xbcb843d1	-0.022493275
211	0x3df29d81	0.11846448
212	0xbd1dc545	-0.03851821
213	0xbe524270	-0.20533156
214	0x3d80f7bf	0.06297254
215	0xbd875a53	-0.06609025
216	0xbdc1a510	-0.09455311
217	0xbbc1672b	-0.005902191
218	0x3d225769	0.039634142
219	0x3d746f60	0.059676528
220	0x3d0839bf	0.033258196
221	0x3e21a927	0.15787183
222	0x3e3247d6	0.17410216
223	0x3d934694	0.07191196
224	0xba86346f	-0.0010239015
225	0x3e21b0ab	0.1579005
226	0xbc4ab85e	-0.012373058
227	0xbd812a6e	-0.06306921
228	0x3daef072	0.08541955
229	0x3cd55c91	0.026045116
230	0x3e6c890b	0.23099153
231	0xbd894749	-0.0670305
232	0xbe2209a8	-0.15823996
233	0xbe001fe4	-0.12512165
234	0xbc4fc669	-0.012681582
235	0x3d709e06	0.058744453
236	0xbe12b389	-0.143263
237	0xbb20de72	-0.002454665
238	0xbdc3666f	-0.09541022
239	0x3d9f5f6c	0.07781872
240	0x3dbe1aed	0.092824794
241	0xbdc3ce6d	-0.09560857
242	0xbdf1da6c	-0.11809239
243	0xbd071365	-0.03297748
244	0x3cb0d73c	0.021587007
245	0xbdde9c7a	-0.10869689
246	0xbdf95c3e	-0.12175797
247	0x3d94e5f2	0.07270421
248	0x3dbdcb8e	0.092673406
249	0x3d1ed535	0.03877755
250	0x3d43dc8a	0.047817744
251	0xbda99e30	-0.08282125
252	0x3ca71f2b	0.020400604
253	0xbd392233	-0.04519863
254	0xbd777bfe	-0.060420983
255	0xbc1cd168	-0.009571411

network_body._body_endoder.seq_layers.2.bias f4 [128]
0	0xbca082c9	-0.019593613
1	0xbcf08aad	-0.029363
2	0xbd1d3060	-0.038376212
3	0x3c94f2ec	0.01818224
4	0xbc758e2a	-0.014987508
5	0xbbcdbd9a	-0.006278706
6	0xbd6c793d	-0.05773281
7	0xbd40610c	-0.04696755
8	0xbcab2122	-0.020889822
9	0xbc7f2213	-0.015572089
10	0x3cc12886	0.023578893
11	0xbbfe7db5	-0.0077664503
12	0xbcd1a754	-0.025592484
13	0xbcd5e8e7	-0.026112033
14	0xbd79e118	-0.06100568
15	0xbbfb5c59	-0.007670921
16	0xbcfd8253	-0.030945932
17	0xbd6d4090	-0.0579229
18	0x3d24945f	0.04018056
19	0xbdadd935	-0.084886946
20	0xbd33fe63	-0.043943774
21	0xbd82c731	-0.06385649
22	0xbc5d7670	-0.013517007
23	0xbc2964ae	-0.010338945
24	0xbd86c753	-0.06580987
25	0xbd097688	-0.033560306
26	0xbd3b70a4	-0.04576172
27	0xbb689dae	-0.0035494375
28	0xbca3ced7	-0.01999609
29	0xbcb3a3eb	-0.021928748
30	0xbdcf1081	-0.1011057
31	0x3c40a4bb	0.011758025
32	0x3b812cae	0.003942094
33	0x3b68aa8e	0.003550205
34	0xbd3eeb9a	-0.046611406
35	0xbd3f96a1	-0.04677451
36	0xbb639b33	-0.0034729957
37	0x3d81e4e6	0.06342487
38	0xbca04437	-0.019563777
39	0xbd617b1d	-0.05504905
40	0xbd4895b7	-0.048970904
41	0xbd8b9c46	-0.06816916
42	0xba7e9e6f	-0.00097129395
43	0xbc09d1c9	-0.008411833
44	0xbd134fba	-0.035964705
45	0xbd608a45	-0.054819364
46	0xbc8ba98d	-0.017048622
47	0x3d0be94f	0.034158047
48	0x3ab996fd	0.0014159378
49	0xbc0f31cd	-0.008739901
50	0x3c128aa9	0.008944192
51	0x3a0f7a9c	0.00054732873
52	0xbda6cb74	-0.08144274
53	0x3cabddb9	0.020979749
54	0xbdfba360	-0.12287021
55	0xbe213e8b	-0.15746514
56	0xbd555068	-0.052078635
57	0xbd1f9c61	-0.038967494
58	0xbd48977b	-0.048972588
59	0xbd528b6f	-0.051402505
60	0xbc87dad5	-0.01658384
61	0xbcf05f45	-0.029342303
62	0x3c7f0699	0.015565538
63	0xbd532c66	-0.051556014
64	0x3c16776e	0.009183748
65	0x3d1c5cf7	0.038174596
66	0xbd038c72	-0.03211636
67	0x3c67635a	0.014122808
68	0xbc8a1b15	-0.016858617
69	0xbdc69be3	-0.09697702
70	0x3b598e71	0.0033196474
71	0xbdbec18c	-0.0931426
72	0xbca11a24	-0.019665785
73	0xbd3fd1cd	-0.04683094
74	0xbd28d7f0	-0.04122156
75	0xbd5797a4	-0.05263485
76	0xbcb4a7e7	-0.022052718
77	0xbca94b37	-0.020665748
78	0xbd43cca6	-0.04780259
79	0xbc01f0d9	-0.007930958
80	0xbc936fff	-0.01799774
81	0xbcef2d43	-0.029196387
82	0xbd4ce381	-0.050021652
83	0xbcb06691	-0.021533282
84	0x3ccc01d5	0.024903217
85	0xbd129d51	-0.03579456
86	0xbd359473	-0.044331025
87	0xbceffe8e	-0.029296186
88	0xbda204b5	-0.07911054
89	0x3d0f57bc	0.03499578
90	0xbc28f7bc	-0.010312971
91	0x3a541be0	0.0008091312
92	0x3bf9924d	0.0076163174
93	0xbd1653bb	-0.036700945
94	0xbd249a01	-0.040185932
95	0xbd412ee3	-0.047163855
96	0xbc0f4fdb	-0.008747066
97	0x3c934de3	0.017981475
98	0xbbfcd6f6	-0.007716055
99	0xbd624135	-0.055237968
100	0xbccf8fd3	-0.025337135
101	0xbdaa794c	-0.08323917
102	0xbc4f7809	-0.012662896
103	0xbc95c57e	-0.018282648
104	0x3c2604a5	0.010132943
105	0xbdaf2a0b	-0.08552941
106	0x3c416d02	0.011805775
107	0xbd0efc25	-0.034908433
108	0xbbe3c32e	-0.0069507575
109	0xbd6cfc38	-0.057857722
110	0xbc87231a	-0.01649623
111	0xbd2ef341	-0.042712454
112	0xbced6782	-0.02898002
113	0xbd49ae93	-0.049238753
114	0xbd0327e5	-0.03202047
115	0xbc978f43	-0.01850093
116	0xbc846e7e	-0.016165968
117	0xbd095b64	-0.033534423
118	0xbd12db13	-0.035853457
119	0x3c8d3487	0.017236961
120	0x3c320e31	0.010867641
121	0xbd8cbc08	-0.068718016
122	0xbd12918b	-0.03578333
123	0xbd17a4b9	-0.037022326
124	0xbdb9a52f	-0.090647094
125	0x3c7f4c70	0.015582189
126	0xbd92475e	-0.071425185
127	0xbc8e83fb	-0.017396918

action_model._continuous_distribution.log_sigma f4 [1, 4]
0	0xbeb3c2c1	-0.35109523
1	0xbedfefe3	-0.43737707
2	0xbeb48ddb	-0.35264477
3	0xbeba4d34	-0.36387026

action_model._continuous_distribution.mu.weight f4 [4, 128]
0	0x3df59da0	0.11992955
1	0x3d8152e6	0.0631464
2	0xbcf1088b	-0.029423019
3	0xbd88ca0d	-0.06679163
4	0x3d643b94	0.05572088
5	0x3ce581a6	0.028015923
6	0xbd1866d6	-0.037207447
7	0x3d5ef4bf	0.054432627
8	0x3d0dcbc1	0.034618143
9	0x3d0aadba	0.033857085
10	0x3d1f7fca	0.03894023
11	0xbd29eb30	-0.041484058
12	0x3d41e01f	0.04733288
13	0x3deb9a15	0.11503998
14	0xbd0fd152	-0.035111733
15	0x3d2f36eb	0.042776983
16	0x3d60714d	0.054795552
17	0xbce5a770	-0.028033942
18	0x3d0d6dcf	0.03452855
19	0x3d18d0e3	0.037308585
20	0xbd6ed50c	-0.058308646
21	0x3d43ad92	0.04777295
22	0x3d5676c8	0.052359372
23	0xbd5451d0	-0.051835835
24	0x3cc5467f	0.024081467
25	0x3ca187d9	0.019718098
26	0xbb9a0ed7	-0.004701476
27	0xbcd5698f	-0.02605131
28	0xbd0cdcf1	-0.034390394
29	0x3cf4dc73	0.029890275
30	0x3cf0fc42	0.02941716
31	0x3d1d1c03	0.038356792
32	0x3d87cfd8	0.0663144
33	0xbd2927fe	-0.041297905
34	0xbc7a234c	-0.0152672045
35	0xbc51ac77	-0.0127974665
36	0x3cad4f1e	0.02115589
37	0xbd81fdbe	-0.063472256
38	0x3ccffafc	0.025388233
39	0x3ce286a8	0.0276521
40	0xbd7c75e9	-0.061635885
41	0xbc111a2c	-0.0088563375
42	0x3d1646ab	0.036688488
43	0x3dc4c9b1	0.09608782
44	0x3d709c32	0.05874271
45	0x3d5418e5	0.051781554
46	0xbd03fd94	-0.032224253
47	0x3d8c6f31	0.068571456
48	0xbd90a075	-0.07061855
49	0x3c9ed766	0.01938982
50	0x3d8a5bbc	0.06755778
51	0xbd8fa01f	-0.070129625
52	0x3ccb1e97	0.02479486
53	0xbdbd718e	-0.092501745
54	0xbb98fa9e	-0.004668548
55	0x3d22a678	0.03970954
56	0xbcd51f8d	-0.026016021
57	0x3c1863fd	0.009301183
58	0x3d9a096e	0.0752133
59	0x3ca58b7b	0.020208111
60	0x3d9d2a32	0.07674064
61	0x3be7d397	0.007074784
62	0x3dd28e2f	0.102810256
63	0x3c7c96e5	0.015416835
64	0x3c48363a	0.01221996
65	0x3d88bffe	0.066772446
66	0x3bb185e5	0.005417573
67	0xbdc5ec80	-0.096642494
68	0x3d6dc51f	0.058049317
69	0x3b1e12da	0.0024120123
70	0x3dbecb74	0.09316149
71	0xbc0211ed	-0.007938844
72	0x3d9e7182	0.07736494
73	0xbc948dff	-0.018134115
74	0x3d1ceae1	0.038309935
75	0xbd684ec6	-0.05671575
76	0xbd167498	-0.036732286
77	0x3d990757	0.07472103
78	0x3d856147	0.06512695
79	0x3db0057a	0.085947946
80	0xbca43cc5	-0.020048508
81	0x3dd34f86	0.10317902
82	0x3c3aabc3	0.01139349
83	0x3bcac6c2	0.0061882446
84	0x3d835c03	0.06414034
85	0xbcb543e1	-0.022127094
86	0xbdaafbff	-0.08348846
87	0xbc3733c1	-0.011181773
88	0x3d3e487f	0.046455856
89	0x3da8ccb8	0.08242172
90	0xbd4217f9	-0.047386143
91	0x3db533d4	0.08847776
92	0x3d60389a	0.05474148
93	0x3d4c7885	0.049919624
94	0x3c76c41e	0.015061406
95	0x3d21aefe	0.039473526
96	0x3d83c6ba	0.064343885
97	0xbd2f23c6	-0.042758726
98	0x3c6e7329	0.0145538235
99	0xbc7a51bc	-0.015278276
100	0x3d83fd1f	0.064447634
101	0xbc01f6fb	-0.00793242
102	0x3d8a32be	0.067479596
103	0x3bc0c1b8	0.005882468
104	0xbd1373ee	-0.03599923
105	0x3d0e6ea3	0.03477348
106	0x3a697bbe	0.00089066837
107	0x3d921e7c	0.07134721
108	0xbce79ec4	-0.028273948
109	0x3d8e37d7	0.06944244
110	0x3d844315	0.064581074
111	0x3d222892	0.039589472
112	0xbc8c11cb	-0.017098328
113	0x3cf8fa43	0.030392772
114	0x3c93d67d	0.018046612
115	0x3cd20aa7	0.025639845
116	0x3c47c645	0.012193267
117	0x3ca39ac0	0.019971251
118	0x3d6d2c64	0.057903662
119	0xbc1e568a	-0.009664187
120	0xbd953a8c	-0.072865576
121	0x3da86e77	0.082241945
122	0xbd5eebf3	-0.054424237
123	0x3c1b85bf	0.009492337
124	0x3b3fb64c	0.0029252945
125	0xbdaa5cd8	-0.0831849
126	0xbc117495	-0.008877893
127	0x3d9d7655	0.07688586
128	0x3c1baad8	0.009501182
129	0xbcb0221c	-0.02150064
130	0x3ccc0de4	0.024908967
131	0xbd8baa0a	-0.06819542
132	0x3d50a9d0	0.050943196
133	0xba90fab2	-0.0011061041
134	0x3d7e54d6	0.062092625
135	0x3da8368c	0.08213529
136	0x3be039fe	0.0068428507
137	0x3ce0f128	0.027458742
138	0x3d79bdf9	0.060972188
139	0xbd726f4f	-0.059188183
140	0x3cc7958b	0.0243633
141	0xbd2325a9	-0.039830837
142	0xbce7a2fc	-0.02827596
143	0xbd075432	-0.03303928
144	0xbc4c94f3	-0.012486684
145	0xbd62471a	-0.05524359
146	0xbc2e131a	-0.010624671
147	0xbc0c6655	-0.00856932
148	0xbd7aebba	-0.061259963
149	0x3d1fa3c1	0.038974527
150	0x3ca20dd3	0.019781983
151	0xbd6cd1d4	-0.057817295
152	0x3cbab3dd	0.022790844
153	0xbd2da0b7	-0.042389598
154	0x3cdefdf9	0.027220713
155	0xbcad77a9	-0.021175222
156	0xbd9a31af	-0.07529008
157	0x3d2d0e89	0.04225019
158	0xbcb1681f	-0.021656094
159	0xbb0acf0e	-0.0021180543
160	0x3d66dc9e	0.05636274
161	0x3c8abe91	0.016936572
162	0xbd2f9273	-0.042864274
163	0xbc3877d1	-0.011259035
164	0xbc0b8eb8	-0.0085179135
165	0xbcc5642b	-0.024095615
166	0x3bf3c789	0.007439558
167	0x3c96b5c2	0.018397216
168	0x3ceecd95	0.029150764
169	0x3c360ed9	0.011111938
170	0x3c1fd66d	0.009755713
171	0x3c20f679	0.009824389
172	0x3d9d39a1	0.076770075
173	0x3d3d4077	0.046204057
174	0xbcb3b94a	-0.021938939
175	0x3c68efc4	0.014217321
176	0xbd49f951	-0.049310032
177	0xbcfe72b4	-0.031060554
178	0xbc4616c7	-0.0120903915
179	0xbba80840	-0.0051279366
180	0x3c837c1f	0.016050396
181	0xbd41934a	-0.047259606
182	0x3c81df9f	0.015853701
183	0xbcde028c	-0.027100824
184	0x3d14bc77	0.036312547
185	0xbcda83d6	-0.026674192
186	0xbcab2e4d	-0.020896101
187	0x3d62533f	0.05525517
188	0x3d75d1a2	0.060014375
189	0x3cc64804	0.024204262
190	0x3cbcab86	0.023031007
191	0xbd0925c1	-0.03348327
192	0x3ce0b0c2	0.027428035
193	0x3d1b2628	0.037878186
194	0x3c7d6ccb	0.015467833
195	0x3c32f494	0.01092257
196	0x3d2561ca	0.040376462
197	0xbc5bc1f4	-0.013412941
198	0x3d16ac2a	0.036785282
199	0xbc9a37c4	-0.01882542
200	0xbcf7c135	-0.030243495
201	0x3d063c25	0.032772202
202	0xbc8ab21e	-0.016930636
203	0xbcf1268e	-0.02943733
204	0xbd7d011a	-0.06176863
205	0x3b80143c	0.003908662
206	0xbb737661	-0.0037149417
207	0x3d84d5c1	0.06486083
208	0x3d171ae5	0.036890883
209	0xbd6ced5c	-0.05784355
210	0x3d44d69e	0.048056237
211	0xbcdc30a8	-0.02687867
212	0x3c2ce515	0.010552664
213	0xbcde71e3	-0.027153915
214	0x3ccc6a6e	0.024953093
215	0xbd31441b	-0.04327784
216	0xbccb5edd	-0.024825508
217	0x3cdb065c	0.02673643
218	0xbc08a253	-0.008339482
219	0xbac385af	-0.001491716
220	0x3cd116d2	0.025523577
221	0x3cfe89bb	0.031071534
222	0x3be1b785	0.0068883323
223	0xbd023caa	-0.031796135
224	0x3c979c9d	0.018507296
225	0x3cc7603a	0.024337877
226	0x3cbae23c	0.022812955
227	0x3c43abdb	0.011942829
228	0xbc0a2452	-0.008431511
229	0xbd2a9d13	-0.041653704
230	0x3d5a0b63	0.053233515
231	0x3cea78a0	0.028621972
232	0xbda55c31	-0.08074225
233	0x3cb218e8	0.021740392
234	0x3d2275ba	0.039663054
235	0x3c9fa795	0.019489089
236	0xbd931dda	-0.07183428
237	0x3b48866d	0.0030597702
238	0x3bacdf31	0.00527563
239	0xbd0b0225	-0.033937592
240	0xbd2ab1a4	-0.041673318
241	0x3d0db1bb	0.034593325
242	0x3d214aab	0.03937785
243	0x3d225b6f	0.03963798
244	0x3cb559d5	0.022137562
245	0x3cdce994	0.026966847
246	0x3c7b94b3	0.015355277
247	0xbc0732d3	-0.0082518635
248	0x3d1fc512	0.0390063
249	0xbce10377	-0.027467472
250	0xbc9b80fb	-0.018982401
251	0x3c7d2b82	0.015452268
252	0x3abb1110	0.0014272053
253	0xbd7a46f4	-0.061102822
254	0xbd050e4a	-0.03248433
255	0xbce9dfa9	-0.028549032

action_model._continuous_distribution.mu.bias f4 [4]
0	0x3c0fa906	0.008768326
1	0x3c1e4709	0.009660491
2	0x3d05be80	0.032652378
3	0xbbd7de43	-0.006587775
