Assets/RedCell3Raycast.onnx (onnx, 79104 bytes, 7 tensors)

network_body._body_endoder.seq_layers.0.weight f4 [128, 15]
00000000: 09dd 073f 7685 aa3d 536d 86be 0450 22bd
00000010: 676f 223e ab01 e43e f846 823d 06bc 1c3e
00000020: 1ee9 023e d6ec b7be 1018 0abe 40b8 1cbe
00000030: 8010 dd3d 793a cabc 013f 68be 6723 b93d
00000040: 0c3c 39be bd80 113f 79d7 80be 579d c2bc
00000050: ec20 31bd 50c1 90be 08bc d43e c4a1 bbbe
00000060: 5531 c23e 8a7c 00bf 0b45 c0bb a98e 66bb
00000070: 28c4 703e 2d52 633c 7459 153e ceb0 4b3e
00000080: 2195 8d3d f1f7 dd3d 940d 6ebd 8a69 8e3d
00000090: 79f2 a9be 3a1a 20be fe85 cc3e 8498 833e
000000a0: 7e27 f4be b5a8 48be 6315 a03d d0be 953d
000000b0: 0979 04bf 5af2 ac3d 074e 3b3e 0e5e 8dbe
000000c0: c815 d6bc bbea 993c 90d8 b33e 5f03 10be
000000d0: 69af 143e a3df a33e a12c cc3e 92b6 52be
000000e0: df70 073e 1f6d f23c 3222 8ebd cd1a 70bd
000000f0: 557c 853e a5e2 19bd 9efb c9bd 0cb5 053d
00000100: d722 523d 4814 73be fe35 d23e a7f9 f73d
00000110: 8c6f 70bc bdd3 ebbe 7bbd 1d3e 6713 383d
00000120: 506e 253e f757 d13e 9f6d 10be 8895 85be
00000130: 83af e13d c8a1 e2bd 00d6 2a3e d68a 46be
00000140: 003b 83bc f84e 9c3d 967d ccbd ab9c a0be
00000150: 34b0 15bf 1019 8a3e 2d9e 413e 54b4 193d
00000160: 15b3 35bf 58d6 f43d 27e5 e73e 4446 06bf
00000170: f477 ef3d 2c6f e53c 2eae 883f 0464 193f
00000180: 2799 8cbe 6ceb 9ebe f5b8 bd3e 6e49 a8be
00000190: 09b9 3dbe 71da 323e 70a4 e4be 6e8f 80bb
000001a0: f3a4 5c3e 99e5 6c3e 3ebe 713e 5587 f3bd
000001b0: 8a9e ad3e d4de 7abe f7f0 7dbd 4610 a5be
000001c0: 8c93 85be c14d d33e b35b 9ebe 06a5 293f
000001d0: e254 cd3e ba08 18bd 75d0 a33e 86a4 183e
000001e0: 0be7 6abf c811 163f 05c1 063e 649c a7be
000001f0: a491 7bbe 883b 933d f475 f93d 5ff6 143e
00000200: 8ab6 5cbe 3fe6 9bbd 4424 a33d 27f5 9a3c
00000210: 85b7 b9bd 3985 7c3e dbda c63e 1cd8 21be
00000220: 44d6 6d3e 27a9 2cbf 2e72 d8bc 0859 d7bc
00000230: 0b3e 34be 9ab0 06bb 6a6e 293e 7f3c d83d
00000240: a7e1 97bd 10b6 fabe 1862 5e3e ffda 98be
00000250: 8421 cb3d ff7e 29bb 926c 403d a2cb c73e
00000260: 5d98 b73d 76e3 883a adf9 803e d7ec aa3e
00000270: 330a 49bf 1ecb 903e 89ae e3be 2f40 1bbf
00000280: c9fd 51bd 4111 c6be a196 f6bc 618c 19be
00000290: 6fca 4dbe c511 1f3e 131b d5bc e45b d93e
000002a0: beb2 cc3e 8fde 6c3e 4e2c dfbe 6c21 8bbc
000002b0: c7f1 073e 110a 51be f451 15bf 8b26 1c3d
000002c0: 3525 443e 71b8 6cbe 030e 6b3e 4de6 f6be
000002d0: ad03 62bc e5d3 163e b56c eebe 660f 0dbe
000002e0: 086c 61bd 0780 20be d39b 953e 68c0 c0bd
000002f0: 426f c3be 889b 903e b3a2 8b3e 03ba 3fbe
00000300: 2464 163e 6972 913e 08af 923d 5061 173e
00000310: 8429 27bf ef98 293e 432d 4f3e 8d92 22be
00000320: ffe5 283f 3a7b 983d a0c4 62be b566 b5be
00000330: 113f 243d f637 3ebe 9ce4 bebe e627 90bc
00000340: 4a49 4e3c 4b59 c73e 6736 023e 9a81 1abe
00000350: 0be1 83be 04c9 923e d923 a23c 70bc 72be
00000360: 2534 af3e 8505 1ebe 7b32 e5bd 24eb fcbc
00000370: 7c36 0bbd 1b67 64be 2abf ccbe 3a9f d5bd
00000380: 0db2 1cbe f140 3c3e f80e b9be db91 91be
00000390: bbfe a5bd a6f7 333e 850c 15bd 04fa d13d
000003a0: f753 563e 1b97 a2be cf22 9b3e 5e45 993e
000003b0: 4563 323e 83e1 033d 1b9a 8d3e 23a1 4cbe
000003c0: c7f0 ebbb c7a3 dabe be0d 9ebd 62eb a43e
000003d0: 625d 09bd 024a 0fbf ce74 22bd 84a9 6d3e
000003e0: 5028 8cbe 5e1d a43e a680 f8bd c838 27be
000003f0: 5b8e ae3d 335b c23b 1ee5 fc3d 3dc9 edbe
0.5307165 0.08326237 -0.26255283 -0.03962709 0.15862809 0.44532523 0.063611925 0.153061
0.1278424 -0.3592288 -0.13485742 -0.15304661 0.10794163 -0.024686085 -0.22680284 0.090399556
-0.18089312 0.56837064 -0.25164393 -0.023756666 -0.043244287 -0.28272486 0.41549706 -0.36646855
0.37928262 -0.5019003 -0.0058676056 -0.0035180247 0.23512328 0.013874573 0.14584905 0.19891664
0.0691321 0.10838307 -0.058118418 0.06953724 -0.33192804 -0.15635005 0.39945978 0.25702298
-0.4768638 -0.19595607 0.07816579 0.07311785 -0.51747185 0.084446624 0.18291484 -0.2761082
-0.026133433 0.018788686 0.35126162 -0.14063786 0.14520039 0.3200656 0.398778 -0.20577458
0.1322665 0.029593049 -0.06940116 -0.05861931 0.2607142 -0.03756966 -0.09862445 0.032643363
0.051302757 -0.23738205 0.41056818 0.12108164 -0.014675032 -0.4605998 0.15404312 0.04494038
0.16155362 0.40887424 -0.14104317 -0.26090646 0.11019804 -0.110660136 0.16683197 -0.19388899
-0.016019344 0.076322496 -0.09984891 -0.31369528 -0.5847199 0.26972246 0.18907996 0.03752549
-0.7097638 0.11954945 0.45292017 -0.52450967 0.11692801 0.028007112 1.0678155 0.59918237
-0.27460596 -0.31038988 0.37055174 -0.32868522 -0.18527617 0.17466141 -0.44656706 -0.003923348
0.21547298 0.2313446 0.23607728 -0.11891047 0.33910018 -0.24499065 -0.06199738 -0.32238978
-0.26089132 0.4127026 -0.30929336 0.6626743 0.40103823 -0.037117697 0.31994978 0.1490651
-0.91758794 0.5862088 0.13159569 -0.32736504 -0.24567276 0.07189089 0.12180701 0.14547108
-0.21554008 -0.07612275 0.079659015 0.018915726 -0.09068207 0.24660195 0.38838848 -0.15805095
0.23226267 -0.67445606 -0.026421633 -0.02628757 -0.17601793 -0.002055204 0.16546026 0.10558414
-0.07416087 -0.48967028 0.21717107 -0.2985458 0.09918502 -0.002586305 0.04697854 0.39022547
0.08964608 0.0010443765 0.25190488 0.3338382 -0.7853119 0.28279966 -0.44469097 -0.6064481
-0.05126742 -0.3868504 -0.030101122 -0.14994957 -0.20096754 0.15534122 -0.026013887 0.4245292
0.3998012 0.23131774 -0.4358849 -0.01698371 0.13275824 -0.20413996 -0.58328176 0.038122695
0.19154818 -0.23117234 0.22954564 -0.4822258 -0.013794822 0.14729269 -0.46567312 -0.13775405
-0.055034667 -0.15673839 0.29220447 -0.094116986 -0.3817082 0.2824366 0.27272567 -0.18723302
0.14686638 0.284076 0.07162291 0.14783216 -0.6529772 0.16562246 0.2023211 -0.15876217
0.65975946 0.074453786 -0.22145319 -0.35429922 0.040099207 -0.18576035 -0.3728379 -0.01759715
0.012590716 0.38935313 0.12716065 -0.15088502 -0.25757632 0.28668988 0.019792484 -0.23704696
0.3421947 -0.15431793 -0.11191269 -0.030873843 -0.033987507 -0.22304957 -0.39989597 -0.10430761
-0.15302296 0.18384148 -0.36144233 -0.2843159 -0.081052266 0.17574939 -0.036388893 0.10252765
0.20930468 -0.3175591 0.30299994 0.29935735 0.17420681 0.032197487 0.27656636 -0.19983344
-0.0072003338 -0.42703077 -0.07717465 0.32210833 -0.033536322 -0.559723 -0.039662175 0.23209196
-0.27374506 0.32053655 -0.12133913 -0.16330254 0.08523246 0.005931282 0.12348388 -0.46442595

network_body._body_endoder.seq_layers.0.bias f4 [128]
00000000: 0c0e aebc fa22 eaba eff8 cdbc 3cf7 e03c
00000010: f357 fbbd 13f6 7ebd c655 7c3c efef 9abb
00000020: e256 68bd b29d 3abd 294e f5bb 77e8 09bc
00000030: 3db8 98bd ac32 1b3d cbb7 23bd c206 9ebc
00000040: 4724 463d e192 d7bc 7ad0 d2bd 8b60 d9bd
00000050: 4dbc f0bd 3e5a 14be 8ab7 c8bd 8b9f bfbd
00000060: 3fdf ccbd 494a 5dbd bec0 05bc b8d5 1cbd
00000070: 0284 213d 524d 3c3d b5fa cabd ee6c 80bd
00000080: f2b9 07be cb0e 2c3d 9daa ba3c 58b9 7e3c
00000090: e915 89bd 030d 2d3d c60a d7bb 6b18 b4bc
000000a0: c970 04bd 81e2 32bc 4b8e eebd 9a44 d2bd
000000b0: b908 95bd d48f 56bc 1dc9 753c bdec 8bbd
000000c0: 3e77 c03d 995a 233d 810f d8bb 8cd2 60bb
000000d0: d238 22bd ea53 fabb 1509 973d c8e0 26bd
000000e0: 2b22 443c 4bf8 92bd 07fa 673d 71de fd3c
000000f0: 509d ba3c 60be 50bd 1349 29bc d088 4c3a
00000100: 9751 b93d c75d 4ebd 128b 96bd 790d d1bc
00000110: ee4d 8abd b082 99bc 2ba3 84bd c19c 68bd
00000120: c842 173d 9fff 5a3c 4df1 11bd fdff 9a3d
00000130: 4c61 ebbc d1aa 4bbd aedf 8bbd d016 8b3a
00000140: 5f5e 57bc e986 4dbd 20bd aebd e5ea 61bd
00000150: 6bf8 40bc d01a 473d 09c3 733d aef6 b7bd
00000160: 434e 26bc ad13 223d cf55 0ebd 787f 96bd
00000170: 46a2 eebd 06c2 02bd a36d 39bd 626b cfbd
00000180: afa0 a63c f42d e8bc d777 c9bd bb20 7dbd
00000190: fd40 8ebd bbb7 04bc 651b 4abd 82fd fe3b
000001a0: a3a3 833d 4576 313d e179 78bd 82ff 9dbd
000001b0: 58a2 4bbd f5fb b9bd 98ca 10bd f499 94bc
000001c0: 31f4 7d3c 29ef 00be 42a4 9a3a 91d9 b7bc
000001d0: 1d13 8cbd c00a 94bc af28 8bbd f34c 35bd
000001e0: eb65 b7bd 6ffc dfbc 8fa9 c1bc 535b 7bbc
000001f0: 928d 1abd 06a5 91bd bf61 98bd 4179 d8bc
-0.021246932 -0.0017863207 -0.025143115 0.02746164 -0.12272634 -0.062246393 0.015401309 -0.0047283093
-0.056723483 -0.045560546 -0.007486124 -0.00841724 -0.07457016 0.03789012 -0.0399702 -0.019290332
0.04837444 -0.026315155 -0.1029367 -0.10614117 -0.117546655 -0.1448755 -0.09800632 -0.09356602
-0.10003518 -0.054025922 -0.008163629 -0.038289756 0.039432533 0.045972176 -0.099111 -0.06270777
-0.13254526 0.042006295 0.022786433 0.015547119 -0.06693632 0.042248737 -0.0065625636 -0.0219843
-0.032334123 -0.010918261 -0.11648234 -0.10266991 -0.07277054 -0.013095815 0.015001562 -0.068322636
0.09397744 0.039881323 -0.006593645 -0.0034305183 -0.03960497 -0.007639398 0.07374779 -0.04074171
0.011971037 -0.071762644 0.05663493 0.030989857 0.02278009 -0.050962806 -0.010332364 0.0007802369
0.09048765 -0.0503824 -0.07350744 -0.02551912 -0.06753145 -0.018739074 -0.06476434 -0.056790117
0.036928922 0.013366609 -0.035630513 0.07568357 -0.028732918 -0.04972345 -0.06829773 0.0010611657
-0.013145058 -0.05017749 -0.085321665 -0.055155654 -0.011777977 0.048609555 0.059512172 -0.08982597
-0.010150495 0.039569546 -0.034749802 -0.073485315 -0.11652045 -0.031923316 -0.045270573 -0.101279035
0.020340292 -0.028342225 -0.09837311 -0.061798792 -0.06945989 -0.008100445 -0.04934253 0.0077816853
0.064276956 0.04332568 -0.060663108 -0.0771475 -0.04971537 -0.0908126 -0.03534946 -0.018139817
0.015500114 -0.12591232 0.001179822 -0.022442611 -0.06839583 -0.018071532 -0.06794869 -0.044262838
-0.08954986 -0.02734205 -0.023640422 -0.015341598 -0.03773267 -0.07111554 -0.074405186 -0.026425006

network_body._body_endoder.seq_layers.2.weight f4 [128, 128]
00000000: 705e f8bc 3500 08bd 25e5 0ebe 934b f0bd
00000010: 16f6 c6bb c299 d43c 8f08 18be 31b2 00be
00000020: e59d 80bd b127 a3bd d7de f7bc 29e6 5dbd
00000030: 6a76 393d e66c d6bd 74d4 b4bc ae2c 043d
00000040: ece9 eb3d 715c b43a c3b1 16be 37fd b9bd
00000050: 7ee1 573d 9ed0 08bd b6a6 5e3c ceee 8cbd
00000060: 464a 803d efa9 3fbc d6c0 4c3b 731b 793b
00000070: d3e5 c53d 8fb4 ec3b fb19 ddbc 8569 643c
00000080: 516d 0b3e 3c25 133d f307 46be 7e6c d73c
00000090: 268d 2fbe 1980 2cbe f270 69bc 2123 993d
000000a0: b46d 04be cb67 b7be f671 d3bd d4a5 2c3d
000000b0: 5d52 76bc 0196 9bbe ad83 d83d 1456 2cbd
000000c0: 4cb6 d43d 7aa3 c43c 303e 68be f3ae 363d
000000d0: ddec 5bbd 2e7e 513e e2c9 b3be 45c3 00be
000000e0: 8b43 30bd b852 883d a2f4 38be b0fe 28bd
000000f0: 30e6 fcbc 2fa6 27be 39cf 2e3d 46d1 1c3c
00000100: d3e7 fa3c e78f f4bc 49d9 7b3e da34 9d3d
00000110: 9f36 0a3d 7914 273e 1614 3e3e 91d1 7e3c
00000120: 6946 92bc 3c9b b53b a000 3fbd 0aa6 0e3e
00000130: 6159 d03c a461 bfbc d05e a1be 8532 bdbd
00000140: 96c0 643d 0e56 8e3d 74ae c7bd 5a99 c4bd
00000150: f0c7 4ebe 4123 e6bd 624f 3cbd 2ccf 8ebd
00000160: 5bbc 87be 8046 3c3d 2b3b f43c 5f5f debc
00000170: e4d7 443e 8636 6b3d 6a65 3dbd 18f9 65bd
00000180: 0476 d13d c739 59bd 225b dabd dd7a 923c
00000190: 3d41 c8bd b1ee b03c e1e5 a6bd f226 d8bd
000001a0: 1991 333d 3a13 11be 5a2c bb3d 1869 223b
000001b0: ecf1 e93c f28a 663d f1e3 993d e02e e7bc
000001c0: 2761 413d de4b e8bd a255 8b3c 8a51 aebe
000001d0: 75b0 b33d 309c 4f3d 80e0 3fbd 39d0 93be
000001e0: 366a 3a3d 6b25 6cbe b75f 74bd b4a2 f9bd
000001f0: a401 a8bd 3fd3 afbc a396 0ebd 58f5 3ebc
00000200: 0759 acbd 493a b63d c7cf 543d 10d7 f9bd
00000210: 58da 86bc 4572 ae3d 2eb5 77be 00b3 043d
00000220: 8d22 303e 72e3 bbba 89b2 1fbd 90f8 913c
00000230: c0d7 043e 7d12 0b3e f757 413e 14b8 5d3e
00000240: 988d e33d 7c4f 24be adaa 2a3d deb5 833d
00000250: b681 f3bc 327f ecbd a706 033e ef63 82be
00000260: 17c4 b0bd 7aa2 3e3d a691 433e e97f 063c
00000270: 4d66 8a3d 41b0 3e3d 606e f3bd 3b04 263c
00000280: fbe1 183d 3bcb 6c3c 0303 2fbe 9d58 29bc
00000290: c37d 163e 0f35 41bd eb97 ebbd 5cfc f5bd
000002a0: 5323 5dbe 5eca 723c e1ec b3bd 666d eb3d
000002b0: edb7 dc3d 08f9 d73d 2ba2 1bbe 0452 d93d
000002c0: b1e2 febd a432 b43c f55e 08be eb64 94bc
000002d0: 2aa2 c53c 3bde 953d aeb0 bfbc 9786 df3d
000002e0: e0ef 063e da44 2cbe e338 133e aa6a 1d3c
000002f0: 2006 183e df68 993d c68f ecbc 86f8 adba
00000300: 7fde 233e 5a1c f63c 123e b03d ed8c 723d
00000310: 0a88 8a3b ce97 f3bd d7dd 333d 0f15 003e
00000320: 75c7 febd d675 62bd 6c15 aebc fb67 a63d
00000330: f72c 903d fead 08be daaf 99bd 2b68 8bbd
00000340: e9ee 21bd ae1e 9dbd a33c 123e 018b 403d
00000350: 4883 203c 5741 00be 6eeb 80be 932c 243d
00000360: eec1 bdbd 5544 d53d 97c2 d7bd 31d7 d33a
00000370: f46e 6b3c d5e0 15be 464f bb3d 9819 debd
00000380: 393b 8d3d 347a 573d 3be7 813d 4ed9 45bd
00000390: a0c2 103c 52e3 75bd e12f bbbd baf6 bd3d
000003a0: 2efb c73d 15db 9ebd 5f68 7d3b f7f6 1f3e
000003b0: c4ac 97bc 69e7 893e 45e6 11be 4cf2 5ebd
000003c0: 1678 903d 045a 0bbd 246c 023e f8cd 1d3e
000003d0: 41a4 23bd 8204 903c bd1c 75bd bfd5 49bb
000003e0: b94c 99bd 7b34 b83d 8ec8 8e3d 0c5a 933d
000003f0: 76b5 3bbd ffc9 9bbd bd4a c73c 92eb 3abd
-0.030318469 -0.033203322 -0.13954599 -0.11733165 -0.006071816 0.025952224 -0.14847015 -0.12567975
-0.06280116 -0.07966555 -0.030257626 -0.054174576 0.045278944 -0.104699895 -0.022073962 0.032269172
0.115192264 0.001376046 -0.14716248 -0.090815 0.05270528 -0.033402078 0.013589552 -0.06881486
0.062641665 -0.01169823 0.003124287 0.0038010746 0.09662976 0.0072236727 -0.026989928 0.013941173
0.1361592 0.03592418 -0.1933897 0.02629685 -0.17143688 -0.1684574 -0.01424812 0.074774034
-0.12932473 -0.35821375 -0.10324471 0.042150334 -0.015034285 -0.3038788 0.1057199 -0.042074278
0.10386333 0.024003733 -0.22679973 0.04460044 -0.053692687 0.2045829 -0.35114962 -0.1257449
-0.043033164 0.06656402 -0.1806207 -0.041258514 -0.03087148 -0.16371988 0.04267809 0.009571379
0.03062812 -0.029853774 0.24594606 0.07676096 0.033743497 0.16316403 0.1856235 0.015552894
-0.01785584 0.005542187 -0.046631455 0.13930526 0.025433244 -0.023361988 -0.3151765 -0.092381515
0.055847727 0.069500074 -0.09750071 -0.09599562 -0.20193458 -0.11237193 -0.045974143 -0.06973109
-0.2651089 0.04596567 0.02981337 -0.027145086 0.1922298 0.057425044 -0.046239294 -0.056145757
0.10227588 -0.053033616 -0.106619135 0.017880851 -0.09778068 0.021598192 -0.08149315 -0.10554303
0.043839548 -0.1416749 0.09139319 0.002478188 0.02855774 0.056284852 0.075141795 -0.028220594
0.047211792 -0.113425955 0.017008606 -0.34046584 0.08773891 0.05068606 -0.04684496 -0.288698
0.045511447 -0.23061149 -0.059661593 -0.12189236 -0.08203438 -0.021463035 -0.034811627 -0.011655174
-0.08415418 0.08897836 0.051955964 -0.12199223 -0.016461536 0.08517889 -0.24190208 0.03239727
0.1720068 -0.0014334752 -0.038988624 0.01781872 0.12972927 0.13581271 0.18881212 0.21652251
0.11110991 -0.16045946 0.041666675 0.06431173 -0.029724937 -0.11547698 0.12795506 -0.25466868
-0.08631151 0.04654167 0.19098529 0.008209207 0.067577936 0.046554808 -0.11886287 0.010132845
0.037324887 0.014452751 -0.17090993 -0.010336068 0.14696412 -0.04716974 -0.115035854 -0.12011024
-0.21595506 0.014818756 -0.087854154 0.114954755 0.107772686 0.10545546 -0.15198581 0.10611346
-0.12445582 0.021996804 -0.13317473 -0.018114528 0.024125177 0.07317778 -0.023399677 0.10914343
0.13177443 -0.1682314 0.1437717 0.00960795 0.14846087 0.07490706 -0.02887715 -0.0013272918
0.16002844 0.030042816 0.08605589 0.05921643 0.004227643 -0.11894189 0.043912735 0.12508033
-0.12440387 -0.05528816 -0.02125045 0.081253015 0.07039826 -0.13347623 -0.07504244 -0.06806978
-0.039534483 -0.07671867 0.14280944 0.047007564 0.009796925 -0.12524925 -0.2517962 0.04008157
-0.09265505 0.10413424 -0.10535162 0.0016162154 0.014369715 -0.14636548 0.091459796 -0.10844725
0.068960615 0.052606776 0.06342932 -0.04830294 0.008835465 -0.060031243 -0.091399916 0.09275575
0.097647056 -0.0775663 0.0038666946 0.15621553 -0.018514998 0.26934364 -0.14247997 -0.05443029
0.070541546 -0.034021392 0.12736565 0.15410602 -0.039951567 0.017580274 -0.05984186 -0.0030797569
-0.07485337 0.08994385 0.069718465 0.071949095 -0.04582735 -0.07606887 0.02432763 -0.045634814

network_body._body_endoder.seq_layers.2.bias f4 [128]
00000000: 8a3f 6e39 b8cb c73b dea1 09bd 7215 afba
00000010: c22e b1bc 9a82 a23c caee 56bb 59a5 07bc
00000020: f1f5 acbc 8795 48bc 076b d6bd b984 b4bc
00000030: 4d2c f1bd d7d5 0abc 9b2e bebd 1ca4 a4bc
00000040: 2eb9 4ebd a699 033d 7eff 0e3c 223c a0bd
00000050: 9d38 7abc 50a1 cc3c 3b21 1abd 1d8f 0fbb
00000060: 0f13 f8bc d1fd 093c 3c73 9f3a f353 37bd
00000070: fa38 7dbd 7be8 16bb 5742 59bd e279 1cbb
00000080: 4da0 7e3d f56f c33c a8f6 6fbd af59 983c
00000090: 8eca 1e3d e1d6 f8bb bda3 e03c 8c9d b7bd
000000a0: 4803 9dbd 506b 363c 0129 98b9 8f9b be3c
000000b0: 3686 a9bc a4eb e2bd d617 a8bc 9467 803d
000000c0: 232f fcbc a624 cbbb 73e7 74bd c5e8 0dbd
000000d0: 1439 65bd 821e 8ebd 1a1b 273a ce2e 89bc
000000e0: 5f72 4abd 3848 143c 323d debb f02e 81bc
000000f0: 3a44 8fbd 0a70 ddbb 4776 94bd 55c6 163d
00000100: 2192 f4bc 23e8 8dbd 61b1 17bd 21f2 acbc
00000110: 372b 903a d158 243b 5ee3 603c 6d5f a8bd
00000120: c206 753b cc7a 133c 8efe e43a 9b8c 5ebc
00000130: f0a0 81bd f730 563c 7eb3 04bd f8cf 2fbd
00000140: b078 9cbd e946 86bd 05ed 293d e1b1 c23b
00000150: 7bb2 41bd ea39 943c c38e 193b 9901 aabb
00000160: f74b 0bbc 7d25 f1bc 1aee 0abd d1f8 dbbc
00000170: c794 2d3d 9df8 a33c a247 63bd cb77 fbbc
00000180: e94f 78bd d493 0c3d b646 11bc 51d4 15bd
00000190: 1cec 13bc 0cba 79bd 5cbd 9abd 73a8 59bd
000001a0: 418b 07bd bda3 893c 6c54 89bd 5ddd 7abc
000001b0: f9e5 eabd f617 d4bc e30b b13c 3404 9ebc
000001c0: 9362 733c 4869 4bbd bd9f c43c f49b 0cbd
000001d0: c750 82bd 822a 0e3d e42a 503c d7c7 9ebd
000001e0: 4814 923d b70b 27bb f03a d83c e4b8 8cbd
000001f0: ebb8 bd3c 6aa5 52bd 3210 e8bc c6ac 473b
0.00022721119 0.006097283 -0.033601634 -0.0013357832 -0.021628741 0.019837666 -0.0032796138 -0.008279168
-0.021113368 -0.012242681 -0.104696326 -0.022035943 -0.11776028 -0.008473835 -0.09286233 -0.020097785
-0.05046957 0.032128952 0.008727906 -0.078239694 -0.015272287 0.024979264 -0.037629347 -0.002190537
-0.030282525 0.008422331 0.001216508 -0.044757795 -0.061821915 -0.0023026753 -0.053041782 -0.0023876359
0.062164593 0.023857096 -0.05858484 0.018597452 0.03876739 -0.007593975 0.027421826 -0.089655966
-0.076666415 0.011133984 -0.0002902225 0.023267535 -0.02069388 -0.11080101 -0.020519178 0.06269756
-0.030784195 -0.006199437 -0.05979104 -0.034645814 -0.055962637 -0.06939413 0.0006374583 -0.016745951
-0.04942548 0.009050421 -0.0067821974 -0.015769452 -0.06995435 -0.006757741 -0.07249122 0.036810238
-0.029854836 -0.06929042 -0.037034396 -0.02111155 0.0010999207 0.0025077353 0.013726084 -0.08221326
0.0037388061 0.009001445 0.0017470883 -0.013583328 -0.063295245 0.013073198 -0.03239774 -0.042922944
-0.07640207 -0.06556494 0.041485805 0.005941615 -0.047289353 0.018094022 0.002343104 -0.0051881787
-0.008501998 -0.029436821 -0.033918478 -0.026852043 0.042378213 0.020016009 -0.055488236 -0.03069677
-0.060623083 0.034320667 -0.008866956 -0.036579434 -0.009028461 -0.060968444 -0.07555649 -0.05313916
-0.033091787 0.01680171 -0.06705555 -0.015311566 -0.11469645 -0.025890332 0.021612113 -0.019289114
0.014855045 -0.04966095 0.02400195 -0.034328416 -0.06363063 0.034708507 0.012705538 -0.0775296
0.071327746 -0.002548916 0.026395291 -0.068712026 0.023159465 -0.051427282 -0.028328035 0.0030467971

action_model._continuous_distribution.log_sigma f4 [1, 4]
00000000: 43e9 84be 9630 85be a64e 1abf 31d6 75be
-0.25959215 -0.2601363 -0.6027626 -0.24007489

action_model._continuous_distribution.mu.weight f4 [4, 128]
00000000: 36f8 59bd 8688 bd3c b811 8d3d b79f 0c3d
00000010: 5381 dc3c 491f b7bd c2f9 46bd 8539 6fbb
00000020: f0dc a53d 722a 9f3d 7078 443d a2a8 e9bd
00000030: 40cb 983c 6dcb 34bd ad85 dd3d 7f77 463d
00000040: 8666 3d3c 590d 48bd c1c7 90bd b41f b73d
00000050: 4d78 803d a7b7 d2bb 7cb5 de3c d258 d13b
00000060: 837d 2b3d eabb 6b3c 175e bd3d c3ef 063d
00000070: fe59 be3c 9e0a 283d f8f3 2f3c bc9f e23b
00000080: 11c1 b1bd ad26 1aba bccc a23d 68d6 10bd
00000090: a5bb 8bbd c410 0a3c 93d0 443c badf 433d
000000a0: bde7 fa3d 2327 1cbd bba1 033d ac5c 2abd
000000b0: a2f0 383d a5e3 bc3d 3609 b03c 73f2 abbd
000000c0: 46b9 1c3d 82b9 3a3d fd0a f3bc 457a 8f3c
000000d0: ddf6 d83d 4ff3 de3d 6942 323c e981 383c
000000e0: 83a3 2e3d da58 27bd 2743 973d 2869 843c
000000f0: 9983 133d b5e1 0dbd 4f71 1f3d 732e a53c
00000100: 408e bc3c 5543 9e3c d329 853d 5b04 113d
00000110: 06da 4e3d c9bd d63d f2eb b23d b6c1 c03c
00000120: 344d 083c 2eec 8e3a 175d 2abd c759 99bc
00000130: 2196 843c 93b8 073d 02f5 1c3d 51b8 29bc
00000140: 2ca9 e53d 5e86 483d 84bc 10be 9b61 8fbd
00000150: fa92 06bb d449 8fbc c3cc f63c 6645 34bd
00000160: 5899 b03d 4abe 653d d6d2 5a3d d43d 183d
00000170: c08c 8bbd 4d9e a33d db23 1c3b d5d6 7e3c
00000180: c4aa c839 27fe 09be 5532 05bd 3a5b b83d
00000190: 4c30 563d 5463 0b3e b8b1 3f3d 7251 953d
000001a0: 0e39 13bc 7ea2 25bd ad82 ae3d b462 893d
000001b0: f239 5f3d 9a10 af3d 52bd 803d 7c57 c43d
000001c0: d2c1 a33c 85c2 a13d ccfc b3bd 0f4a 773d
000001d0: 1ffe f83b 5704 9c3c 4a2e 293d 3ff2 3f3d
000001e0: 5317 02be a5d1 deba 7b5f fe3d a6ca 573d
000001f0: 5707 0cbc e779 f43b 7016 c13d 22aa 783d
00000200: e513 583d 15a5 31bd 3d8e 2e3d e890 ecbc
00000210: f176 4f3d aa03 8fbc 8cba 1ebc f94f 2dbd
00000220: dde7 5fbd 815a 4abd 42d8 cfbc 30a9 9bbb
00000230: 9207 8c3b 96cb 54bc 0565 e1bc 6a35 843d
00000240: 5e82 56bd a7de 853d f886 b13d c730 2e3d
00000250: 2644 6d3d e6f4 873d 0dec 7bbd e99d 303c
00000260: 78bf 343d 8f86 8bbc ee92 4d3d 4d41 1bbb
00000270: c87f 84bb cbfc e4bc 0cd4 943c da63 dd3d
00000280: 18a8 38bd af98 17bd b0ea 9abc 1824 1c3d
00000290: b202 943d 6dd8 bbbd fa92 33bd 6d68 953b
000002a0: 20a0 553d 3e35 6ebd 5902 123d c69d ca3d
000002b0: e62d d6bc 3cf1 0cbd 4d8d a13d f9c9 a33d
000002c0: 80a1 07bd 7d40 5abd 4246 9b3b e2f5 5f3d
000002d0: 1934 163d 9cea 9f3c c04f 56bd ac46 8e3c
000002e0: 229f 0abd 69df 25bd a89e 9e3b 7bb2 a1bc
000002f0: dad0 0ebd 280a af3b c000 3bbd 4e6f 243d
00000300: 5339 8dbc 3dd4 e43c 5650 89bc cbf7 8ebd
00000310: fad2 3fbd 6bed 26bd f733 bdbc 8b24 1ebc
00000320: 1585 cc3c 6322 2a3d 57af 27bc f51c 5b3d
00000330: ddbf 003c 942a f3bd 4272 b5bb d8d1 66bb
00000340: f3da 24bd 18e4 4a3c a899 953d a1b5 c43c
00000350: 54d1 af3d c518 9fbd c086 a1bc 8a44 aebc
00000360: 770b b2bc d3bc 8c3c a647 1cbd 1fb6 043d
00000370: 3b6c f2bc 329d 7abd 46e5 3cbd 91f5 04bc
00000380: 1ec3 63bd d4a0 c03b b6e4 35bb 2b9a b0bd
00000390: fbf9 a33a 7645 cbbc a402 0a3c 62fb 313b
000003a0: d65b 1ebb 211c 443c b026 1ebd 94ab 97bc
000003b0: f001 443b fb85 213d da99 a93c a213 51bd
000003c0: ba50 10bd ee58 803c 7a90 863c fc5d 893d
000003d0: 00a0 e8bb 4edd 74bc 1092 883d 7c9f c7bb
000003e0: 8aef febc 1fc2 053d 9a1a 01bc 17c2 dfbc
000003f0: 82c2 a33b 73c2 48bd 150f 253b e2e9 e8bd
-0.053215228 0.023136389 0.06888145 0.034332003 0.026917135 -0.08941514 -0.04857803 -0.003650279
0.08098781 0.07771768 0.04796642 -0.11409117 0.018651605 -0.044139314 0.10816512 0.048453804
0.011560088 -0.048840854 -0.0706935 0.08941594 0.062729456 -0.0064305845 0.027186148 0.006388762
0.041867744 0.014388064 0.09246462 0.0329435 0.023236271 0.04102575 0.010739319 0.0069160145
-0.086794026 -0.0005880397 0.07949206 -0.035360724 -0.068229 0.008426849 0.012012619 0.047820784
0.12251232 -0.03812326 0.03213666 -0.041592285 0.04515136 0.09223107 0.021488767 -0.08395853
0.038262628 0.04558707 -0.029668326 0.017514357 0.105939604 0.10886251 0.010880091 0.011261442
0.042636406 -0.04085622 0.07385855 0.016163424 0.036014173 -0.03463908 0.03892642 0.02016375
0.023017049 0.019319216 0.06502118 0.035404544 0.050500892 0.104854174 0.08736409 0.023529869
0.008319188 0.0010904127 -0.041592684 -0.018719567 0.016184868 0.033135008 0.038319595 -0.010358886
0.112139076 0.048956268 -0.14134413 -0.07001039 -0.0020534382 -0.017491259 0.030126935 -0.044011496
0.08622998 0.056089677 0.053423725 0.03716834 -0.06813955 0.07989178 0.0023825082 0.01555415
0.00038274203 -0.13475858 -0.032518703 0.09001775 0.052292153 0.1361211 0.046800345 0.07290925
-0.008985771 -0.040438168 0.08521018 0.06708279 0.05449862 0.08548088 0.0628611 0.09586999
0.019989882 0.0789843 -0.087884516 0.060373362 0.007598653 0.019045038 0.04130391 0.046861883
-0.1270421 -0.0016999735 0.12420555 0.052683495 -0.008546672 0.007460821 0.09428108 0.060709126
0.052753348 -0.043370325 0.042616118 -0.02887769 0.05065054 -0.017457802 -0.009688031 -0.042312596
-0.05466448 -0.049402718 -0.025371674 -0.0047503933 0.0042733634 -0.012987992 -0.02751399 0.064555004
-0.05237042 0.06536608 0.08668321 0.042526986 0.05792632 0.066385075 -0.061504412 0.010779836
0.04412791 -0.017031936 0.05018895 -0.0023690045 -0.004043553 -0.027952572 0.018167518 0.10810061
-0.04508218 -0.037010845 -0.018910736 0.03812036 0.072270766 -0.09172139 -0.04384134 0.0045595677
0.05215466 -0.058156244 0.03564677 0.09893374 -0.026144933 -0.034409747 0.07888279 0.079975076
-0.033113003 -0.053284157 0.0047386 0.05467785 0.036670778 0.01952105 -0.05232215 0.017367683
-0.033843167 -0.040496264 0.0048406906 -0.019738426 -0.034867145 0.005341787 -0.045655012 0.04014521
-0.017239248 0.027933234 -0.01676194 -0.069808565 -0.046832062 -0.040753763 -0.023096068 -0.009652267
0.024965802 0.0415367 -0.010234675 0.053494412 0.007858244 -0.118733555 -0.0055373022 -0.0035220291
-0.04024787 0.012383483 0.07304698 0.024012389 0.08584848 -0.07768396 -0.019717574 -0.021272916
-0.021733982 0.017179882 -0.038154267 0.032400247 -0.029592624 -0.06118507 -0.04611709 -0.008115188
-0.055606 0.005878547 -0.002775473 -0.08623155 0.0012510413 -0.024813395 0.008423481 0.0027157892
-0.0024163625 0.011969597 -0.038611114 -0.018514432 0.0029908381 0.039434414 0.020703245 -0.051044114
-0.035233237 0.015667405 0.016426314 0.06707379 -0.0070991516 -0.014945341 0.06668484 -0.00609201
-0.03112008 0.03265583 -0.007879877 -0.027314229 0.0049975524 -0.049013566 0.0025185992 -0.113727346

action_model._continuous_distribution.mu.bias f4 [4]
00000000: 0030 bebd 5030 073d 6faa 143d bdac 33bb
-0.09286499 0.03300506 0.03629535 -0.0027416192
