results/Test2/MoveToGoal/MoveToGoal-22500.onnx (onnx, 73419 bytes, 7 tensors)

network_body._body_endoder.seq_layers.0.weight f4 [128, 6]
00000000: dbc2 29be 8909 423f 0f83 1dbd b63b 7b3f
00000010: 83c5 06bf 23a6 07be fa95 00bf fc37 383f
00000020: fc9a f5bd 504f 13be 07b2 23bd b7b3 773e
00000030: 7fa4 42bf b48e 073e 5548 a1bd daba 243d
00000040: ad5e 1e3f 4964 d13e 87d4 3f3e 951d 75be
00000050: 21ad 513e dedd 093f d161 3ebf e3c0 e33e
00000060: d88e d2bd 9c35 d93d 9aae ce3d d947 2d3e
00000070: 2d96 21bf 2262 8f3e 5655 663f 4930 c33e
00000080: ea46 89be 0129 523d 6858 fa3e 52b6 493e
00000090: 9b5f 13bf 7b24 2d3e 98c8 8ebd 59ef 7bbd
000000a0: 0f06 f8bd 3e64 783d 2c29 003e 3121 c43d
000000b0: df72 8a3d 3573 ccbd af9c a8be 434b 6c3d
000000c0: 5de9 e03e 0e90 1abf 08c2 af3d ea94 113e
000000d0: fd77 97be 856c 1c3e c2e6 44bf ce63 d9be
000000e0: 6c3e 1dbe 3274 743d ba63 a93e 5f51 fc3e
000000f0: c2ef 003f 1d5b 413f 1bd6 843d 40dd b53d
00000100: 42a7 193f f4e4 dc3b 079c a5be dff6 703e
00000110: 65fc 4b3e 6c4a 413f 1837 1cbd 15a0 88be
00000120: bc94 c5be 5890 c43e 56e5 ffbe 36b1 2ebd
00000130: 157a d83d c761 713f a8d1 1dbf 6abb b83d
00000140: 728c 693e 4deb e3bd 9983 8dbf d15e 0abf
00000150: cc9f 463e 54ed 3abe dc57 0f3e a641 0f3f
00000160: 014a 99bd a233 033f 3410 8abd be51 0d3f
00000170: fe46 46be 3003 fcbd e08d d43e 6d5d 98be
00000180: a305 56bf ae49 e23d 04c7 b3bc 2e85 263f
00000190: 35e8 083f cd07 8ebc 8957 a6be 2093 553f
000001a0: b37a 113d faa4 01bf 9a9b 0a3f 7a66 abbe
000001b0: b354 e9bd adf3 2f3e 250f 1abf f53a da3e
000001c0: 3853 783e 2da3 9abe 517e f1be d624 13bf
000001d0: ffc8 103f 02e9 bd3e 3116 52bd ea53 6abc
000001e0: 7ab5 cdbe d42e 063f 06b0 53bf f01c 723d
000001f0: 359d 7fbe 30c5 3ebe f2a2 863e 9b4e 353c
00000200: f481 52bf 83e3 ae3e 7e50 4fbe 7053 08be
00000210: f6fe 1cbd ce20 e8bd aaa9 7b3d 821e 0e3f
00000220: cd0e adbe e7e4 c63d b45b a53d 7b46 583f
00000230: c702 8b3c a1e1 b1be 8b5d 55bd ce41 593f
00000240: 483b 0f3b fb47 9fbc 5853 603e 1536 943e
00000250: 1cab cfbe 76a6 4c3f 99b9 683e fd8e ebbd
00000260: 2b49 fe3e 53d4 25bf 3201 8c3e 34a3 243f
00000270: d57f a53e 43fb 09bf 1ab0 fd3e f7ed 88bd
00000280: dab6 01be 0b72 6bbd 782d c33e 1180 ba3e
00000290: 1ce3 063f 98ab 35be bc5e 97be 25ac 523d
000002a0: 17b6 f83d 01bd be3d 403e 20bd d7a2 89bc
000002b0: 5495 30bf ceff 7f3e bfce ddbc 71e5 7c3e
000002c0: 7616 513e fcfe 2ebe 4add e0be 5117 3dbd
000002d0: 65df 563f 8a7f 06bf ea84 793f f8b6 8b3e
000002e0: 52a6 46be 86fa 72be 67a2 dcbd 00cd 613e
000002f0: 23fb 313f a939 c7be d0eb 593e 606a 1c3e
00000300: a627 fbbe b989 43bf e000 1c3f 54ab 3dbf
00000310: 5887 da3e 467e ed3c 8a53 053e e370 83be
00000320: 96c6 a93e 5609 d1be aaeb 3c3d 6fe3 e33e
00000330: 9203 c43e d4da 213e e803 263f e765 073e
00000340: 6cf4 203f 2662 343e 5798 153d 91e3 823e
00000350: 3efd 4ebf 664a 083f bc67 c83e 6808 7abe
00000360: 5b7c 1e3f c66f 94be 4fb4 8d3e 7a4e 053f
00000370: 4efb b7be b3d6 023f 716b 163e b54f 923d
00000380: 5fc3 bdbe c551 14bf aa7f 29bf 9958 1d3e
00000390: 34f1 77be 0499 a1bd 3390 b1be 77f1 84be
000003a0: 7e5b 75bf bc58 13be ac6e 14bd 2261 9c3e
000003b0: f1f4 f2bd d688 8dbf 5913 44bf 7416 e03e
000003c0: 36e2 f33e 832c 833f c3a4 943e e91d 09bf
000003d0: a234 33bd 4dca 66be d50b f73c 9483 19bf
000003e0: 3007 443c 538d eebd 08e9 113f fa1e aebe
000003f0: 1ef6 ad3e ca9d 2a3e a53b 233e 09ee fcbd
-0.16578238 0.757958 -0.038455065 0.98137987 -0.5264513 -0.1324697 -0.50228846 0.71960425
-0.119924515 -0.14385724 -0.039964702 0.2418965 -0.7603225 0.1323803 -0.07875124 0.040217258
0.61863214 0.40896824 0.18733416 -0.23937066 0.204762 0.5385417 -0.74368006 0.44483098
-0.102811515 0.10605928 0.10091896 0.16921939 -0.63119775 0.28004557 0.8997396 0.38122776
-0.26811916 0.051308636 0.48895574 0.19698456 -0.5756776 0.16908447 -0.06971854 -0.061507557
-0.121105306 0.060642473 0.12515706 0.09576643 0.06760191 -0.099829115 -0.3293204 0.057688963
0.43928042 -0.6037606 0.085819304 0.14216962 -0.2958373 0.15275772 -0.7691461 -0.42458957
-0.15355843 0.059681125 0.33083898 0.4928083 0.5036584 0.7552965 0.0648615 0.08880091
0.6002084 0.0067411605 -0.32345602 0.23531674 0.199205 0.75504184 -0.03813848 -0.26684633
-0.38590038 0.38391376 -0.49979657 -0.04264947 0.1057016 0.9428982 -0.61648035 0.090201214
0.22807482 -0.111288644 -1.1055785 -0.5405093 0.19396895 -0.18254596 0.1399836 0.55959547
-0.07484818 0.5125066 -0.06741372 0.55202854 -0.19363019 -0.123052955 0.41514492 -0.29758778
-0.8360235 0.110492095 -0.021945484 0.65046966 0.5347932 -0.017337704 -0.3248866 0.8342762
0.035517406 -0.5064236 0.5414368 -0.3347662 -0.11393108 0.17182799 -0.6017936 0.42623106
0.24250495 -0.30202618 -0.47166684 -0.5747808 0.56556696 0.37091833 -0.051290695 -0.014302233
-0.40177518 0.52415204 -0.82690465 0.05910963 -0.24962313 -0.18629909 0.26296192 0.011066104
-0.8222954 0.34157953 -0.20245549 -0.13313079 -0.038329087 -0.11334382 0.0614411 0.555153
-0.33800355 0.097116284 0.080741316 0.84482545 0.016969098 -0.34742454 -0.052091163 0.84866035
0.0021855403 -0.019443503 0.21906793 0.2894751 -0.40560234 0.799415 0.2272705 -0.11501882
0.49665198 -0.64777106 0.27344662 0.6431153 0.3232409 -0.5389902 0.49548417 -0.06686013
-0.12667409 -0.057481807 0.38120627 0.36425832 0.5269029 -0.17741239 -0.29564464 0.0514337
0.12144106 0.093133934 -0.039121866 -0.01680128 -0.68977857 0.24999925 -0.027076123 0.246969
0.20418724 -0.17089456 -0.4391883 -0.046164814 0.83934623 -0.5253836 0.97468436 0.27288032
-0.19399384 -0.2372838 -0.10773163 0.22050858 0.6952383 -0.3891118 0.21281362 0.15274954
-0.49053687 -0.76382023 0.60938835 -0.7408955 0.42681384 0.028990876 0.13020149 -0.25672063
0.33159322 -0.40827435 0.046123184 0.44509456 0.38283974 0.15806133 0.6484971 0.13222466
0.6287296 0.17615566 0.036522236 0.25564244 -0.80855167 0.53238523 0.39141643 -0.24417269
0.619085 -0.28991526 0.27676627 0.5207287 -0.35933918 0.51108855 0.14689423 0.07144109
-0.3706312 -0.5793727 -0.66210425 0.15365829 -0.24213105 -0.078905135 -0.34680328 -0.25965473
-0.9584273 -0.14389318 -0.036238357 0.30542856 -0.11863125 -1.1057384 -0.7659202 0.4376713
0.47633523 1.0247959 0.29031953 -0.53561264 -0.043751366 -0.22538109 0.03015701 -0.599664
0.011964604 -0.11648049 0.569962 -0.34008008 0.33976835 0.16661754 0.15940721 -0.12350089

network_body._body_endoder.seq_layers.0.bias f4 [128]
00000000: dfe2 06bb c031 773a d5e2 5d3a 358e c5ba
00000010: f370 9f3a 4e27 76bb d9eb daba 73b4 513a
00000020: e2c5 16bb 0e27 d3ba a756 bcba 0234 74b9
00000030: b12b 013a cc86 e3b9 154a 1f3b 03bd 1e3a
00000040: ed29 ccbb d7d8 1dbb 7f03 073b cd73 c33a
00000050: dbf4 1f3c 03a9 be3a 3ee7 82ba d98f 03bb
00000060: 3105 98ba e07a b7b8 46c9 34bb 31f5 65bb
00000070: 8596 afba d8be 1b3b 0928 2cbb ab07 f6ba
00000080: 1e38 8f39 69d4 df3a 2f02 95bb 32bc b13b
00000090: df44 a5bb fa66 27bb b1e9 eaba 45a5 92ba
000000a0: 1baf 1fbb e39c 2fb9 599d 1dbb 55d2 4e3b
000000b0: a160 243a 36df d7bb 5f7b 523a 63f9 473b
000000c0: d8a8 a33b 05a8 013a e578 d63a d194 dfba
000000d0: 4f52 41bb b78b 1bbb 8628 093b 5359 82bb
000000e0: 7ee7 9bbb 30a7 95bb fc3b 85ba 0cd6 c83a
000000f0: b28e ab3a d9e7 bbbb b77c 02bb 7746 e3b9
00000100: cecc 403b 3c12 f03a 284a c3bb ed51 14bb
00000110: dd22 283b 844e 233a 2200 2039 046b ab3a
00000120: 6b5b b8ba 93f2 b5ba acbc 13bb 793f c13a
00000130: b4ca 75b9 570a 31bb d667 41ba 0ea7 bdba
00000140: c7b2 50ba 96c3 beba cc21 683a 4836 e4b9
00000150: 8734 43bb d1fe 803a 78da abba fca0 133c
00000160: 579e 93bb 383c 1938 9766 e23a 77a0 f5ba
00000170: ee06 1dbb e942 53bb 5693 1d3b 60ee 9cbb
00000180: c675 dc3a 4af5 033a 1306 a3ba becd 1cbb
00000190: 31d7 b539 d32d b1bb d249 103a edeb 81bb
000001a0: b5ff aa3a 14e6 d03b d4d2 0bbb 2771 f3bb
000001b0: 0101 963a a83c 0ebb 49c5 c6ba 47c8 89ba
000001c0: 92db fc3a b68d c5b9 2ed1 973a ccca 173b
000001d0: 1cf9 a23b 0709 6ab9 ac67 4eb9 70d6 0cba
000001e0: 7c9d f2ba f54a bbb8 1467 2fbb 36c4 4fbb
000001f0: 333b b4bb 2699 36bb 7f96 e3ba 125e e43a
-0.0020582003 0.00094297156 0.00084642816 -0.0015072288 0.0012164399 -0.0037560049 -0.0016702368 0.00079996063
-0.002300613 -0.0016109662 -0.0014369086 -0.00023289028 0.000492747 -0.00043397245 0.002430563 0.00060553866
-0.006230584 -0.0024085545 0.002060145 0.0014911831 0.009762968 0.0014546219 -0.0009987128 -0.0020074754
-0.0011598227 -8.749007e-05 -0.0027585789 -0.0035088772 -0.0013396299 0.0023764875 -0.002626898 -0.0018770596
0.00027316896 0.0017076853 -0.0045473794 0.005424046 -0.0050436105 -0.0025543557 -0.0017922429 -0.001118817
-0.0024365846 -0.00016747745 -0.0024050085 0.0031558473 0.00062705023 -0.006587888 0.0008029248 0.0030513636
0.004994493 0.00049459963 0.0016362934 -0.00170579 -0.0029498523 -0.00237344 0.0020928695 -0.0039779334
-0.0047578206 -0.0045670494 -0.0010164971 0.001532258 0.0013088791 -0.0057344255 -0.0019910762 -0.00043349314
0.0029418948 0.0018315981 -0.005959768 -0.002263184 0.0025655546 0.0006229656 0.00015258839 0.0013078158
-0.0014065331 -0.0013881497 -0.0022542877 0.0014743648 -0.00023440534 -0.002701422 -0.00073778385 -0.0014469342
-0.000796121 -0.0014554139 0.0008855134 -0.00043527992 -0.0029785947 0.0009841566 -0.0013111373 0.00901055
-0.0045049596 3.6534126e-05 0.0017273006 -0.0018739839 -0.002396043 -0.0032235926 0.0024044118 -0.0047891587
0.0016819767 0.00050338043 -0.0012437723 -0.0023926343 0.0003468334 -0.005407074 0.0005504164 -0.003964892
0.0013046177 0.0063750837 -0.002133538 -0.0074292603 0.0011444391 -0.0021703634 -0.0015164997 -0.0010511958
0.0019291511 -0.0003768035 0.0011582726 0.0023161648 0.004973544 -0.00022319342 -0.00019684312 -0.000537253
-0.0018510069 -8.930817e-05 -0.002676432 -0.0031702644 -0.005500221 -0.002786228 -0.0017363577 0.0017423055

network_body._body_endoder.seq_layers.2.weight f4 [128, 128]
00000000: bf16 143e 832c 583e 8477 8d3d ed54 f43d
00000010: dae0 113e 2e87 ca3d 5c07 183e ea76 8b3d
00000020: c9b2 f4bb b138 143d e08a 34bd bef9 933c
00000030: da54 a2bd 4c64 ffbd d25e be3b 6558 0cbd
00000040: 6bf3 04bd 107d aa3c 81e7 053d aa4c e53d
00000050: a2b7 abbc 083a 863d 9fdf 3a3d 7d53 35be
00000060: 6caf fe3d 1cbb 1b3e d5e4 f33d 69d5 043e
00000070: 12d9 ab3d ea53 48be fc52 31bd e7bd ba3d
00000080: f756 16be 3127 b8bd 1455 56bc 9d5f b83d
00000090: 6ff4 18bd 68ef 0dbd bba6 713d 4ad3 f1bc
000000a0: 025a ec3b 191b ebbd 8781 663c 613c 3a3d
000000b0: 5218 5dbc 895f e53d 6654 9c3d 99f0 20be
000000c0: 561f 1abd 2be3 aebd aee2 0a3c a2fe ea3c
000000d0: 68db 13bd 051f 163c 54ba 14be 6b14 1abe
000000e0: 2a3f abbd f35d 3b3e 2f2d e53c 1a66 27bb
000000f0: 0ff4 3f3d f91f 0aba f279 aebd f2e2 993d
00000100: 4997 4039 409c 7bbc 4a18 e9bb f81d 62bd
00000110: 9fc6 6c3d 0af5 9f3d dad8 23bd c1af 353e
00000120: 4e36 a9bc e189 193e e537 37bd b49b 3ebc
00000130: ff9f 993c ded0 01bc 21a6 333c d696 e43d
00000140: c3c2 7e3d bcf9 b33d 6816 f63b 4dd9 a9bd
00000150: 85aa 623d 1365 a23d 3884 1abc 7c0c 6dbd
00000160: cf65 e5bd 741d 753d 6d9c 96bd 852a 873d
00000170: 377d a4bc 6803 8fbd e44f f33c d903 703d
00000180: 44bb ba3c cd40 a23d f2d3 a5bd 9b00 033e
00000190: e9f2 d0bc 0600 c0bd a2eb 15be d5fb fcbd
000001a0: 429a 8a3c b662 86bd 38a1 473e b8c0 283d
000001b0: b934 26bd fd92 fb3d 2a2d 09be 2434 1abe
000001c0: 38db a53d a2da 043e 831e 953d 1388 ebbd
000001d0: ff77 693d 3227 633c 254b 7ebd cb9d 87bd
000001e0: d9ff d1bc 1ff3 883c 6dab 2c3e a9f5 81bd
000001f0: 29f4 46bc c45d b03d 9d04 eb3b 8071 75bd
00000200: 2dc5 93be f613 623e ae00 8fbd 2c80 1ebd
00000210: 3cc2 683d 4a10 9fbd 4827 6bbd 6939 e13c
00000220: 2985 d43c 3264 c43d b3fc 4ebd e495 793d
00000230: d351 87bb c4e8 2f3d c973 d4bd cb36 e03d
00000240: 6529 afbd b201 edbd c821 0d3d 583f 893e
00000250: ce9c a3bd 7296 ff3d 709d fbbd b06d 3ebd
00000260: a6d6 763d df6f cebd 241e bfbd 97d7 7d3d
00000270: 76a0 80bd 1a27 ba3c 84c5 afbc c9ba cd3d
00000280: 2ffa b93c 5a48 cfbd e62e 9dbd bdcd b23d
00000290: 1bf5 ea3d fc82 513d d1ab 01be f020 3b3e
000002a0: 1b6b a3bd 89ab 44bd d1a0 193c d3e2 d5bb
000002b0: 78e4 013d f3f6 07be 9032 223e 2041 0f3d
000002c0: 4bcd 20be fc6a 113e 400c 003a 41ae 87bd
000002d0: 0fcf 373d b589 eb3c 035c 0d3d 904e f13c
000002e0: 14cf b73d f37c fe3c d8aa 25be cf98 113e
000002f0: 4ab1 233c 5580 7b3b 5118 993c 9ccf c4bc
00000300: b0aa 8abd fe12 5c3d d7c2 653d 752d d93c
00000310: a95f c6bd 6514 eabd ca5c 993d c316 0e3e
00000320: 19e3 063d 29bd 6ebe f25b 2d3d 02d1 d6bd
00000330: c0ef 13be 1126 a1bd 7034 1c3d 811f 2abd
00000340: 4d8d ccbd 5b6d 41be 1808 dd3c 3ee7 a5bc
00000350: 20ea 96bd a7c8 f03d be58 093e 023b 9c3d
00000360: e151 8abd 3fdc dfbc 64f1 abbd f57e a33c
00000370: 94fa 22bd 6afa 2bbe f83b de3c db08 4dbd
00000380: 98fc 943d 5d21 323d 044a 87be c2b1 78bc
00000390: 5d40 0f3e 49de 9f3d f8ab ddbd 17f8 56be
000003a0: 0d5c 11bc 9f8e 1b3e 9dbf 4abd e558 9bbc
000003b0: bf5d 583c 4849 d03d 0eeb a23e f0c3 03bd
000003c0: 2a3b 4b3b 3795 9bbd da2a fcbd 4257 b0bd
000003d0: b139 cfbd 544a 163e 88d4 31bc 3acf 503b
000003e0: 6014 5e3d 75c5 513d 51a3 f23d 5b3f 333e
000003f0: 53b9 04be fb30 23bd 6460 b839 74ce e13d
0.14461802 0.2111073 0.069075614 0.11930261 0.1424593 0.09889065 0.14846557 0.068097904
-0.007467602 0.036186878 -0.044077754 0.018063422 -0.079263404 -0.12470302 0.0058096433 -0.034263987
-0.032458704 0.020811588 0.032691482 0.11196263 -0.020961586 0.06554037 0.045623418 -0.1770763
0.12435803 0.15208095 0.119088806 0.12972035 0.08391012 -0.1956326 -0.04329203 0.09118252
-0.14681612 -0.0899185 -0.013081808 0.09002612 -0.037342485 -0.034652144 0.058996897 -0.029519696
0.007212878 -0.11479778 0.014068968 0.045467738 -0.013494568 0.111998625 0.07633285 -0.1571678
-0.03762754 -0.085394226 0.008476896 0.028685872 -0.036097914 0.009162669 -0.14524204 -0.15046851
-0.08361657 0.18297558 0.027975647 -0.0025543035 0.04686361 -0.00052690465 -0.08519353 0.075139895
0.00018366905 -0.015357077 -0.007113491 -0.05520436 0.057806607 0.07810409 -0.040001728 0.17742826
-0.020655777 0.14994003 -0.04473104 -0.011633802 0.01875305 -0.007923333 0.010964901 0.11161582
0.062197458 0.087878674 0.0075099953 -0.082934 0.0553384 0.079294346 -0.0094309375 -0.057873234
-0.11201059 0.05984254 -0.073540546 0.06599907 -0.020079238 -0.069830716 0.02970118 0.05859742
0.022794373 0.07922516 -0.08097066 0.127932 -0.025506454 -0.093750045 -0.14640668 -0.12352721
0.016919259 -0.06561796 0.19495094 0.041199416 -0.040577624 0.12283895 -0.13396135 -0.15058953
0.08098453 0.12974027 0.0728121 -0.115005635 0.056999203 0.013864325 -0.062083382 -0.066218935
-0.025634693 0.016717492 0.16862269 -0.06345684 -0.012143173 0.086116344 0.007172181 -0.059922695
-0.2886137 0.22077927 -0.069825515 -0.038696453 0.05682586 -0.07766779 -0.05741051 0.027493196
0.025942402 0.09589423 -0.05053396 0.060933962 -0.0041296273 0.042946592 -0.10373647 0.10947951
-0.08552817 -0.11572589 0.034456044 0.2680614 -0.079888925 0.12479867 -0.12285888 -0.046491325
0.0602633 -0.100799315 -0.09331921 0.06197318 -0.062806055 0.022723723 -0.021456487 0.10045392
0.022702305 -0.10121222 -0.07674961 0.08730648 0.114725314 0.051150307 -0.12663199 0.18274283
-0.07979413 -0.04801515 0.0093767205 -0.0065272837 0.031712025 -0.13277797 0.158396 0.034974217
-0.15703313 0.14200968 0.0004884638 -0.06625033 0.0448752 0.028752187 0.034511577 0.029456407
0.08975044 0.03106544 -0.16178453 0.14218448 0.0099909995 0.0038376052 0.018688353 -0.024024777
-0.06770837 0.05372905 0.056094017 0.026510933 -0.096862145 -0.11429671 0.07488401 0.1387587
0.03293142 -0.23314346 0.042324014 -0.10489084 -0.14446926 -0.07868589 0.038135946 -0.04153395
-0.099878885 -0.18889372 0.026981398 -0.020251866 -0.073688745 0.117570214 0.13412759 0.07628442
-0.067538984 -0.027326701 -0.08395651 0.019957999 -0.03978975 -0.16794744 0.027128205 -0.050057273
0.07274741 0.04348885 -0.26423657 -0.0151790995 0.13989396 0.078060694 -0.10823816 -0.20993076
-0.008872044 0.15191124 -0.049499143 -0.018963287 0.013205945 0.10170227 0.31819957 -0.032169282
0.0031010606 -0.0759682 -0.12312861 -0.08610393 -0.10118426 0.14676791 -0.010853894 0.0031861798
0.05421865 0.0512137 0.118475564 0.17504637 -0.1296132 -0.039841633 0.00035167031 0.11025706

network_body._body_endoder.seq_layers.2.bias f4 [128]
00000000: dc61 0dba 5ee0 a63a 39d0 f0ba ecd5 17bb
00000010: 81ef c13a 847a acba 2a19 e2ba 962f a6ba
00000020: 2415 a1bb c96e 48bb 518f 0ebb f4b7 4ebb
00000030: 44ce 16ba 52dd daba 467e 7c3a 47cc 493b
00000040: b47d 5db9 6127 883a 1972 eaba 5479 683a
00000050: 20a7 f13a 9739 43bb f81e 2639 ff83 a3b9
00000060: 7bc4 7a3a 7ff7 3a3a 981a 1bbb 1827 0eb9
00000070: eb53 b13a 6c77 aaba d852 953b a1b8 193b
00000080: ef9b 3b3a 4501 bbba e039 f3ba d24d 47ba
00000090: 3692 163a d97b 14bb 56f4 d037 bc16 aa39
000000a0: ccbc ba3b 5ae3 943a ebc5 db39 2440 17ba
000000b0: 08d1 883b e4a9 6f3a 5577 07ba 4792 0dbb
000000c0: 7500 05bb 0faa 4fba a8cb c7bb f329 c53a
000000d0: bcb5 8f3a 5b81 93ba baeb b2ba 09f6 653a
000000e0: eb29 9839 7a85 2c3a 45a0 6d3a c218 9539
000000f0: 4fd4 82bb 775f 08bb 8dd1 4a39 0bc6 c23b
00000100: 74ee 25bb 6ccd 083a 2cc2 0eba c7e2 1dbb
00000110: 4086 bfba d315 5f3b 9bf5 50ba 139d f3b9
00000120: b908 b4ba 5278 1bbb 22a8 2537 d391 0dbb
00000130: 9b68 733a 220e 28ba a4a4 563b d09a f13b
00000140: 5500 123a 90d5 36b9 8648 6b3a 1b75 36b8
00000150: 9e4a 80ba 0bb6 bc3a 1e09 10bb 7dc3 f93a
00000160: 6050 1b3c 2b91 e8ba 1a60 9bba aa85 7d3a
00000170: fa49 42bb 176d 19bb 835c d7ba 7e5b 8b3a
00000180: 6892 a1b8 c124 813a 473e 8cb9 1fe2 503a
00000190: aa62 07bb 301c 883a 6bc1 4c3a 4a0f 60ba
000001a0: 0e15 cdba aced d9ba 30fb e8ba 9d80 0b3a
000001b0: 90bb 42bb fddd 003b f5dd a23b d090 8c3a
000001c0: 4333 0db8 fd3b a93b d380 fb39 d85f daba
000001d0: b70d efba a59d dcb9 3153 163a 78b3 c0ba
000001e0: 47f3 d7ba d640 603a b3c4 343a df11 5339
000001f0: 131b f3ba 166b d1ba bc6e afba 6836 27bb
-0.00053933053 0.0012731662 -0.0018372602 -0.002316828 0.0014796109 -0.0013159071 -0.0017249931 -0.0012678977
-0.0049158502 -0.0030583611 -0.0021752904 -0.003154275 -0.0005752782 -0.0016698039 0.00096318533 0.0030791925
-0.0002112303 0.0010387712 -0.0017886787 0.0008868177 0.0018436648 -0.0029788965 0.0001584253 -0.00031188127
0.0009566021 0.00071322167 -0.0023666974 -0.00013556739 0.0013529038 -0.0013005561 0.004556995 0.0023455995
0.000715672 -0.0014267346 -0.0018556677 -0.00076028437 0.0005743833 -0.0022656827 2.490931e-05 0.00032441865
0.005698776 0.001135926 0.00041918395 -0.00057697506 0.004175309 0.0009142442 -0.0005167623 -0.002160208
-0.0020294462 -0.0007921764 -0.0060972758 0.0015042409 0.0010964195 -0.0011253761 -0.0013650574 0.0008772319
0.0002902293 0.0006581169 0.00090647145 0.0002843794 -0.0039925943 -0.0020808855 0.00019342285 0.0059440187
-0.002531913 0.00052185985 -0.0005445804 -0.0024091469 -0.0014612153 0.0034040108 -0.00079711684 -0.000464656
-0.001373551 -0.002372284 9.873913e-06 -0.002160181 0.0009285302 -0.00064107974 0.0032751942 0.0073731914
0.00055695075 -0.00017436431 0.00089753454 -4.3501244e-05 -0.0009787863 0.0014397515 -0.002197809 0.0019055452
0.009479612 -0.0017743459 -0.0011854202 0.00096711016 -0.0029646144 -0.002341097 -0.0016430769 0.0010632125
-7.7043485e-05 0.0009852872 -0.0002674928 0.0007968265 -0.0020658174 0.0010384377 0.0007810804 -0.00085472
-0.0015646534 -0.0016626618 -0.0017775055 0.0005321594 -0.0029713847 0.0019663565 0.004970307 0.001072431
-3.366476e-05 0.005164622 0.00047970432 -0.0016660644 -0.001823834 -0.00042079124 0.00057344424 -0.0014701923
-0.00164757 0.0008554583 0.00068957655 0.00020129186 -0.0018547497 -0.0015977349 -0.0013384442 -0.0025514606

action_model._continuous_distribution.log_sigma f4 [1, 2]
00000000: db4b be3b d858 f53b
0.0058073825 0.0074873976

action_model._continuous_distribution.mu.weight f4 [2, 128]
00000000: ac59 1f3c eb62 10bd 17b5 233c ba6b 0b3b
00000010: c1ac 3abc cefa 8abc 18b7 c2bc 1c80 9b3b
00000020: af90 8ebc 4bdb 77bc 1b35 edbc 2a28 623b
00000030: c228 423c 3447 d0bc 6215 81bb b284 1a3d
00000040: 3ced a63c d95a 50bc d166 66bc 1d7f c23c
00000050: e666 b33c 342c c4bb 0301 7a3c 186c da3c
00000060: 7966 9e3a 2e07 323b bdcf 733b 4f50 5fbc
00000070: cb3a d1bb ccb4 94ba a4b6 bebc 415a 3f3d
00000080: c178 c0bb f544 43bc 1d6c c53a 5f79 40bd
00000090: c7ce 81ba e0b2 0b3c 2312 573a 7981 183d
000000a0: 23d0 a73c eb5b 1e3c 3c76 9a3c c388 e03b
000000b0: 2bcc 863b e21a 22bd b83a 9f3c 49e1 bb39
000000c0: 2717 81bb af95 d43b 8911 d2b9 de16 86bc
000000d0: f253 86bc 5ae6 2cbc 1014 07bc 74bd dc3c
000000e0: a5ca a1bc 0b28 92bc 3b21 b1bc 4760 aabb
000000f0: 62ad 7d3a 6461 73bc 75b2 0abc e8aa 123c
00000100: b2a7 1abc 199d c43b 5af2 68bc 7ba7 243c
00000110: eb47 7ebc 5631 c93c 5c9d 0cbc d551 59bc
00000120: bb95 debc 20e3 07bc 65ab 51bd b4ff f03c
00000130: dcf5 d53c a400 2e3b 5f59 873c b6e0 453c
00000140: 4e48 bb3c 9488 e9bc 79a3 f1bb 95e9 0d3c
00000150: 1fb6 423c 8615 023b d808 ddbb 4265 74bc
00000160: 8456 8438 21ec debc b2fa 0e3c 3555 663c
00000170: 3e81 ba3b 0433 013b af87 80bc 4315 87bc
00000180: 473b d33b 97ee 4b3c 8a8c 64ba e2eb 353c
00000190: fbb2 afbc dad1 be3c 51fb 65bb 450b 38bd
000001a0: fc0e b2ba fbc3 6fbc 583a 35bb 1362 a93c
000001b0: eb21 173c a8a9 6a3c 9fce db3c 08c3 0b3d
000001c0: 12b8 6d3c bbcc 8abc 798f 113b 0d61 4dbb
000001d0: 6d07 9eba e7b6 a6bc b55d 8dbb 1049 faba
000001e0: 566b 2a3a d301 a03c 913f d73b 5d21 49bc
000001f0: 6883 c53c 5ba2 11bc 3224 39bb 638c d23a
00000200: ea1e 253b 3ec6 81bb 8152 923b 46de 323c
00000210: 483e 13bc 423a b93c f1e2 ac3c 6be9 f43b
00000220: 59a7 a8bb 951f 73bc c389 3bbc eabc 96bc
00000230: 9c64 103c edde c3bb 9db3 96bc 661f 173c
00000240: 47b6 e53c 1729 72bc d1a8 533c 17cd e3bc
00000250: eb81 8bbb 5190 07bb ea8a 2fbc 1952 773c
00000260: 77f5 2cbc 7fb4 c1bb c4cb 433c e6b0 7c3c
00000270: fc26 9fbc c66b f83c 8de6 1dbc a311 093b
00000280: b7a8 5a3c 8e4b 673c 3c6c c33c 6d72 283c
00000290: 6b03 6dbd 48d1 593c d878 90bc 1881 8bbb
000002a0: d4c2 933c 0fb1 36bc 8cf8 733c 47a8 b0b9
000002b0: 42e8 093c c462 50bd 4649 333b 4202 a63b
000002c0: df22 44bc 3397 793c c19c 04bc d296 97bb
000002d0: a5a4 81bc 3d24 7e3c f701 e43c 40a8 bebc
000002e0: 3bf9 66bc 1c77 8a3b 1ae3 563c 969b 31bc
000002f0: a00b 8dbc d69c 043c 3eaf e03c 208e 583b
00000300: f4a1 2cbb 3463 edba 003e 00bc b52f ac3c
00000310: a34d 173b 63f3 d639 a583 9c3c 3cd0 32bd
00000320: 5231 a23c 4637 f83c 60c8 c7bc 6a1b bd3c
00000330: a3c9 aebc 7f71 463c e335 843c 6452 783c
00000340: a4db 043c 2b7a b5bb 366a b0bb 2615 96bb
00000350: 75bd 8ebc 4393 28bd ea2d 323b a7a4 c3bc
00000360: bf96 043c af02 0a3c 044d 773a 0cdc 00bb
00000370: 92e5 75bb 0a6f bb3c 21f9 3f3c 33e4 a3bc
00000380: f6e7 87b9 2f06 013c 4c35 0c3b 3019 0abd
00000390: 2ccb 04ba 4cc1 d43c f8cb cfbc 2b77 ca3b
000003a0: 73e9 433c 1f6d b53c 3a2c 603c 6104 04bc
000003b0: 71d8 ad3c d06b 2e3b b5d5 ba3b c2a5 aebb
000003c0: f2c2 0a3c 1413 ed3b 2bc0 933b 29cc 233c
000003d0: b5ee 743c cf46 b1bc fb51 103c 531f dfba
000003e0: e89e 0f3c 95e7 5fbb 9a33 76bc 7de7 a4bc
000003f0: af01 e63c 1462 7c3c fd96 993b c765 ebb8
0.009725969 -0.035250586 0.009991906 0.0021273927 -0.011393727 -0.016965296 -0.023768947 0.0047454964
-0.017402975 -0.015127967 -0.028955987 0.0034508803 0.011850538 -0.025424577 -0.0039393166 0.037724204
0.020376794 -0.012716972 -0.014062599 0.023742253 0.021899652 -0.0059867147 0.01525903 0.026662871
0.0012084983 0.0027164924 0.003720268 -0.013629987 -0.0063851825 -0.0011345386 -0.02328045 0.046716932
-0.00587377 -0.011918296 0.0015062127 -0.04699075 -0.0009903543 0.008526534 0.00082043017 0.03723285
0.02048499 0.00966547 0.018855207 0.006852241 0.004113694 -0.03957642 0.019437179 0.0003583527
-0.0039395276 0.0064875702 -0.00040067386 -0.016368326 -0.01639745 -0.010552967 -0.008244529 0.026945807
-0.019749949 -0.01784136 -0.02162229 -0.0051994654 0.000967702 -0.014854763 -0.008465399 0.00895188
-0.009439396 0.006000173 -0.014217937 0.010049696 -0.015520076 0.024559658 -0.008582439 -0.013264139
-0.027171006 -0.008293897 -0.051188845 0.029418804 0.026118211 0.0026550675 0.016522108 0.012077501
0.022861626 -0.028507508 -0.007374224 0.008661647 0.011884241 0.0019849255 -0.006745439 -0.01491672
6.310365e-05 -0.027212204 0.008726763 0.014058401 0.0056916764 0.0019714246 -0.015689699 -0.01648963
0.0064462754 0.012447021 -0.0008718452 0.011103602 -0.02144765 0.023293424 -0.0035092423 -0.044932622
-0.0013584788 -0.014634128 -0.0027653184 0.020676648 0.009224395 0.014322676 0.026831923 0.034121543
0.014509218 -0.016943326 0.002221076 -0.0031338364 -0.0012056656 -0.020350887 -0.0043141493 -0.0019095261
0.00065009797 0.01953212 0.006568857 -0.012276021 0.024110511 -0.008888806 -0.0028250334 0.0016063567
0.0025195428 -0.0039604 0.0044654016 0.010917252 -0.008987017 0.022610787 0.021104308 0.0074741147
-0.0051469025 -0.014839073 -0.011446419 -0.018400628 0.00881305 -0.0059775026 -0.018396193 0.009223795
0.028041018 -0.014780304 0.012918667 -0.027807755 -0.004257431 -0.0020685385 -0.010714272 0.015095257
-0.01055657 -0.0059114094 0.011950437 0.015423035 -0.019427769 0.030324828 -0.009637487 0.0020915053
0.013345889 0.014117135 0.023855321 0.0102811875 -0.057864588 0.013294525 -0.017635748 -0.0042573325
0.018037237 -0.0111506125 0.014890801 -0.00033694712 0.008417191 -0.05087544 0.0027356907 0.005066187
-0.011971205 0.015233803 -0.008094014 -0.0046261335 -0.015825579 0.01551157 0.027832968 -0.023273587
-0.014097507 0.0042256247 0.013115669 -0.010840317 -0.017217457 0.008094033 0.027427312 0.0033043697
-0.0026341649 -0.001811123 -0.007827282 0.021018842 0.0023087047 0.00040998598 0.019105742 -0.04365562
0.019798908 0.030299794 -0.024387538 0.023084361 -0.021336382 0.0121120205 0.016138976 0.015156362
0.008109007 -0.005538245 -0.005383755 -0.004580158 -0.017424325 -0.041156065 0.0027188011 -0.023882223
0.008092581 0.008423491 0.00094337785 -0.0019662408 -0.0037520868 0.022880096 0.011717112 -0.020006275
-0.0002592203 0.007875009 0.0021394072 -0.033715427 -0.00050656754 0.025971077 -0.025365815 0.0061787567
0.011957514 0.02214676 0.013682419 -0.008057685 0.021221371 0.0026614554 0.0057017454 -0.0053298185
0.00846933 0.0072349403 0.004508992 0.009997406 0.01494949 -0.02164021 0.008808608 -0.0017022885
0.008765914 -0.0034165133 -0.015026951 -0.020129913 0.028076975 0.015404243 0.0046871887 -0.00011224631

action_model._continuous_distribution.mu.bias f4 [2]
00000000: 1686 623a 728e 90ba
0.0008641196 -0.001102878
