results/RedCells3RaycastP2/RedCell3Raycast/RedCell3Raycast-499992.pt (torch, 475188 bytes, 36 tensors)

network_body._body_endoder.seq_layers.0.weight f4 [128, 16]
000000 08 42 92 3e fd 39 86 bb 08 2f 16 be e6 ee 53 3f
       0.28566003 -0.004096268 -0.14666378 0.82786405
000010 fc 24 c8 3e e9 87 ad bb 96 6b 2f 3e c5 75 6c 3e
       0.39090717 -0.005295743 0.17130885 0.230918
000020 0c fd 10 3f 44 b7 06 bf b9 b2 de 3d 43 42 eb 3e
       0.5663612 -0.5262339 0.108739324 0.4594899
000030 43 24 36 be 44 33 95 3d 15 2d 8d bd 4f 22 11 3e
       -0.1778727 0.07285169 -0.06893364 0.14173244
000040 a4 e2 51 3e 58 63 20 be 43 3c 89 be ed 96 9c be
       0.20496613 -0.15662897 -0.2680379 -0.30583897
000050 f6 d0 9d 3e db f8 75 be 40 4d 9a 3d 02 de d1 be
       0.30823487 -0.24020712 0.075342655 -0.4098969
000060 3e a8 dd be c6 25 8c 3e ff 48 99 3e a6 c4 14 bf
       -0.4329242 0.2737257 0.29938504 -0.5811256
000070 46 68 bf 3c 77 7e eb 3d ff e8 8e 3e e7 7d 90 bd
       0.023365151 0.11498731 0.27912137 -0.07055264
000080 9b 03 73 be 0a 17 20 be 44 53 05 be 2b 44 1f 3e
       -0.23731844 -0.15633789 -0.13020045 0.15553348
000090 99 43 9e be 35 a9 44 3e d8 89 8d 3e 3b eb 2b be
       -0.30910948 0.19205172 0.2764423 -0.16788952
0000a0 7e 0b a2 3e a6 72 f1 be 4f 24 4c bd 76 49 94 3d
       0.31649393 -0.47157782 -0.049839314 0.07240574
0000b0 64 b7 96 bd 1d 0f 7d be b3 a0 43 3e 85 91 89 be
       -0.07359198 -0.24712797 0.1910427 -0.26868835
0000c0 45 b8 36 3e 90 96 7c be 94 b6 91 3d 84 40 7f be
       0.17843731 -0.2466681 0.07114902 -0.24926955
0000d0 b7 31 36 3d a0 6b 68 be 05 68 e9 bd 21 79 3c be
       0.044481006 -0.22697306 -0.11396793 -0.18405582
0000e0 a0 5d c7 be 61 43 26 3e 97 1b bf bd a8 06 b4 bd
       -0.38938618 0.1623664 -0.09331434 -0.08790332
0000f0 86 06 0d be d2 56 8f 3e 85 3a d3 3e 18 b4 e0 be
       -0.1377202 0.27995926 0.41255584 -0.438874
000100 e7 da 35 bd 15 08 dd be 44 d1 44 3e b7 55 69 3e
       -0.044398215 -0.4317023 0.19220454 0.22786604
000110 cf a7 64 3e b8 7e ad 3e 16 a7 5c be 18 d0 8b 3c
       0.22329639 0.3388574 -0.21548113 0.017067
000120 f1 ae d5 be fc 5d 88 3d 6d f9 0d bf 31 e1 be 3e
       -0.41735032 0.06658551 -0.5545872 0.37281182
000130 01 85 6f bd 86 ef 91 be ef 77 ea bd bc e4 29 bf
       -0.05847645 -0.28503054 -0.11448657 -0.66364646
000140 d7 28 12 be bf 38 a9 3d 96 ca 73 be 0d 25 5b be
       -0.14273392 0.082627766 -0.23807749 -0.21400853
000150 08 00 8f bd aa ec 16 3f ca 13 7d be bf 8f 76 be
       -0.06982428 0.5895487 -0.2471458 -0.24078272
000160 ad ff fa be ed 4c 70 3e 30 17 b6 bc 13 67 16 bf
       -0.4902319 0.23466845 -0.022227854 -0.5875103
000170 58 9b 9c bd 43 40 86 3d de cc da be 41 95 0a 3e
       -0.07646817 0.06555226 -0.42734426 0.13533498
000180 1d 04 26 be da 1a 40 bf 6a f0 0f bc 4a 7a 3e be
       -0.16212507 -0.7504097 -0.0087853465 -0.18601337
000190 6d f5 57 bd 5f 3c 95 3d 5b 58 8a 3e 0d 48 21 3d
       -0.05272429 0.072869055 0.27020535 0.039375354
0001a0 4f c3 14 3f fa 89 02 be e0 7f 3e 3d 37 60 86 be
       0.5811052 -0.12747946 0.04650867 -0.2624528
0001b0 78 6a b2 3e d6 eb d6 3e 50 9b fe bc 6b 18 de be
       0.34846854 0.41976804 -0.031079918 -0.43378004
0001c0 ff ec 8e 3e 79 17 5c 3e cb 53 76 be 1e 48 43 3e
       0.2791519 0.21493329 -0.24055402 0.1907048
0001d0 ca b9 a3 3e 50 b7 2a be b9 0c c7 bc aa b1 85 be
       0.31977683 -0.1667149 -0.024298059 -0.2611211
0001e0 21 ed bb 3a 63 9f 85 3d 5c 36 a6 bd a6 ba be 3d
       0.0014337638 0.06524541 -0.08115837 0.09312944
0001f0 84 d8 0a be db 12 1e bd 03 69 fd bb d6 1f 12 3e
       -0.13559157 -0.0385922 -0.0077334656 0.14269957
000200 6e a9 48 3e d9 8a 00 3c 67 1d 42 be 3d aa bf bd
       0.19595882 0.007845604 -0.18956529 -0.09358642
000210 7e 2d b2 3e da 8d 1c 3f 8c e2 01 bd 7d af 51 be
       0.34800333 0.6115395 -0.031710193 -0.204771
000220 5f d7 1e 3e 8a ba a3 3e 38 d9 7d 3e fb 17 76 be
       0.15511845 0.31978256 0.24789894 -0.24032585
000230 11 ce 29 be 47 85 0c bf 9d bf bf be 99 d4 3d 3e
       -0.16582514 -0.54890865 -0.37450877 0.18538131
000240 e0 0e 16 3f ea 50 65 3b c9 34 d0 3d a6 12 7e be
       0.5861645 0.0034990855 0.10166318 -0.24811801
000250 77 74 63 bd 25 21 57 3e c5 6b f4 bd cb cb 26 be
       -0.05553099 0.21008737 -0.11934618 -0.16288678
000260 41 2f ae 3d 51 0b 08 3f 96 65 9b be df 49 bb be
       0.08505107 0.5314227 -0.3035094 -0.36579797
000270 84 f6 0e 3d 01 8c 1a 3d 1f a0 59 be 30 fd 63 be
       0.034903064 0.037731174 -0.21252488 -0.22264552
000280 76 3c 53 be 1a f8 42 bf 7c c4 88 3d ce ff 62 be
       -0.20628533 -0.7615982 0.066781014 -0.22167894
000290 94 96 06 be 4c a0 bd bc 73 7d b0 3e 2a d4 0a 3f
       -0.13143378 -0.023147725 0.3447071 0.54229987
0002a0 c4 0a 0b 3c a4 0f 18 3f 3c 38 b7 3e 3b 0f a9 3a
       0.008486453 0.59398866 0.3578509 0.0012898216
0002b0 a9 a3 39 be b5 0f 5a be 70 10 07 3e 2f 0b f8 3e
       -0.18128838 -0.21295054 0.13189864 0.48446032
0002c0 f2 80 f4 3d 32 7b 66 bc 1b 23 2e 3e bd 54 2c 3e
       0.11938657 -0.014067458 0.17005579 0.168292
0002d0 f9 2b 96 3e fe a1 ab 3e 65 73 c8 3e 21 8f 75 bd
       0.29330423 0.33522028 0.3915054 -0.05995095
0002e0 9c 3d ac bd f1 69 a1 3e 9e 4a b1 be 25 96 ef be
       -0.084101886 0.3152614 -0.3462724 -0.4679424
0002f0 ce 97 5e bd c0 d6 b3 bd d6 65 95 be b1 49 31 be
       -0.05434399 -0.08781195 -0.29179257 -0.17313267
000300 5d 62 9f 3d 93 95 c9 3d 4f dd 39 bf 98 27 65 bd
       0.07782433 0.09842982 -0.72603315 -0.055945963
000310 7f 4d 57 be c7 09 0b 3e f5 50 a6 be 66 9d ad 3c
       -0.21025656 0.13577949 -0.3248364 0.021193217
000320 35 2a ff b9 62 f6 af bd d0 d8 2b be e4 fe b6 bd
       -0.00048668837 -0.08591916 -0.16781926 -0.08935335
000330 eb 14 93 3e 45 ee 41 be 42 d9 be be 43 01 af 3e
       0.28726897 -0.18938549 -0.3727513 0.3418065
000340 ea a4 ca 3c b5 80 f7 bd 33 80 4b 3e ee 3b d4 be
       0.02473684 -0.12085096 0.19873123 -0.41451973
000350 2f c0 01 3f e6 4f 57 3d 24 d4 96 bd 9d dd e8 bd
       0.50683874 0.05256643 -0.07364681 -0.113703944
000360 19 74 72 3e 34 33 67 be 68 f4 e1 3d 9a 82 15 be
       0.236771 -0.22578126 0.11032945 -0.14600602
000370 71 2e ad 3e 5d e4 e5 3e b3 d1 6f be 4b 95 11 be
       0.33824494 0.4490079 -0.23419838 -0.14217107
000380 de cc 43 be ae 01 32 3c 2e b5 10 bf 8b 20 43 3e
       -0.1912112 0.010864658 -0.5652646 0.19055383
000390 9e c1 9e bd af 8c cd 3c 47 89 57 be 17 fd c9 be
       -0.07751773 0.025091497 -0.21048461 -0.39450905
0003a0 76 ae 07 be 11 3a 84 be f3 5a 29 be 01 67 f7 be
       -0.13250145 -0.2582555 -0.165386 -0.48320773
0003b0 99 cb da be 9d 7f 52 be d5 3d d7 3d 2f 1a b6 bd
       -0.42733458 -0.20556493 0.105098404 -0.08891713
0003c0 45 d5 47 3f 1b b9 40 be 8a a9 ec be f3 43 08 3f
       0.780598 -0.18820612 -0.46223098 0.5322868
0003d0 4e 74 10 3f 2f 7a 7f 3e 18 f9 9f 3d 3e 64 82 be
       0.56427467 0.24948953 0.07811183 -0.25467104
0003e0 c9 88 8d 3e 47 8f bf be 0a 20 cd 3d 97 b0 cb 3e
       0.2764342 -0.37414 0.100158766 0.39783165
0003f0 50 44 33 3d 81 bd 1a 3d 48 8e c1 bd 39 ef 2f be
       0.04376632 0.03777838 -0.09450966 -0.171811

network_body._body_endoder.seq_layers.0.bias f4 [128]
000000 9f 80 0f 3c a7 d5 8e bd c9 b3 6c bc 56 03 b9 bd
       0.008758693 -0.06974345 -0.014447161 -0.090338394
000010 51 e2 d1 bd 07 ce 85 bc a7 ff 00 bd a3 a2 24 bd
       -0.102482446 -0.016333593 -0.03149381 -0.040194165
000020 3b 8b 1b bc 17 52 98 3d 7e 6c 56 bd e5 76 90 3b
       -0.009493644 0.074375324 -0.05234956 0.0044087046
000030 71 b6 97 bd eb 36 b7 bd 72 89 a6 bd d8 a4 7c 3d
       -0.07407845 -0.08946022 -0.08131684 0.061680645
000040 07 c4 8e 3d eb 9b 95 3c f4 77 8e bd 1b 05 0f bd
       0.06970983 0.018262824 -0.06956473 -0.03491698
000050 9c 8d 78 bd ea b3 f5 bc 2e 4d 48 bc 4b 06 29 3c
       -0.060681924 -0.029993016 -0.012225432 0.010316442
000060 a2 c3 b5 bd fa fe 92 bc 8a 52 0c be 02 ea be bd
       -0.088752046 -0.017943848 -0.13703361 -0.09321977
000070 1b 40 13 bd b1 37 d6 bb 16 0d 44 3b c3 e2 55 bb
       -0.035949808 -0.0065374007 0.0029915026 -0.0032636381
000080 a6 77 5d bd 25 6c a3 3d 20 14 f3 ba ff d1 07 bd
       -0.054069184 0.07979611 -0.0018545426 -0.033159252
000090 22 ac 7a bd c8 51 a4 bd 00 2b 26 bc d2 e8 a4 bd
       -0.061199315 -0.08023411 -0.010142088 -0.080522195
0000a0 4f 35 78 bd 5c a5 8d bd 87 30 69 bd e2 c9 ce bd
       -0.060597714 -0.069163054 -0.056931045 -0.100971
0000b0 3c 89 0e bd df 54 4b bd 31 e5 a1 3c 36 a9 86 bd
       -0.034798846 -0.049641486 0.019762607 -0.06575243
0000c0 9f 13 5b 3c cd 65 0e bd 0c 81 e3 bd e7 ba 2b bc
       0.013371377 -0.034765054 -0.11108598 -0.010481573
0000d0 1e 54 34 bd 86 25 1f bd dc 5c 34 bd 82 55 e2 bb
       -0.044025533 -0.038854145 -0.04403387 -0.006907166
0000e0 c4 95 23 bd 55 48 70 bc bb e8 1b bd ad a9 66 3b
       -0.03993775 -0.014665683 -0.038063746 0.003519635
0000f0 15 c6 82 bd c7 2d c5 bd 41 e1 eb bc 6c b3 fd bc
       -0.063854374 -0.09627872 -0.028793933 -0.030969344
000100 e9 9c 95 bc 13 5b 42 bd ea 0b aa bd c1 06 31 bc
       -0.018263297 -0.047450136 -0.08303054 -0.010804833
000110 e3 10 db 3c 31 23 e9 bc 2d e7 02 bd 66 80 8b bd
       0.02674145 -0.028459163 -0.031958748 -0.068115994
000120 ab d2 87 bc 6c ee cd 3d 7c 78 b2 3c 6c b5 82 bd
       -0.016579947 0.10055241 0.021785967 -0.0638226
000130 5b 7e 1a bc 4a 7f be 3a dc e4 76 bd 26 1f 41 bd
       -0.00942954 0.0014533785 -0.06027685 -0.047148846
000140 fc 6f 26 be 8b 42 4a 3d 80 b0 4b bc 68 8f e9 bd
       -0.16253656 0.049379867 -0.012432218 -0.11404306
000150 6e 02 30 3d 7e 36 08 3c 62 dd c1 bd df 58 97 bd
       0.042971067 0.008313773 -0.094660535 -0.07389998
000160 28 4e 7b bd ab c8 83 bd fe 88 ee 3b e8 8e 70 bd
       -0.061353832 -0.06434759 0.0072795143 -0.058730036
000170 e9 45 ee bd d8 db 6c bd cb b1 72 bc 4d 24 27 3c
       -0.11634428 -0.057826847 -0.014812897 0.010201526
000180 fe b2 46 bd 5f 78 72 3d a6 1e f3 3b d2 45 34 bd
       -0.048510544 0.059196826 0.007419425 -0.0440119
000190 57 04 8e bd 61 ba fa bd 46 af 31 bd 04 5a 27 bd
       -0.069344215 -0.1224258 -0.043380044 -0.04085733
0001a0 e6 51 8e bd e6 c5 78 bd 3f dd b2 bd 9f a9 76 bd
       -0.06949215 -0.060735606 -0.087336056 -0.060220357
0001b0 9b 8f 88 bc e0 7b 88 bd 1a 64 6a 3d 6d 20 09 be
       -0.016670039 -0.06664252 0.05722437 -0.13391276
0001c0 31 a5 e0 bd f2 35 06 3d 42 11 3f bd eb 1c e7 bc
       -0.10969008 0.03276629 -0.046647318 -0.028212031
0001d0 cd 1f 84 3c 68 f0 dc bd d2 99 88 bd ac 54 b7 bd
       0.016128445 -0.10788041 -0.06669964 -0.08951697
0001e0 08 71 9b bd c9 fe 01 3d f6 e2 99 bd e2 28 8d bd
       -0.075899184 0.031737123 -0.075139925 -0.068925634
0001f0 04 be 6c bc 96 49 bc 3d ae a4 a5 bd da 6c 47 bd
       -0.0144496 0.09193723 -0.08088051 -0.048687793

network_body._body_endoder.seq_layers.2.weight f4 [128, 128]
000000 04 b5 1a be 96 e1 17 3d 6c e1 93 bd ea 0a 22 be
       -0.15108114 0.03708037 -0.0722073 -0.15824476
000010 26 60 fb bd 29 2d 4b 3d 5e a4 ba bd 9a 8e b3 bd
       -0.12274198 0.049603615 -0.09113382 -0.087674335
000020 ea 1c ff 3d ac 8d 4f 3c 4f 96 ef 3c 11 85 42 3c
       0.12456687 0.012668055 0.029246477 0.011872546
000030 cd 33 cb bd bb 9d 23 bd 66 39 34 be bb f2 a6 bd
       -0.099219896 -0.039945345 -0.17600021 -0.08151766
000040 b6 6e 2c 3e 48 fe 86 bd 08 64 06 be 63 5e 25 be
       0.16839108 -0.06591469 -0.13124096 -0.16149287
000050 e0 a1 af 3d f9 2e a9 3c c1 f7 59 3d d6 3e b3 bc
       0.08575797 0.020652281 0.053214792 -0.021880548
000060 eb 6e 14 3d 70 7d 00 3d a4 c0 a1 bd da c9 9b bd
       0.036238592 0.031369627 -0.078980714 -0.076068595
000070 d5 de 85 3c 75 23 1a be c3 c4 14 be 65 39 05 bd
       0.016341606 -0.15052588 -0.14528184 -0.03252544
000080 b5 8a 97 bd 73 4a 9a be 2a 12 f5 bd 1a 32 f3 bd
       -0.07399503 -0.30134925 -0.11966355 -0.118747905
000090 d8 f2 3b bd 1e 8e 78 be e6 ed f5 bc 32 c8 48 3e
       -0.04588589 -0.24272963 -0.030020665 0.19607618
0000a0 c3 8e 1f 3e 58 c6 d9 bd 95 85 17 3e 07 05 2a 3d
       0.15581803 -0.10633534 0.14797051 0.0415087
0000b0 18 5d 9e 3d 64 fc c1 3d 66 95 4d bc 4e e8 19 bb
       0.077326 0.09471968 -0.012547826 -0.0023484412
0000c0 7b 16 c7 bd 17 a3 8f 3c ce 8a cb bc fc d2 a3 3c
       -0.09721085 0.017533822 -0.02484646 0.019998066
0000d0 e3 74 5f 3d b0 b0 aa 3c 3d e3 7e bd c3 27 ed 3a
       0.05455483 0.020836204 -0.06222843 0.0018093515
0000e0 bb 92 0d 3e 38 f6 c0 bd 8b db 5a be 2f 21 e1 bd
       0.13825504 -0.094219625 -0.21372811 -0.109926574
0000f0 13 31 6f bb 26 09 cf bc 3e 5c 67 bd 5a c9 b5 3d
       -0.0036497756 -0.025272917 -0.056484453 0.088762954
000100 b9 f7 5f 3d c3 76 64 3e bc a9 1b be f1 b0 11 bd
       0.054679606 0.22310929 -0.15201467 -0.035569135
000110 b9 13 31 be 46 5d 96 3d 82 10 2e 3d f6 27 8e 3d
       -0.1729268 0.07342009 0.04249621 0.06941216
000120 cd a4 2e 3e b0 b4 fe bb 87 47 80 bd 96 83 2b be
       0.17055054 -0.0077730045 -0.06263643 -0.16749415
000130 6f c9 89 3d 2c 01 c9 3d fa 51 cb 3d fb d6 17 3d
       0.067278735 0.09814677 0.09927745 0.037070256
000140 e9 1e e5 3c 48 ee de bd 83 af 5c be 58 99 45 be
       0.02796884 -0.10885292 -0.21551327 -0.19296777
000150 ca 86 df bd 42 23 66 3d b6 9f 26 be ff 98 20 bd
       -0.10914381 0.05618597 -0.16271862 -0.03920841
000160 d6 a5 15 3e 5a 06 31 3c 7c 7d 77 be 79 36 bc bd
       0.14614043 0.010804737 -0.24168962 -0.09190077
000170 1b 4b bb 3c 5a ee 67 bd 18 49 10 be c3 df 65 bd
       0.022862962 -0.056623794 -0.14090383 -0.0561216
000180 b5 e6 f3 3d 17 b4 e7 3b 48 60 0f 3e 9e 78 7d bc
       0.11909238 0.007071029 0.14001572 -0.015470652
000190 dc 55 ff bc 8c 35 ae bd 9e 6d 09 be ee f3 a9 bb
       -0.03116887 -0.08506307 -0.13420722 -0.0051865494
0001a0 9f 08 46 3a 48 89 33 3d 73 9b d3 bd 4d f9 bf 3c
       0.0007554385 0.043832093 -0.10332384 0.023434306
0001b0 57 4b 60 bd 09 0d d3 bc 42 d9 8d 3d ca 56 20 be
       -0.05475935 -0.025763052 0.06926204 -0.15658107
0001c0 7c c0 67 3e f5 1e f2 bd b5 bf 30 3d b2 9a 38 be
       0.2263202 -0.11822311 0.043151576 -0.18027762
0001d0 12 bb 79 b9 bc 0a 0b 3e f2 76 38 bc f6 c3 75 bd
       -0.0002381618 0.13578314 -0.0112588275 -0.060001336
0001e0 44 7e 16 3d bf 72 0d 3e 60 32 b2 be 5e 5e b5 bc
       0.03674151 0.13813303 -0.34804058 -0.022139724
0001f0 81 20 03 bd 77 f0 14 be ce 07 4b be a5 bb 51 be
       -0.03201342 -0.14544855 -0.19827196 -0.20481737
000200 6d 3e 52 bd 7a 34 b2 bc 59 0a 3e bd 2e c4 8b bd
       -0.051329065 -0.021753538 -0.046396587 -0.06824528
000210 30 87 8d bd 91 e2 94 3e 20 83 aa bd 19 66 d0 3d
       -0.069105506 0.29079106 -0.08325791 0.101757236
000220 83 ec af 3d bf ee 60 3d 73 0d 67 bd 81 bc bf 3d
       0.08590033 0.054915186 -0.05640931 0.09362126
000230 08 f2 7e 3c 1c 9a 25 3e a1 e7 0c be 8b a1 10 3d
       0.015560634 0.1617207 -0.13760234 0.03531031
000240 a3 ac a4 3d 54 b0 99 3d c4 d6 bd be 5f 65 30 be
       0.0804074 0.07504335 -0.37077916 -0.1722617
000250 39 08 9d bd f6 62 80 3c 7e fd 6a bc f2 99 c3 3d
       -0.07667584 0.015672188 -0.014342664 0.09550847
000260 2b 7d 13 be 67 6e 2a 3d b1 81 a7 bd 04 c5 b1 bd
       -0.14403217 0.041609194 -0.081790335 -0.08680156
000270 e8 ae b1 bd f1 3e 89 be 07 cd 3a 3e 7c 49 a1 bd
       -0.08675939 -0.26805833 0.18242274 -0.07875344
000280 82 fa 3b be f0 84 ab 3d 74 6a f6 bc 2d 4b 53 bd
       -0.1835728 0.08374965 -0.030080058 -0.051585365
000290 c3 69 4b be 03 66 84 3d 02 06 9f bd 8e cb 3a 3e
       -0.19864564 0.0646477 -0.07764818 0.18241712
0002a0 9e 72 d9 3d d5 34 fd bd e0 a1 aa 3c a4 85 d1 bd
       0.106175646 -0.123635925 0.020829141 -0.10230568
0002b0 6d fb 3e 3e 91 9e 52 3d 94 b9 ac 3d e5 71 1c be
       0.18650599 0.051420752 0.08433834 -0.15277822
0002c0 de 5b e2 3d 37 1b 97 bd 59 8b 80 be 71 95 99 bd
       0.110526785 -0.07378238 -0.25106314 -0.07499207
0002d0 9f 6a 15 bd 91 d5 a0 bc b4 8b d0 bd 5d db 2e be
       -0.036478635 -0.019633086 -0.10182896 -0.17075868
0002e0 bf 0c b2 bc eb 1f 17 be d0 cc 98 3d f0 f9 81 3e
       -0.021734593 -0.1475827 0.0746094 0.25386
0002f0 52 70 c3 3d 04 80 4e be e9 52 9e 3d 65 b2 04 be
       0.09542908 -0.20166022 0.077306576 -0.12958677
000300 fa ae 11 3e a6 4d b6 3d 75 c9 90 3d af e2 e9 3c
       0.14226905 0.08901529 0.07069675 0.028550474
000310 70 f0 0e 3d f3 50 62 be 7f 08 1c be 11 78 85 bd
       0.034897268 -0.22101192 -0.15237616 -0.065170415
000320 e7 be 5e bd ef 43 12 bd 1a 1b 73 3e d0 a4 2b bd
       -0.054381277 -0.035709318 0.23740807 -0.041905224
000330 f7 2b 0b be 01 10 a8 3d fc c7 34 3e 92 35 3e be
       -0.1359099 0.082061775 0.17654413 -0.18575123
000340 93 4a a1 bd 73 6a e8 bd 45 7e 39 3c b1 2f 54 bd
       -0.07875552 -0.113484286 0.011321609 -0.051803295
000350 e5 d5 bd bd 6b 11 05 3d fa f4 f8 bd 94 fa 66 bd
       -0.09269313 0.032487314 -0.121561006 -0.056391314
000360 83 71 a7 bd f1 ef 16 bd 0f eb e0 bc 66 04 1b be
       -0.081759475 -0.03684992 -0.027455835 -0.15138397
000370 43 9f fd bb 1c eb d6 bc eb 83 ea bb 61 fe 9c bd
       -0.0077399327 -0.026235156 -0.007156839 -0.076657064
000380 7a fa 8a bc ec 9e 08 3e c3 a1 28 3d 2e c9 1d bd
       -0.01696514 0.13341874 0.041169893 -0.038521938
000390 2e 86 c1 bb 3e 95 9d bd 7f c4 88 3d 2e 1f 29 3d
       -0.005905888 -0.07694481 0.06678104 0.0412895
0003a0 ed 66 4a 3d ac 06 f0 3d d1 92 83 bd ae 6e 7b bd
       0.049414564 0.117200226 -0.064244874 -0.06138485
0003b0 62 a6 6d be 72 29 a8 3c 4e df 60 ba 50 c6 86 be
       -0.23208001 0.020527575 -0.0008578197 -0.26323175
0003c0 63 09 96 3c 62 47 84 bd e2 b9 01 be bc 5d 3f be
       0.018315023 -0.06458928 -0.12668565 -0.186881
0003d0 c0 17 e9 bd 30 8a 45 3e f5 dc fe bc bd 19 7a bd
       -0.11381483 0.19290996 -0.03111122 -0.061059702
0003e0 45 2e 54 bd 6e 2a 57 be 61 e3 a0 bd 78 4e a4 ba
       -0.05180194 -0.2101228 -0.07855869 -0.0012535593
0003f0 85 0f 0c be 23 09 e7 bc 31 8d 6a bd 02 c8 38 be
       -0.13677795 -0.028202599 -0.057263557 -0.18045047

network_body._body_endoder.seq_layers.2.bias f4 [128]
000000 52 5a cd bc f0 a7 32 3d fc c4 f1 bc e1 88 41 bc
       -0.025067482 0.04361719 -0.029512875 -0.01181242
000010 7f a0 62 bc 31 1c 43 bd 31 e5 54 bd dd 28 69 3c
       -0.013832211 -0.047634307 -0.051976386 0.014230934
000020 c0 da df 3c ea 6f 1e bd 90 81 b0 3b 2c 33 ac bc
       0.027325988 -0.03868095 0.005386539 -0.021020494
000030 f3 86 50 bd 11 97 8f bc b1 2b a8 bc b2 b6 ff bc
       -0.050909948 -0.017528089 -0.020528646 -0.031215046
000040 87 76 f9 3c ff 15 a9 bc da 0d cc 3c b1 f4 38 3b
       0.030452026 -0.020640371 0.024908949 0.002822202
000050 ea 8c 54 bd 52 21 1a 3b 27 36 5d bd 1b ab e2 3b
       -0.0518922 0.0023518396 -0.05400672 0.00691737
000060 86 c9 32 bd 86 d5 5d bd 40 e6 6c 3d a4 a6 97 bd
       -0.04364922 -0.05415871 0.05783677 -0.07404831
000070 bb cb 46 3d c2 83 83 bc 7c 2e 5e bd 9b 9d 70 bc
       0.048534136 -0.016054038 -0.05424355 -0.014686014
000080 6d a4 c5 bc 57 26 57 bd 14 fe 22 bd 93 6f 17 bd
       -0.024126256 -0.052526798 -0.03979309 -0.03697164
000090 19 2a 85 bd a1 82 0b 3d 4d b3 99 3c 8f 42 d2 3b
       -0.0650217 0.034060124 0.018762255 0.006416626
0000a0 98 62 a0 bd 5c 8f 65 bd c0 e7 fb bd 0a 63 ae bd
       -0.07831305 -0.05604492 -0.12300062 -0.08514984
0000b0 2b 02 87 bc a6 47 e0 bc ae d8 cf bc 92 4f c0 3b
       -0.016480526 -0.027377915 -0.025371876 0.0058688605
0000c0 c4 60 27 bd 4a 92 53 bd 29 78 9d bb fd 2f 92 bd
       -0.040863767 -0.051653184 -0.004805584 -0.07138059
0000d0 5c 7a f3 3c 26 f1 73 3d 27 b8 75 3c d5 a5 cd 3c
       0.029721431 0.05955615 0.014997519 0.025103489
0000e0 4a 26 47 bd 46 3e 47 bd 2b f5 18 bd 47 6c e5 3b
       -0.0486205 -0.048643373 -0.037343185 0.007001433
0000f0 9c 1e 31 bd 4e 5c f0 bd 66 5d c8 bd 1b 61 76 bd
       -0.043242082 -0.11736356 -0.09783439 -0.0601512
000100 a4 9a b4 3b 60 36 89 bd d3 1e 7e bc 17 97 ca bc
       0.0055115987 -0.06699824 -0.015510279 -0.024730248
000110 bb 40 75 3d 8e 48 ae 3d 71 74 aa 3c bb 09 4a bc
       0.059876185 0.085099325 0.020807477 -0.0123314215
000120 38 d9 b4 bc bb c5 08 3d 3b 77 e2 bc 0a d9 fb 3a
       -0.022076234 0.033391695 -0.027644744 0.0019214463
000130 3e 37 44 3c ad 8d bb ba a8 dd 62 bc 54 56 b9 bd
       0.011976061 -0.001430919 -0.013846792 -0.09049669
000140 23 85 0c bd 15 52 85 bb 5b ab 1f 3d 35 fc 9f bc
       -0.034306657 -0.004068623 0.038981777 -0.019529441
000150 a4 e5 9a bc 34 22 27 bb 92 88 a3 bc f1 aa bd 3d
       -0.01890833 -0.0025502564 -0.019962583 0.0926112
000160 40 82 61 bb ab 20 31 3d 04 02 81 bd bf f1 d9 3c
       -0.003440991 0.043244045 -0.062992126 0.026604531
000170 5a 39 52 bc 3c 30 22 bd f5 9a ce bc e9 44 95 bc
       -0.0128310565 -0.03959678 -0.025220374 -0.018221335
000180 b8 3b 61 bd 99 ac d5 bc d9 be 13 bd 52 a2 22 bd
       -0.054988593 -0.026083278 -0.03607068 -0.039705582
000190 0e 8d 1c 3b 46 64 44 ba 1b ff 5b bd ef 79 bb bc
       0.0023887786 -0.00074917485 -0.053710084 -0.02288529
0001a0 e3 4c 7c bd 4b 46 0b 3d 00 4b 95 3c b7 35 bd bd
       -0.061596762 0.034002583 0.01822424 -0.09238761
0001b0 2e e6 0a 3d 36 e4 87 bd 88 2e b5 bd d2 61 4b bd
       0.033910923 -0.06635325 -0.08846766 -0.049653836
0001c0 10 4a 06 bd 20 9e 03 bd e0 8f 44 bd a7 e3 15 bd
       -0.032785475 -0.03213322 -0.047988772 -0.03659406
0001d0 f2 ac 51 bd c1 aa a7 3c 97 dd 88 bd 2f 64 c3 bc
       -0.051190324 0.020467164 -0.0668289 -0.023851482
0001e0 e8 0c f2 3b 1a f9 ad bc 37 15 37 3b 88 82 9c 3b
       0.0073867925 -0.021236945 0.002793623 0.0047763027
0001f0 3a 9a 79 bc b5 90 d3 bd ec 09 41 bd 4f 4d cd 3c
       -0.015234524 -0.10330335 -0.047128603 0.025061278

action_model._continuous_distribution.log_sigma f4 [1, 4]
000000 78 e1 ba be 3f 77 b6 be cb f1 c3 be e5 5b ea be
       -0.36500144 -0.35637853 -0.3827041 -0.45773235

action_model._continuous_distribution.mu.weight f4 [4, 128]
000000 dd 70 16 3d 45 de 9c 3c 2e 08 8c 3d a5 8f b0 3c
       0.03672873 0.019148955 0.06837498 0.02155287
000010 6b fb d0 ba 73 1c b2 3a 15 8e 0b 3d 89 85 2c 3e
       -0.0015944069 0.0013588801 0.034071047 0.16847815
000020 f2 77 c0 3c fc f7 8e bc 1a 68 d7 3c 2f a3 65 b9
       0.023494694 -0.017452233 0.026294757 -0.00021899932
000030 65 22 22 3d b1 36 d5 3b 05 bd 39 bd fe 85 ed bc
       0.039583582 0.006506764 -0.04534628 -0.028994557
000040 bd 49 c3 3c 58 9f 07 bd e4 ab 9a 3d 30 4c 34 bd
       0.023838872 -0.033110946 0.07552317 -0.04401797
000050 5b 74 6c bd 73 d9 63 bd 08 5e 3e bb 10 b0 18 3b
       -0.057728153 -0.055627298 -0.0029047746 0.00232983
000060 83 78 c6 3c 7e 74 9b 3d 7b 51 d2 bc f2 c5 cc 3c
       0.024227386 0.075905785 -0.025673619 0.024996731
000070 23 62 b5 bd a9 fd 09 3d 9a 0d 07 3b de 60 43 bc
       -0.08856609 0.033689175 0.0020607472 -0.01192495
000080 86 78 8e bd 91 29 2a 3d 59 9f d0 bc cb 6c b7 3b
       -0.06956582 0.041543547 -0.025466608 0.005597686
000090 c0 dd a2 3b a2 25 0e 3d c2 d2 89 bd 72 09 23 bc
       0.0049702823 0.03470386 -0.06729652 -0.009950982
0000a0 de 27 4b 3b f3 74 b9 3d 54 80 68 3c 27 af 25 3c
       0.0030999104 0.090555094 0.014190752 0.01011256
0000b0 9d d5 a2 3d 9b 4b fa ba f8 c6 09 3d 16 64 33 3a
       0.079509 -0.0019096019 0.033637017 0.0006843222
0000c0 9a 84 76 3d 5a 2c 24 bd 7b 9b b3 3d e1 f9 71 bb
       0.060185052 -0.04008136 0.0876989 -0.003692262
0000d0 32 b0 08 bd 3c f7 34 3d b8 02 9d 3d 79 bd 0c 3d
       -0.033371158 0.044181094 0.07666534 0.034360383
0000e0 2f 84 7c bc 5d 00 fe bc 7f 2f 5c bd 54 61 96 3d
       -0.015412374 -0.031006033 -0.053756233 0.073427826
0000f0 9c 3d c2 3b 51 76 51 bc d8 0c 57 bc eb f5 eb bc
       0.0059277546 -0.0127845565 -0.013125621 -0.028803786
000100 36 6e b3 bd ec 1c b7 bb 02 4c ba 3d 64 ab e4 bc
       -0.087612554 -0.0055881646 0.090965286 -0.027913757
000110 42 8b 6b 3d 0f 50 35 3d e4 ca 96 3d 99 51 c9 bc
       0.057505853 0.044265803 0.07362917 -0.024575042
000120 9c 8c 63 bd 97 2d dc bc 29 01 2b bd d3 a3 b2 bc
       -0.055554017 -0.026877208 -0.041749153 -0.021806633
000130 f4 a6 ab 3c 87 1f 85 3b 8e 06 76 3c 5c c1 86 3c
       0.020953633 0.0040625962 0.015016211 0.016449623
000140 81 e4 95 bc 80 4e 32 3c 55 c9 a9 bc c9 c6 b7 3c
       -0.018297436 0.010882974 -0.020725885 0.022433655
000150 66 80 2a bc 64 65 97 3d ab ba 52 bd 5d ec 2b bc
       -0.010406589 0.073923856 -0.05144755 -0.010493365
000160 f9 02 69 bc c5 3f b6 3d 9c b3 b7 3c ca fe 80 bd
       -0.0142219 0.08898882 0.022424512 -0.06298597
000170 67 9a 6a bd 06 24 0a 3b 71 13 0a 3c 3b 7f 23 bd
       -0.057276156 0.00210786 0.008427487 -0.03991626
000180 ca 98 47 3c 2a 0b 4a bc 8a 0b 59 bc 3d 14 df 3b
       0.012182424 -0.012331763 -0.01324738 0.0068078325
000190 11 b9 e1 3c e5 59 ec 3b 53 78 40 bc 55 7d 94 ba
       0.027554067 0.0072128647 -0.0117474375 -0.0011328856
0001a0 8a f5 ef 3a a8 1a 23 bd 7a 83 78 3d 7f f3 2f bd
       0.0018307429 -0.039820343 0.06067226 -0.042956825
0001b0 f7 05 39 3c 8b 2e 18 bb 73 c1 f5 bc 70 e5 a1 3c
       0.011292926 -0.00232211 -0.02999947 0.019762725
0001c0 0d 15 b2 bc cd 3d a9 39 43 93 cd bc 14 f9 e6 bc
       -0.021738553 0.00032280237 -0.025094634 -0.028194942
0001d0 5a 25 e6 bd f7 ca 85 3c c0 1a de 3c 2d 1f 14 bb
       -0.11237593 0.016332133 0.027112365 -0.002260159
0001e0 38 35 a3 bd 19 84 9c 3b d1 4e f5 3c 1c ce 97 bc
       -0.07969135 0.0047764895 0.02994481 -0.018530898
0001f0 81 30 9b bb 83 d1 09 bd 88 0e 7a bd 0f 37 ff bb
       -0.0047360067 -0.03364707 -0.061049014 -0.007788546
000200 9a 9f 92 bc 53 03 cc bc 21 e4 81 bd e7 0f 74 ba
       -0.01789837 -0.024903929 -0.0634234 -0.0009310231
000210 c9 31 b0 3c 74 64 b9 3d 71 85 c4 ba 5f db 46 3d
       0.021508114 0.09052363 -0.0014993382 0.048549052
000220 dc a2 45 3c b6 59 17 3b 8b 02 90 bd 52 77 bb 3d
       0.0120627545 0.0023094243 -0.07031735 0.09153618
000230 5d 74 55 bc cf 5b 40 bc 15 37 61 3c 38 16 71 bd
       -0.013028231 -0.011740639 0.013746043 -0.05885908
000240 3e 25 04 be e7 ee 22 3d 9e a0 74 3c 9b 23 7e bb
       -0.12904832 0.039778616 0.014930872 -0.0038778547
000250 a8 e1 d2 3b d3 55 06 3d 25 63 fb 3c 5e f1 f5 bc
       0.0064355917 0.032796692 0.030686924 -0.03002232
000260 e2 52 38 bb fe ea f6 3c a3 2b 5c 3c 36 2b 90 3d
       -0.0028125574 0.03014135 0.013438138 0.07039492
000270 72 7e 6c bc 7e 52 e2 bb 6e b9 cd 3a 7e 3d ee bc
       -0.014434444 -0.0069068065 0.0015695521 -0.029082056
000280 90 c8 c0 3c 91 f6 d3 bd a2 49 0f 3d e9 f9 0c bd
       0.023533136 -0.10349763 0.03498233 -0.03441802
000290 56 47 15 3a db 89 00 be 20 ce 13 3d e3 2a 21 bd
       0.0005694529 -0.12552588 0.036085248 -0.03934754
0002a0 c8 11 fc 3c 0e 72 b5 3c 1e e3 69 3c c7 30 8b 3c
       0.030770198 0.022149112 0.01427534 0.016991032
0002b0 b0 66 82 bb 96 d0 7c bd 76 aa eb bd 00 43 02 bd
       -0.0039795265 -0.06172236 -0.11507122 -0.031802177
0002c0 1d d3 8e bc 30 a7 bd bc 54 ca 57 3d 33 be 0d bd
       -0.017434651 -0.02315101 0.05268319 -0.034605216
0002d0 75 4d 57 bb 03 74 bd bd c0 95 a1 3d 58 b3 d1 bc
       -0.0032852564 -0.09250643 0.07889891 -0.025598213
0002e0 88 ac ea 3a bb ce c8 3b 10 c8 9f 3c a3 17 0e bc
       0.0017904202 0.00612816 0.019504577 -0.008672628
0002f0 d7 6e f9 3c 5b e4 c2 3b e8 b5 54 bb 81 1d 93 ba
       0.03044836 0.0059476322 -0.0032457057 -0.0011224003
000300 91 36 98 3b a1 cc f2 bc 8e 98 04 3d b1 90 ba bc
       0.0046451767 -0.02963859 0.03237205 -0.022774072
000310 2a 9c 9b bd 13 34 dc bd 71 52 07 3c d2 91 d5 3c
       -0.07598145 -0.1075212 0.008259402 0.02607051
000320 91 e9 52 3d 7b 1c e9 bc 38 8d 69 bd 9f 51 de bc
       0.051492278 -0.028455963 -0.057019442 -0.02713853
000330 e8 43 28 3d e5 0e 77 3c 8f 4c 95 bd bb 35 fc 3c
       0.041080385 0.015079235 -0.07289993 0.03078734
000340 9b 6c 22 bd 7e 62 2c bd 4f 52 9b bd b5 2d 65 bd
       -0.039654355 -0.042086117 -0.075840585 -0.055951793
000350 68 8b 20 bc 48 78 c3 bd e1 93 02 bd 5b 58 85 bc
       -0.009798862 -0.09544426 -0.03187931 -0.016277483
000360 74 17 ba bc 83 c9 91 3d ac b2 48 bc ab c9 a9 bc
       -0.022716261 0.071185134 -0.01224963 -0.020726046
000370 ae 1f 6a bd 22 ca 4c 3d 40 5b 77 bd a9 ae 3c bd
       -0.05715912 0.049997456 -0.060389757 -0.046065006
000380 40 d2 66 3c f4 0f 18 3a 33 74 09 3b 95 dc 22 bd
       0.014088213 0.0005800717 0.00209738 -0.039761145
000390 3c 5e 11 bd 68 fd 20 bd 51 91 96 bd 67 fa a8 bd
       -0.03549026 -0.039304167 -0.07351936 -0.082508855
0003a0 8b 37 ba 3b 25 ce cd 3c e0 eb 4a bd b5 39 e2 bc
       0.005682891 0.025122711 -0.049541354 -0.027615407
0003b0 f6 02 44 3c 07 6e ff 3a 90 b7 de b8 3a de 21 bd
       0.011963597 0.0019487747 -0.00010619976 -0.039518572
0003c0 eb 72 4c ba 98 0c 3d bd 64 15 65 bd a9 98 9b 3c
       -0.00077991065 -0.04615459 -0.055928603 0.018993692
0003d0 1c 8a 45 bd fe ab 8f bc 42 83 a9 3c 14 c1 72 bd
       -0.048227414 -0.017538067 0.020692471 -0.059266165
0003e0 79 f8 b8 bc fc b3 33 bd fb de 13 bd 83 7f a5 bd
       -0.022579418 -0.04387282 -0.036101323 -0.080809616
0003f0 14 e0 37 bc 94 92 14 3b 00 4d 93 bc 87 0f a8 3c
       -0.011222858 0.0022670375 -0.017981052 0.020515217

action_model._continuous_distribution.mu.bias f4 [4]
000000 a5 71 64 bd fa 9d 91 3b 2e f6 3e 3d 03 37 8f 3c
       -0.055772442 0.004443881 0.046621494 0.017482286

exp_avg f4 [128, 16]
000000 af ad d9 b8 a7 49 85 38 68 81 c3 3a 46 eb a4 3a
       -0.000103797174 6.355653e-05 0.0014915885 0.0012582324
000010 91 71 7d 36 29 7f 8b ba cb 9d 24 3b 69 74 17 3b
       3.7766042e-06 -0.0010642755 0.0025118466 0.0023110157
000020 47 10 7d 38 76 f6 b9 b8 0a f2 c1 3a 00 4a c6 3a
       6.033506e-05 -8.867394e-05 0.0014796865 0.0015128255
000030 b3 73 60 bc a5 17 4a bb a9 22 80 bd 73 54 23 3b
       -0.01369946 -0.0030836847 -0.06256611 0.0024922162
000040 a7 0c c5 39 a2 e6 97 b9 c3 3a 4c b9 1d 3f 5d 39
       0.00037584195 -0.000289728 -0.00019476847 0.00021099714
000050 6d f2 55 b6 f2 53 98 38 e5 c0 3a b9 d9 30 13 b9
       -3.1880584e-06 7.263561e-05 -0.00017810201 -0.0001403721
000060 c5 bb eb 38 d8 71 2e ba 63 fd e8 39 db 38 09 3a
       0.00011240648 -0.0006654537 0.00044439276 0.00052346074
000070 83 55 bf 3a c7 a5 71 ba 85 0c 2b 3a e5 15 b1 b9
       0.0014597628 -0.0009218123 0.0006524998 -0.00033776383
000080 4b 32 66 37 ac 9a 28 b9 71 7b 9a ba 0e d8 a4 ba
       1.3720778e-05 -0.00016079348 -0.0011786056 -0.0012576596
000090 77 f3 04 38 24 f4 bc b8 bc 1a a6 ba 04 00 ad ba
       3.1697997e-05 -9.010013e-05 -0.0012672762 -0.0013198857
0000a0 05 10 8a b8 ba 63 af b8 27 2b 9a ba 0e 49 a6 ba
       -6.583337e-05 -8.363226e-05 -0.0011762128 -0.0012686567
0000b0 8b 07 8e 3a 54 e7 82 ba 18 b3 fc ba b2 25 f8 ba
       0.0010835988 -0.0009987154 -0.0019279448 -0.0018932133
0000c0 59 ea ee 39 66 11 9e b9 e9 ca 4b ba 26 f6 9b b9
       0.000455695 -0.0003014907 -0.00077740714 -0.000297473
0000d0 50 ba 30 37 63 15 7d b8 03 50 16 ba f7 a6 22 ba
       1.0533797e-05 -6.033982e-05 -0.00057339686 -0.0006204689
0000e0 7b f4 1d 39 e8 43 8c ba 7b 58 9b 39 26 46 db 39
       0.00015063763 -0.001070139 0.00029629827 0.000418232
0000f0 fe 17 42 3b f9 6a ba ba 1a 94 d4 b8 19 58 ab ba
       0.0029616351 -0.0014222554 -0.00010136534 -0.001307252
000100 50 0e de b4 9c bb be 38 e8 b6 37 ba 09 f4 3c ba
       -4.1361136e-07 9.094851e-05 -0.0007008151 -0.0007207995
000110 66 27 f0 b6 96 4b 7c b8 30 56 0e ba b9 f5 1b ba
       -7.157144e-06 -6.0151877e-05 -0.0005429713 -0.0005949396
000120 e5 60 ba b8 9d 58 33 b8 23 f3 fa b9 d3 b7 2d ba
       -8.887219e-05 -4.2759453e-05 -0.00047864867 -0.0006626818
000130 18 78 05 3b 2e d4 07 3b bf 0d 80 bb d6 a2 57 ba
       0.002036577 0.0020725834 -0.0039078887 -0.00082258636
000140 e6 de dc b8 81 99 fc 37 d2 d3 19 3b eb c8 15 3b
       -0.000105319355 3.0112222e-05 0.0023472202 0.0022855352
000150 c8 43 27 37 64 40 04 3a 63 5d e6 3a 97 cc dc 3a
       9.969757e-06 0.00050449953 0.0017575439 0.001684564
000160 46 05 d4 b5 a4 3d 13 ba f8 cf 39 3b 34 35 38 3b
       -1.5796766e-06 -0.000561679 0.0028352719 0.0028107883
000170 f9 df 60 3d 0b 37 02 bd ab a0 21 be 49 fd 81 3b
       0.054901097 -0.031790774 -0.15783946 0.0039669615
000180 28 1c da 39 af 4f 06 b9 32 04 43 ba 53 9b db b9
       0.00041601178 -0.0001280892 -0.0007439285 -0.0004188666
000190 df fa 0c 38 d3 d5 14 3a c4 97 8a ba 02 a2 8e ba
       3.3612243e-05 0.0005677614 -0.0010573794 -0.0010882022
0001a0 27 09 ba 38 02 2c ff b9 a8 52 73 b8 05 e4 88 38
       8.870876e-05 -0.00048670179 -5.8012694e-05 6.527457e-05
0001b0 2c 11 94 bc 05 c6 89 3c 9c 64 aa 3d 8c ca 97 ba
       -0.018074594 0.016818056 0.08319971 -0.0011580749
0001c0 83 82 48 38 f9 d7 86 b9 f8 50 99 ba f0 70 8a ba
       4.7805264e-05 -0.00025719384 -0.0011697104 -0.0010562222
0001d0 bb d0 a8 37 7a 0f 1a b9 37 24 a4 ba 7c fa aa ba
       2.0124358e-05 -0.0001469235 -0.0012523 -0.0013044621
0001e0 7d d3 53 38 aa 5a 50 ba 56 68 26 ba 3a a1 38 ba
       5.0503284e-05 -0.00079480803 -0.0006347945 -0.00070430676
0001f0 e4 c1 a4 3c 0d e5 01 bb 40 35 82 3c 4b 8b 14 bb
       0.020111986 -0.0019820363 0.015894532 -0.0022666033
000200 df 55 36 b8 c2 3c 90 38 e9 40 64 39 20 0a 73 39
       -4.3472155e-05 6.877772e-05 0.00021767955 0.00023178058
000210 63 a7 55 37 15 e6 08 b9 ba 2a bd 39 6d 0b 8a 39
       1.2734762e-05 -0.00013055683 0.00036080723 0.00026329924
000220 9d fc 93 b8 2f c0 d6 b9 22 92 3d 3a f8 e6 01 3a
       -7.056559e-05 -0.0004096045 0.00072315533 0.00049553765
000230 f8 d5 41 3c f6 95 2a bc 60 1e cd bd 8e ba 47 3a
       0.011830799 -0.01041173 -0.10015559 0.00076190464
000240 3b 38 0c b8 9b 06 0d ba 48 5b e6 3a 2d 21 e1 3a
       -3.343097e-05 -0.00053797074 0.0017574811 0.0017176025
000250 61 e9 c8 35 cc b0 c9 b8 0b df a7 3a be 7a a4 3a
       1.4969083e-06 -9.617358e-05 0.0012807561 0.0012548787
000260 62 24 8a 37 f1 0f 88 b9 a4 51 bb 3a 3a de bb 3a
       1.6467824e-05 -0.0002595182 0.0014291299 0.0014333196
000270 50 bc 77 3d fb 3c c3 bc 87 35 bc bd 58 48 04 3b
       0.060482323 -0.023832789 -0.09189897 0.0020184722
000280 a0 9a 82 b9 72 5d 04 3a 4f 53 8c ba 4d c4 c3 ba
       -0.00024910737 0.0005049325 -0.001070598 -0.0014935822
000290 98 13 5e 38 89 3c 98 b9 76 59 17 ba 86 11 38 ba
       5.2947173e-05 -0.000290368 -0.00057735236 -0.0007021654
0002a0 e7 50 8c b9 25 d4 28 3b a7 af 4c bb 00 39 54 bb
       -0.00026763158 0.0025761214 -0.0031232627 -0.0032382607
0002b0 b6 d8 5d 3c 7c 14 2a bb d7 39 5c 3c 39 b5 64 ba
       0.013540437 -0.002595215 0.0134415245 -0.0008724514
0002c0 14 f0 ca b8 c4 a1 c0 b9 97 f9 83 3a a2 1f 76 3a
       -9.6768286e-05 -0.00036741619 0.001006889 0.0009388869
0002d0 5b ac b5 35 77 bb 9b b7 4d c7 12 3a 37 9c 11 3a
       1.3535713e-06 -1.8564735e-05 0.0005599156 0.0005554589
0002e0 24 d8 61 b7 58 73 d4 38 7a 7a ee 39 60 a5 dd 39
       -1.3461369e-05 0.00010130432 0.0004548615 0.0004227562
0002f0 1e 6a 8f 3d 25 b1 cc bc 03 c7 c2 bd 3a 27 8c 3a
       0.07002662 -0.024986813 -0.09510615 0.0010692843
000300 04 e1 b7 35 51 7a 17 39 6e 77 8c 39 dd 03 a8 39
       1.3700051e-06 0.00014446049 0.00026791863 0.00032046335
000310 d7 e4 a5 b4 23 ac 58 39 bc 7f 59 39 4c 76 72 39
       -3.0900148e-07 0.00020663491 0.00020742317 0.00023122987
000320 9b 42 cc 38 39 ee e7 38 84 c0 57 39 75 45 a4 39
       9.739884e-05 0.00011059311 0.00020575715 0.00031332267
000330 bf e6 a9 3b a3 ef f7 ba ea 5c b4 bc a7 50 26 3a
       0.005184978 -0.0018916022 -0.022016961 0.00063444156
000340 76 32 aa 39 0f 99 f4 b9 de 16 4c 3b d0 af 61 3b
       0.00032462523 -0.00046653344 0.003114156 0.0034437068
000350 b4 88 0c 38 94 96 f9 39 16 65 21 3b 6a 54 21 3b
       3.3505916e-05 0.0004760517 0.0024626902 0.0024616965
000360 28 7e 1f 39 76 78 83 ba 65 8e 7a 3b 48 6d 81 3b
       0.00015210418 -0.0010030407 0.0038231846 0.003949795
000370 a5 35 fc 3c 04 64 9e bc c1 0e ff bd 5f 41 93 3b
       0.030787298 -0.0193348 -0.12453986 0.004493877
000380 57 dc 23 39 1a 7a 26 38 8b 12 27 ba 59 49 da b9
       0.00015626974 3.96912e-05 -0.00063733076 -0.00041634848
000390 5f 21 25 b8 69 5f 4e b9 91 27 57 b9 d7 4b 81 b9
       -3.9370145e-05 -0.00019681234 -0.00020518737 -0.00024661302
0003a0 f4 7d 90 b8 52 02 18 b9 06 8e 6e b9 c5 bc c6 b9
       -6.889916e-05 -0.00014496714 -0.00022750357 -0.00037906147
0003b0 52 ab 86 bb 28 30 12 39 9a f8 64 bb 96 f6 32 ba
       -0.0041097784 0.00013941585 -0.0034938217 -0.00068269053
0003c0 4a 39 19 3a 64 67 9d 3a f1 16 99 3a 45 09 e8 3a
       0.00058450236 0.0012008962 0.0011679811 0.0017702958
0003d0 1d 4f c2 b6 02 3c fa 39 26 a7 22 3b 25 5d 00 3b
       -5.7908605e-06 0.00047728425 0.0024818867 0.0019586768
0003e0 ff e9 ac 39 1e f9 15 ba 86 6e 51 3b ad b9 61 3b
       0.00032980737 -0.000572102 0.0031956746 0.0034442947
0003f0 f3 ae e6 ba a5 1b 56 bc 24 82 22 be bb b3 84 3b
       -0.0017599746 -0.013068114 -0.15869957 0.004049746

exp_avg_sq f4 [128, 16]
000000 6f 66 93 35 16 fa 18 38 d3 09 33 38 87 5b 40 38
       1.0982166e-06 3.6472535e-05 4.2686075e-05 4.586161e-05
000010 b9 d6 be 35 75 a9 93 37 67 51 83 38 d7 40 88 38
       1.4218596e-06 1.7602675e-05 6.261729e-05 6.497063e-05
000020 d1 3f 0e 36 19 94 0c 38 93 fb 40 38 51 47 4c 38
       2.1196795e-06 3.3516528e-05 4.6010664e-05 4.870381e-05
000030 38 03 ae 3b 30 ae 60 3a da be 38 3c f3 23 30 39
       0.0053104423 0.0008570878 0.011275971 0.0001679806
000040 90 19 ac 35 2c e1 af 36 ee 6a 17 37 8b 12 2c 37
       1.2822438e-06 5.24162e-06 9.025198e-06 1.0256316e-05
000050 15 11 6e 35 b5 10 4a 36 26 52 40 37 ec d0 4e 37
       8.8686767e-07 3.011007e-06 1.14632185e-05 1.23272e-05
000060 af ac 6b 34 29 06 e0 36 f6 33 0f 37 c5 48 13 37
       2.1948902e-07 6.6764374e-06 8.535562e-06 8.778826e-06
000070 5c 62 c2 38 20 de d3 38 3c 31 dc 38 f6 57 01 38
       9.268962e-05 0.00010102638 0.00010499588 3.0837917e-05
000080 91 86 8e 35 4e c9 13 36 f4 46 65 37 6f 8b 7c 37
       1.0618988e-06 2.2021882e-06 1.3665984e-05 1.5052835e-05
000090 4f c9 4b 35 19 89 1d 36 c5 85 62 37 48 51 73 37
       7.5916336e-07 2.3474624e-06 1.3501795e-05 1.4502853e-05
0000a0 e0 31 1e 36 39 d6 96 35 f8 f3 66 37 1d 4d 84 37
       2.3572866e-06 1.1238218e-06 1.3765872e-05 1.5771535e-05
0000b0 35 e8 3f 39 46 30 c9 38 d0 5e 1e 39 9b 66 fe 37
       0.00018301683 9.5934185e-05 0.00015103375 3.0326939e-05
0000c0 d2 de c2 35 9e 9a cc 36 29 75 86 38 c5 c5 88 38
       1.4518976e-06 6.0976736e-06 6.411441e-05 6.521823e-05
0000d0 5c ee e5 35 99 43 4d 37 46 de 6f 38 b2 75 78 38
       1.7131201e-06 1.2234691e-05 5.718905e-05 5.923742e-05
0000e0 3a 79 32 35 23 80 c8 37 b2 05 48 38 6a 14 4d 38
       6.6486575e-07 2.3901526e-05 4.768902e-05 4.889482e-05
0000f0 99 9a ad 39 62 b7 20 3a 28 b8 6e 39 32 fb 08 39
       0.00033112316 0.0006130842 0.00022766052 0.00013063548
000100 df 30 71 34 43 10 c7 34 a9 0f c8 36 14 ee ce 36
       2.2462653e-07 3.707847e-07 5.9622876e-06 6.1669944e-06
000110 49 62 e8 34 f7 b2 19 36 97 95 83 36 44 c9 99 36
       4.328488e-07 2.2902948e-06 3.921519e-06 4.5831857e-06
000120 bf 2b 5b 35 43 55 6b 35 de 9d a3 36 dc 87 c1 36
       8.1647516e-07 8.7668394e-07 4.8761567e-06 5.7676643e-06
000130 68 ff 0b 3a c2 b0 25 39 a9 d0 16 3b 98 35 61 37
       0.00053404877 0.00015801474 0.0023012555 1.3423523e-05
000140 35 8f c2 34 fe 5c d5 36 70 02 bc 37 2f a4 c0 37
       3.6239513e-07 6.3587204e-06 2.2412481e-05 2.2964638e-05
000150 51 b1 ef 34 b4 ed 86 37 78 fc 4e 37 ba 8a 6a 37
       4.4646234e-07 1.6084734e-05 1.2337339e-05 1.3979787e-05
000160 3e 98 dd 34 4d 82 2a 37 8b 7c a4 37 cc 4f a9 37
       4.1275229e-07 1.0163128e-05 1.9608318e-05 2.0183528e-05
000170 c7 71 6a 3b 1b bc d9 3a 96 f9 eb 3c ed 34 92 38
       0.0035773383 0.0016611846 0.028805535 6.971681e-05
000180 ad 4f 3e 36 de 65 9f 36 76 14 be 38 c8 ce c3 38
       2.8358584e-06 4.750428e-06 9.063717e-05 9.3368406e-05
000190 2c 81 dd 35 8f a0 ab 37 35 2e a0 38 bb 19 a6 38
       1.6503377e-06 2.0459554e-05 7.638001e-05 7.9202895e-05
0001a0 36 ec 9a 36 3a db 3c 37 9a 97 ad 38 30 9a b5 38
       4.617056e-06 1.1256716e-05 8.277521e-05 8.659472e-05
0001b0 f9 05 ad 3a 92 97 77 3a a8 6b f7 3b 33 e5 38 39
       0.0013200633 0.0009444888 0.0075506754 0.00017632991
0001c0 0a 87 07 35 50 8b b0 36 8f b0 68 37 61 7a 75 37
       5.0487927e-07 5.261427e-06 1.3869386e-05 1.46316315e-05
0001d0 f0 54 07 35 49 f0 40 36 66 e1 89 37 7f bd 8f 37
       5.041502e-07 2.8750094e-06 1.6436632e-05 1.713517e-05
0001e0 36 04 0c 35 4e 18 ed 36 ae 8d 4e 37 cb 91 5a 37
       5.216019e-07 7.06598e-06 1.2311544e-05 1.3027758e-05
0001f0 4c be e6 3b f6 e8 80 39 0c cb a1 3b 0f 67 30 38
       0.007041728 0.00024587632 0.004937535 4.205765e-05
000200 cb b6 86 36 e9 ce 2a 37 d5 92 27 38 bb 8c 36 38
       4.014791e-06 1.0180965e-05 3.995265e-05 4.3523247e-05
000210 ae bf 56 36 b9 0d 97 37 78 b0 0e 38 0f df 21 38
       3.2000057e-06 1.8006993e-05 3.4019788e-05 3.859313e-05
000220 13 af 9c 36 08 08 01 37 63 7e 31 38 ee 6f 42 38
       4.6695436e-06 7.690869e-06 4.2317795e-05 4.6357447e-05
000230 24 68 47 3c 13 2b 10 3b 17 b1 20 3d 92 b9 f8 38
       0.012170825 0.002199833 0.039231386 0.00011860127
000240 5b de 32 35 d7 56 b9 36 c1 3f a3 37 b7 ce a7 37
       6.6633737e-07 5.523539e-06 1.9460802e-05 2.000421e-05
000250 42 7c 38 35 cb 22 cb 36 ad 91 a6 37 01 6a ae 37
       6.872616e-07 6.053922e-06 1.9856578e-05 2.0791778e-05
000260 99 d4 83 35 66 ad 76 37 94 20 40 37 07 e3 57 37
       9.822135e-07 1.4703115e-05 1.1451677e-05 1.2867858e-05
000270 38 f3 78 3c 6a 95 ea 3a 03 c0 17 3d 30 35 80 38
       0.015194707 0.0017897312 0.03704835 6.1134226e-05
000280 70 b4 49 36 59 0b f1 37 56 63 0f 39 ac d9 14 39
       3.0056362e-06 2.8734723e-05 0.00013674548 0.00014195469
000290 e1 fd 18 36 12 8e 99 37 5a cc 1b 39 22 d6 1e 39
       2.2797542e-06 1.8305178e-05 0.00014858079 0.00015147825
0002a0 ee 23 93 36 e4 64 89 38 11 fe d6 38 74 f8 e3 38
       4.385124e-06 6.5514614e-05 0.00010251639 0.000108704815
0002b0 e2 69 91 3b 2d 33 9b 3a 8d d8 3a 3b 84 ba b1 39
       0.004437671 0.0011840813 0.0028510422 0.00033899036
0002c0 38 4d ff 35 78 fd 74 36 e5 5a 5d 38 06 d9 62 38
       1.9021454e-06 3.6506372e-06 5.2775158e-05 5.4084718e-05
0002d0 95 b1 09 36 4b 34 c2 36 78 b0 5c 38 e5 13 62 38
       2.0517957e-06 5.7877382e-06 5.2616437e-05 5.3901127e-05
0002e0 35 aa 42 36 a3 79 d7 37 8e ce 0a 38 c9 53 18 38
       2.9007326e-06 2.5686639e-05 3.3094133e-05 3.6317655e-05
0002f0 58 c5 c7 3c 0c 47 a6 3b 44 97 b4 3d 0e 1f 13 39
       0.024386093 0.0050743874 0.08817914 0.00014030581
000300 29 fa 64 36 ea 13 07 37 b2 bd 0c 38 60 53 1b 38
       3.412026e-06 8.051264e-06 3.355527e-05 3.703253e-05
000310 04 cf 17 36 74 70 3d 37 55 81 07 38 30 c2 13 38
       2.2621252e-06 1.129146e-05 3.2306958e-05 3.5228382e-05
000320 32 ca cf 36 ef 7b 86 36 80 c1 14 38 a3 7a 2b 38
       6.1926194e-06 4.007939e-06 3.546616e-05 4.088379e-05
000330 df 5e b0 3a b1 3d 3f 3a 5f 5f 3e 3c 8d be b6 38
       0.0013456008 0.00072952645 0.011619418 8.713929e-05
000340 34 e5 43 36 d4 c5 c5 36 78 c6 ac 38 c0 1d b3 38
       2.9190678e-06 5.8940877e-06 8.238567e-05 8.5409265e-05
000350 86 96 1b 36 9d 5b d2 37 ff a2 88 38 fc 69 8e 38
       2.3184416e-06 2.5076612e-05 6.515346e-05 6.790829e-05
000360 a8 ca 28 36 ad 9a 5d 37 e2 cc a0 38 c1 ca a5 38
       2.5151912e-06 1.320864e-05 7.667557e-05 7.905579e-05
000370 e4 48 e8 3a 27 52 b2 3a dd bc b2 3c 33 82 34 39
       0.0017721918 0.0013604806 0.021818573 0.0001721464
000380 b4 7a 38 35 27 2d 55 36 07 cd 0e 37 2c 09 1d 37
       6.87239e-07 3.1765755e-06 8.511596e-06 9.360065e-06
000390 c4 67 19 35 55 c0 63 36 f2 86 0f 37 5f 14 1d 37
       5.714794e-07 3.3937588e-06 8.554884e-06 9.362672e-06
0003a0 41 65 74 35 c3 3e 02 36 48 10 24 37 24 4d 30 37
       9.1044427e-07 1.9408042e-06 9.7789525e-06 1.0508378e-05
0003b0 51 a5 a5 3a e8 34 b9 38 e8 6f 59 3a 45 b5 af 37
       0.0012637769 8.831342e-05 0.00082945684 2.0946036e-05
0003c0 64 8a ce 36 98 f6 6f 37 9a 15 d3 38 66 08 e2 38
       6.155389e-06 1.4302925e-05 0.00010065288 0.00010778084
0003d0 f0 31 80 36 f0 b3 08 38 57 73 b5 38 c0 ab c2 38
       3.8205108e-06 3.2592507e-05 8.652236e-05 9.282632e-05
0003e0 74 68 0a 37 e0 6a f3 36 fb da e1 38 7c e0 f2 38
       8.249761e-06 7.2544062e-06 0.00010769624 0.00011581273
0003f0 8f d2 b3 3c 9a 06 3e 3b 2f 46 2e 3d 1c 69 83 39
       0.021950988 0.0028995634 0.0425474 0.0002506458

exp_avg f4 [128]
000000 25 3b be 3a 71 dd e3 b8 61 c2 ad ba 73 5e 23 ba
       0.0014513476 -0.0001086545 -0.0013256782 -0.00062320306
000010 37 fb 1f ba 0e e6 14 3b 0e 14 ef b9 e3 c2 b4 ba
       -0.00061028026 0.002272013 -0.00045600574 -0.0013790991
000020 d7 c9 7e 39 38 76 9b 3a 7f 96 55 ba 48 44 0e 3a
       0.00024298519 0.0011860793 -0.0008147731 0.0005427045
000030 73 ec d8 39 0a ca 42 3b a6 67 e7 b9 7e 8d 41 3b
       0.000413749 0.0029722475 -0.00044136978 0.0029533799
000040 3a a1 dd 3a ec bb 60 ba 49 15 a2 ba bd 3d de ba
       0.0016909011 -0.00085729244 -0.0012365963 -0.0016955655
000050 b7 b0 37 bb 55 8c bf 3a eb c5 62 3a 81 ed 04 3a
       -0.0028028914 0.0014613966 0.0008650708 0.0005070791
000060 4b 59 c0 b9 71 58 c3 3a 96 0c d7 ba e7 45 90 3a
       -0.00036687622 0.0014903677 -0.0016406949 0.0011007161
000070 0e fb 6a 3a a6 f0 82 b9 98 04 17 38 a0 7b 9c ba
       0.00089638017 -0.0002497483 3.6005484e-05 -0.0011938699
000080 ff b1 a7 38 5e 2f a5 38 05 51 92 39 1d f3 24 ba
       7.996335e-05 7.876636e-05 0.00027907654 -0.000629233
000090 63 e9 cf ba 36 f1 fe 39 eb e9 32 ba ae 0b 21 3a
       -0.0015862401 0.0004862637 -0.00068250176 0.0006143403
0000a0 eb f3 83 ba af f1 11 ba 98 ab 60 b8 19 ac 9d 39
       -0.00100672 -0.00055673247 -5.356557e-05 0.00030073596
0000b0 59 82 c5 3a 7b 6b b5 3a 9f d5 6e 3a fb 74 f1 ba
       0.0015068754 0.0013841236 0.00091108115 -0.0018421704
0000c0 23 2f 9e 3a f7 25 d2 3a be 8e a9 ba a0 75 24 3a
       0.0012068491 0.0016033043 -0.0012936217 0.0006273631
0000d0 34 87 25 b9 b6 11 fc 3a 4a db 91 38 6d a3 22 ba
       -0.00015785993 0.0019231352 6.9549846e-05 -0.0006204162
0000e0 69 2c 7e ba 3c 11 1d 3b e8 71 3b 3b 44 37 26 ba
       -0.00096959487 0.0023966571 0.002860183 -0.00063406327
0000f0 3a b6 d2 ba 2e b0 83 3a 10 be 93 b8 7c 53 a5 ba
       -0.0016076036 0.0010047012 -7.044908e-05 -0.0012613381
000100 68 3f 17 ba 85 50 bb 37 18 0a 2c ba fb 87 8b 39
       -0.0005769641 2.2329632e-05 -0.00065627834 0.0002661346
000110 79 46 07 39 47 a0 84 3a 37 2d 5f ba e9 85 d1 38
       0.00012900856 0.0010118567 -0.00085135124 9.990839e-05
000120 81 5e 1d ba d1 fa ac 3a 0a 4a d2 3a 81 c1 1e ba
       -0.0006003157 0.0013197308 0.0016043794 -0.0006056056
000130 51 a7 3a 39 3e b4 9e 3a 9a 90 28 39 ab 1b 97 ba
       0.00017800673 0.001210816 0.00016075597 -0.0011528631
000140 f2 dc bc ba 96 59 71 ba 49 64 5b ba 38 d1 06 bb
       -0.0014409109 -0.000920677 -0.00083691307 -0.0020571481
000150 dc 83 03 bb 37 ba fb 3a ae c5 e3 b9 53 a2 b7 ba
       -0.0020067608 0.0019205277 -0.00043444097 -0.0014010168
000160 47 5c 9a ba 8c db 97 ba 0d e7 89 39 e3 6f 05 39
       -0.0011776768 -0.0011585816 0.00026302823 0.0001272555
000170 33 9e 07 b7 ae c0 44 3b 6d 58 0d b9 f3 4b 94 37
       -8.083461e-06 0.0030022073 -0.00013479749 1.7678341e-05
000180 c7 ca 5d 3b d6 5d 6e 38 68 15 02 3b a2 29 e3 39
       0.0033842789 5.6831013e-05 0.0019849185 0.00043327833
000190 8e 91 b3 3a bd 88 0c 3b 26 23 03 b9 22 ae a8 b9
       0.0013699995 0.0021443807 -0.00012506227 -0.00032173196
0001a0 7f e3 bf ba a6 bb ab ba 37 17 84 39 23 ad 90 ba
       -0.0014639943 -0.0013102188 0.00025194298 -0.0011037927
0001b0 61 9e 99 ba f1 b0 36 3a ba 75 32 bb 06 5f ef ba
       -0.0011720174 0.00069691153 -0.0027230815 -0.0018262572
0001c0 93 1f 9c 39 07 34 32 39 ea 3d c0 b7 d9 fc a5 3a
       0.00029778163 0.00016994785 -2.2917015e-05 0.0012663855
0001d0 16 11 39 ba f7 2e df 3a 1e 99 b1 3a 27 06 02 3a
       -0.0007059736 0.0017027546 0.0013549661 0.0004960023
0001e0 2a 46 15 ba fa 4c 48 39 e5 5a bc 39 1b 8c 20 3b
       -0.0005694354 0.00019102162 0.00035925876 0.0024497572
0001f0 68 4f 0e 3a 69 55 93 ba bf 4a 27 ba 38 b3 63 b8
       0.00054287026 -0.0011240664 -0.00063816825 -5.4287928e-05
