results/RedCells3RaycastP2/RedCell3Raycast/RedCell3Raycast-500640.pt (torch, 475188 bytes, 36 tensors)

network_body._body_endoder.seq_layers.0.weight f4 [128, 16]
00000000: 0842 923e fd39 86bb 082f 16be e6ee 533f
00000010: fc24 c83e e987 adbb 966b 2f3e c575 6c3e
00000020: 0cfd 103f 44b7 06bf b9b2 de3d 4342 eb3e
00000030: 4324 36be 4433 953d 152d 8dbd 4f22 113e
00000040: a4e2 513e 5863 20be 433c 89be ed96 9cbe
00000050: f6d0 9d3e dbf8 75be 404d 9a3d 02de d1be
00000060: 3ea8 ddbe c625 8c3e ff48 993e a6c4 14bf
00000070: 4668 bf3c 777e eb3d ffe8 8e3e e77d 90bd
00000080: 9b03 73be 0a17 20be 4453 05be 2b44 1f3e
00000090: 9943 9ebe 35a9 443e d889 8d3e 3beb 2bbe
000000a0: 7e0b a23e a672 f1be 4f24 4cbd 7649 943d
000000b0: 64b7 96bd 1d0f 7dbe b3a0 433e 8591 89be
000000c0: 45b8 363e 9096 7cbe 94b6 913d 8440 7fbe
000000d0: b731 363d a06b 68be 0568 e9bd 2179 3cbe
000000e0: a05d c7be 6143 263e 971b bfbd a806 b4bd
000000f0: 8606 0dbe d256 8f3e 853a d33e 18b4 e0be
00000100: e7da 35bd 1508 ddbe 44d1 443e b755 693e
00000110: cfa7 643e b87e ad3e 16a7 5cbe 18d0 8b3c
00000120: f1ae d5be fc5d 883d 6df9 0dbf 31e1 be3e
00000130: 0185 6fbd 86ef 91be ef77 eabd bce4 29bf
00000140: d728 12be bf38 a93d 96ca 73be 0d25 5bbe
00000150: 0800 8fbd aaec 163f ca13 7dbe bf8f 76be
00000160: adff fabe ed4c 703e 3017 b6bc 1367 16bf
00000170: 589b 9cbd 4340 863d decc dabe 4195 0a3e
00000180: 1d04 26be da1a 40bf 6af0 0fbc 4a7a 3ebe
00000190: 6df5 57bd 5f3c 953d 5b58 8a3e 0d48 213d
000001a0: 4fc3 143f fa89 02be e07f 3e3d 3760 86be
000001b0: 786a b23e d6eb d63e 509b febc 6b18 debe
000001c0: ffec 8e3e 7917 5c3e cb53 76be 1e48 433e
000001d0: cab9 a33e 50b7 2abe b90c c7bc aab1 85be
000001e0: 21ed bb3a 639f 853d 5c36 a6bd a6ba be3d
000001f0: 84d8 0abe db12 1ebd 0369 fdbb d61f 123e
00000200: 6ea9 483e d98a 003c 671d 42be 3daa bfbd
00000210: 7e2d b23e da8d 1c3f 8ce2 01bd 7daf 51be
00000220: 5fd7 1e3e 8aba a33e 38d9 7d3e fb17 76be
00000230: 11ce 29be 4785 0cbf 9dbf bfbe 99d4 3d3e
00000240: e00e 163f ea50 653b c934 d03d a612 7ebe
00000250: 7774 63bd 2521 573e c56b f4bd cbcb 26be
00000260: 412f ae3d 510b 083f 9665 9bbe df49 bbbe
00000270: 84f6 0e3d 018c 1a3d 1fa0 59be 30fd 63be
00000280: 763c 53be 1af8 42bf 7cc4 883d ceff 62be
00000290: 9496 06be 4ca0 bdbc 737d b03e 2ad4 0a3f
000002a0: c40a 0b3c a40f 183f 3c38 b73e 3b0f a93a
000002b0: a9a3 39be b50f 5abe 7010 073e 2f0b f83e
000002c0: f280 f43d 327b 66bc 1b23 2e3e bd54 2c3e
000002d0: f92b 963e fea1 ab3e 6573 c83e 218f 75bd
000002e0: 9c3d acbd f169 a13e 9e4a b1be 2596 efbe
000002f0: ce97 5ebd c0d6 b3bd d665 95be b149 31be
00000300: 5d62 9f3d 9395 c93d 4fdd 39bf 9827 65bd
00000310: 7f4d 57be c709 0b3e f550 a6be 669d ad3c
00000320: 392a ffb9 62f6 afbd d0d8 2bbe e4fe b6bd
00000330: eb14 933e 45ee 41be 42d9 bebe 4301 af3e
00000340: eaa4 ca3c b580 f7bd 3380 4b3e ee3b d4be
00000350: 2fc0 013f e64f 573d 24d4 96bd 9ddd e8bd
00000360: 1974 723e 3433 67be 68f4 e13d 9a82 15be
00000370: 712e ad3e 5de4 e53e b3d1 6fbe 4b95 11be
00000380: decc 43be ae01 323c 2eb5 10bf 8b20 433e
00000390: 9ec1 9ebd af8c cd3c 4789 57be 17fd c9be
000003a0: 76ae 07be 113a 84be f35a 29be 0167 f7be
000003b0: 99cb dabe 9d7f 52be d53d d73d 2f1a b6bd
000003c0: 45d5 473f 1bb9 40be 8aa9 ecbe f343 083f
000003d0: 4e74 103f 2f7a 7f3e 18f9 9f3d 3e64 82be
000003e0: c988 8d3e 478f bfbe 0a20 cd3d 97b0 cb3e
000003f0: 5044 333d 81bd 1a3d 488e c1bd 39ef 2fbe
0.28566003 -0.004096268 -0.14666378 0.82786405 0.39090717 -0.005295743 0.17130885 0.230918
0.5663612 -0.5262339 0.108739324 0.4594899 -0.1778727 0.07285169 -0.06893364 0.14173244
0.20496613 -0.15662897 -0.2680379 -0.30583897 0.30823487 -0.24020712 0.075342655 -0.4098969
-0.4329242 0.2737257 0.29938504 -0.5811256 0.023365151 0.11498731 0.27912137 -0.07055264
-0.23731844 -0.15633789 -0.13020045 0.15553348 -0.30910948 0.19205172 0.2764423 -0.16788952
0.31649393 -0.47157782 -0.049839314 0.07240574 -0.07359198 -0.24712797 0.1910427 -0.26868835
0.17843731 -0.2466681 0.07114902 -0.24926955 0.044481006 -0.22697306 -0.11396793 -0.18405582
-0.38938618 0.1623664 -0.09331434 -0.08790332 -0.1377202 0.27995926 0.41255584 -0.438874
-0.044398215 -0.4317023 0.19220454 0.22786604 0.22329639 0.3388574 -0.21548113 0.017067
-0.41735032 0.06658551 -0.5545872 0.37281182 -0.05847645 -0.28503054 -0.11448657 -0.66364646
-0.14273392 0.082627766 -0.23807749 -0.21400853 -0.06982428 0.5895487 -0.2471458 -0.24078272
-0.4902319 0.23466845 -0.022227854 -0.5875103 -0.07646817 0.06555226 -0.42734426 0.13533498
-0.16212507 -0.7504097 -0.0087853465 -0.18601337 -0.05272429 0.072869055 0.27020535 0.039375354
0.5811052 -0.12747946 0.04650867 -0.2624528 0.34846854 0.41976804 -0.031079918 -0.43378004
0.2791519 0.21493329 -0.24055402 0.1907048 0.31977683 -0.1667149 -0.024298059 -0.2611211
0.0014337638 0.06524541 -0.08115837 0.09312944 -0.13559157 -0.0385922 -0.0077334656 0.14269957
0.19595882 0.007845604 -0.18956529 -0.09358642 0.34800333 0.6115395 -0.031710193 -0.204771
0.15511845 0.31978256 0.24789894 -0.24032585 -0.16582514 -0.54890865 -0.37450877 0.18538131
0.5861645 0.0034990855 0.10166318 -0.24811801 -0.05553099 0.21008737 -0.11934618 -0.16288678
0.08505107 0.5314227 -0.3035094 -0.36579797 0.034903064 0.037731174 -0.21252488 -0.22264552
-0.20628533 -0.7615982 0.066781014 -0.22167894 -0.13143378 -0.023147725 0.3447071 0.54229987
0.008486453 0.59398866 0.3578509 0.0012898216 -0.18128838 -0.21295054 0.13189864 0.48446032
0.11938657 -0.014067458 0.17005579 0.168292 0.29330423 0.33522028 0.3915054 -0.05995095
-0.084101886 0.3152614 -0.3462724 -0.4679424 -0.05434399 -0.08781195 -0.29179257 -0.17313267
0.07782433 0.09842982 -0.72603315 -0.055945963 -0.21025656 0.13577949 -0.3248364 0.021193217
-0.00048668848 -0.08591916 -0.16781926 -0.08935335 0.28726897 -0.18938549 -0.3727513 0.3418065
0.02473684 -0.12085096 0.19873123 -0.41451973 0.50683874 0.05256643 -0.07364681 -0.113703944
0.236771 -0.22578126 0.11032945 -0.14600602 0.33824494 0.4490079 -0.23419838 -0.14217107
-0.1912112 0.010864658 -0.5652646 0.19055383 -0.07751773 0.025091497 -0.21048461 -0.39450905
-0.13250145 -0.2582555 -0.165386 -0.48320773 -0.42733458 -0.20556493 0.105098404 -0.08891713
0.780598 -0.18820612 -0.46223098 0.5322868 0.56427467 0.24948953 0.07811183 -0.25467104
0.2764342 -0.37414 0.100158766 0.39783165 0.04376632 0.03777838 -0.09450966 -0.171811

network_body._body_endoder.seq_layers.0.bias f4 [128]
00000000: 9f80 0f3c a7d5 8ebd c9b3 6cbc 5603 b9bd
00000010: 51e2 d1bd 07ce 85bc a7ff 00bd a3a2 24bd
00000020: 3b8b 1bbc 1752 983d 7e6c 56bd e576 903b
00000030: 71b6 97bd eb36 b7bd 7289 a6bd d8a4 7c3d
00000040: 07c4 8e3d eb9b 953c f477 8ebd 1b05 0fbd
00000050: 9c8d 78bd eab3 f5bc 2e4d 48bc 4b06 293c
00000060: a2c3 b5bd fafe 92bc 8a52 0cbe 02ea bebd
00000070: 1b40 13bd b137 d6bb 160d 443b c3e2 55bb
00000080: a677 5dbd 256c a33d 2014 f3ba ffd1 07bd
00000090: 22ac 7abd c851 a4bd 002b 26bc d2e8 a4bd
000000a0: 4f35 78bd 5ca5 8dbd 8730 69bd e2c9 cebd
000000b0: 3c89 0ebd df54 4bbd 31e5 a13c 36a9 86bd
000000c0: 9f13 5b3c cd65 0ebd 0c81 e3bd e7ba 2bbc
000000d0: 1e54 34bd 8625 1fbd dc5c 34bd 8255 e2bb
000000e0: c495 23bd 5548 70bc bbe8 1bbd ada9 663b
000000f0: 15c6 82bd c72d c5bd 41e1 ebbc 6cb3 fdbc
00000100: e99c 95bc 135b 42bd ea0b aabd c106 31bc
00000110: e310 db3c 3123 e9bc 2de7 02bd 6680 8bbd
00000120: abd2 87bc 6cee cd3d 7c78 b23c 6cb5 82bd
00000130: 5b7e 1abc 4a7f be3a dce4 76bd 261f 41bd
00000140: fc6f 26be 8b42 4a3d 80b0 4bbc 688f e9bd
00000150: 6e02 303d 7e36 083c 62dd c1bd df58 97bd
00000160: 284e 7bbd abc8 83bd fe88 ee3b e88e 70bd
00000170: e945 eebd d8db 6cbd cbb1 72bc 4d24 273c
00000180: feb2 46bd 5f78 723d a61e f33b d245 34bd
00000190: 5704 8ebd 61ba fabd 46af 31bd 045a 27bd
000001a0: e651 8ebd e6c5 78bd 3fdd b2bd 9fa9 76bd
000001b0: 9b8f 88bc e07b 88bd 1a64 6a3d 6d20 09be
000001c0: 31a5 e0bd f235 063d 4211 3fbd eb1c e7bc
000001d0: cd1f 843c 68f0 dcbd d299 88bd ac54 b7bd
000001e0: 0871 9bbd c9fe 013d f6e2 99bd e228 8dbd
000001f0: 04be 6cbc 9649 bc3d aea4 a5bd da6c 47bd
0.008758693 -0.06974345 -0.014447161 -0.090338394 -0.102482446 -0.016333593 -0.03149381 -0.040194165
-0.009493644 0.074375324 -0.05234956 0.0044087046 -0.07407845 -0.08946022 -0.08131684 0.061680645
0.06970983 0.018262824 -0.06956473 -0.03491698 -0.060681924 -0.029993016 -0.012225432 0.010316442
-0.088752046 -0.017943848 -0.13703361 -0.09321977 -0.035949808 -0.0065374007 0.0029915026 -0.0032636381
-0.054069184 0.07979611 -0.0018545426 -0.033159252 -0.061199315 -0.08023411 -0.010142088 -0.080522195
-0.060597714 -0.069163054 -0.056931045 -0.100971 -0.034798846 -0.049641486 0.019762607 -0.06575243
0.013371377 -0.034765054 -0.11108598 -0.010481573 -0.044025533 -0.038854145 -0.04403387 -0.006907166
-0.03993775 -0.014665683 -0.038063746 0.003519635 -0.063854374 -0.09627872 -0.028793933 -0.030969344
-0.018263297 -0.047450136 -0.08303054 -0.010804833 0.02674145 -0.028459163 -0.031958748 -0.068115994
-0.016579947 0.10055241 0.021785967 -0.0638226 -0.00942954 0.0014533785 -0.06027685 -0.047148846
-0.16253656 0.049379867 -0.012432218 -0.11404306 0.042971067 0.008313773 -0.094660535 -0.07389998
-0.061353832 -0.06434759 0.0072795143 -0.058730036 -0.11634428 -0.057826847 -0.014812897 0.010201526
-0.048510544 0.059196826 0.007419425 -0.0440119 -0.069344215 -0.1224258 -0.043380044 -0.04085733
-0.06949215 -0.060735606 -0.087336056 -0.060220357 -0.016670039 -0.06664252 0.05722437 -0.13391276
-0.10969008 0.03276629 -0.046647318 -0.028212031 0.016128445 -0.10788041 -0.06669964 -0.08951697
-0.075899184 0.031737123 -0.075139925 -0.068925634 -0.0144496 0.09193723 -0.08088051 -0.048687793

network_body._body_endoder.seq_layers.2.weight f4 [128, 128]
00000000: 04b5 1abe 96e1 173d 6ce1 93bd ea0a 22be
00000010: 2660 fbbd 292d 4b3d 5ea4 babd 9a8e b3bd
00000020: ea1c ff3d ac8d 4f3c 4f96 ef3c 1185 423c
00000030: cd33 cbbd bb9d 23bd 6639 34be bbf2 a6bd
00000040: b66e 2c3e 48fe 86bd 0864 06be 635e 25be
00000050: e0a1 af3d f92e a93c c1f7 593d d63e b3bc
00000060: eb6e 143d 707d 003d a4c0 a1bd dac9 9bbd
00000070: d5de 853c 7523 1abe c3c4 14be 6539 05bd
00000080: b58a 97bd 734a 9abe 2a12 f5bd 1a32 f3bd
00000090: d8f2 3bbd 1e8e 78be e6ed f5bc 32c8 483e
000000a0: c38e 1f3e 58c6 d9bd 9585 173e 0705 2a3d
000000b0: 185d 9e3d 64fc c13d 6695 4dbc 4ee8 19bb
000000c0: 7b16 c7bd 17a3 8f3c ce8a cbbc fcd2 a33c
000000d0: e374 5f3d b0b0 aa3c 3de3 7ebd c327 ed3a
000000e0: bb92 0d3e 38f6 c0bd 8bdb 5abe 2f21 e1bd
000000f0: 1331 6fbb 2609 cfbc 3e5c 67bd 5ac9 b53d
00000100: b9f7 5f3d c376 643e bca9 1bbe f1b0 11bd
00000110: b913 31be 465d 963d 8210 2e3d f627 8e3d
00000120: cda4 2e3e b0b4 febb 8747 80bd 9683 2bbe
00000130: 6fc9 893d 2c01 c93d fa51 cb3d fbd6 173d
00000140: e91e e53c 48ee debd 83af 5cbe 5899 45be
00000150: ca86 dfbd 4223 663d b69f 26be ff98 20bd
00000160: d6a5 153e 5a06 313c 7c7d 77be 7936 bcbd
00000170: 1b4b bb3c 5aee 67bd 1849 10be c3df 65bd
00000180: b5e6 f33d 17b4 e73b 4860 0f3e 9e78 7dbc
00000190: dc55 ffbc 8c35 aebd 9e6d 09be eef3 a9bb
000001a0: ac08 463a 4889 333d 739b d3bd 4df9 bf3c
000001b0: 574b 60bd 090d d3bc 42d9 8d3d ca56 20be
000001c0: 7cc0 673e f51e f2bd b5bf 303d b29a 38be
000001d0: 47bb 79b9 bc0a 0b3e f276 38bc f6c3 75bd
000001e0: 447e 163d bf72 0d3e 6032 b2be 5e5e b5bc
000001f0: 8120 03bd 77f0 14be ce07 4bbe a5bb 51be
00000200: 6d3e 52bd 7a34 b2bc 590a 3ebd 2ec4 8bbd
00000210: 3087 8dbd 91e2 943e 2083 aabd 1966 d03d
00000220: 83ec af3d bfee 603d 730d 67bd 81bc bf3d
00000230: 08f2 7e3c 1c9a 253e a1e7 0cbe 8ba1 103d
00000240: a3ac a43d 54b0 993d c4d6 bdbe 5f65 30be
00000250: 3908 9dbd f662 803c 7efd 6abc f299 c33d
00000260: 2b7d 13be 676e 2a3d b181 a7bd 04c5 b1bd
00000270: e8ae b1bd f13e 89be 07cd 3a3e 7c49 a1bd
00000280: 82fa 3bbe f084 ab3d 746a f6bc 2d4b 53bd
00000290: c369 4bbe 0366 843d 0206 9fbd 8ecb 3a3e
000002a0: 9e72 d93d d534 fdbd e0a1 aa3c a485 d1bd
000002b0: 6dfb 3e3e 919e 523d 94b9 ac3d e571 1cbe
000002c0: de5b e23d 371b 97bd 598b 80be 7195 99bd
000002d0: 9f6a 15bd 91d5 a0bc b48b d0bd 5ddb 2ebe
000002e0: bf0c b2bc eb1f 17be d0cc 983d f0f9 813e
000002f0: 5270 c33d 0480 4ebe e952 9e3d 65b2 04be
00000300: faae 113e a64d b63d 75c9 903d afe2 e93c
00000310: 70f0 0e3d f350 62be 7f08 1cbe 1178 85bd
00000320: e7be 5ebd ef43 12bd 1a1b 733e d0a4 2bbd
00000330: f72b 0bbe 0110 a83d fcc7 343e 9235 3ebe
00000340: 934a a1bd 736a e8bd 457e 393c b12f 54bd
00000350: e5d5 bdbd 6b11 053d faf4 f8bd 94fa 66bd
00000360: 8371 a7bd f1ef 16bd 0feb e0bc 6604 1bbe
00000370: 439f fdbb 1ceb d6bc eb83 eabb 61fe 9cbd
00000380: 7afa 8abc ec9e 083e c3a1 283d 2ec9 1dbd
00000390: 2e86 c1bb 3e95 9dbd 7fc4 883d 2e1f 293d
000003a0: ed66 4a3d ac06 f03d d192 83bd ae6e 7bbd
000003b0: 62a6 6dbe 7229 a83c 9fdf 60ba 50c6 86be
000003c0: 6309 963c 6247 84bd e2b9 01be bc5d 3fbe
000003d0: c017 e9bd 308a 453e f5dc febc bd19 7abd
000003e0: 452e 54bd 6e2a 57be 61e3 a0bd 9f4e a4ba
000003f0: 850f 0cbe 2309 e7bc 318d 6abd 02c8 38be
-0.15108114 0.03708037 -0.0722073 -0.15824476 -0.12274198 0.049603615 -0.09113382 -0.087674335
0.12456687 0.012668055 0.029246477 0.011872546 -0.099219896 -0.039945345 -0.17600021 -0.08151766
0.16839108 -0.06591469 -0.13124096 -0.16149287 0.08575797 0.020652281 0.053214792 -0.021880548
0.036238592 0.031369627 -0.078980714 -0.076068595 0.016341606 -0.15052588 -0.14528184 -0.03252544
-0.07399503 -0.30134925 -0.11966355 -0.118747905 -0.04588589 -0.24272963 -0.030020665 0.19607618
0.15581803 -0.10633534 0.14797051 0.0415087 0.077326 0.09471968 -0.012547826 -0.0023484412
-0.09721085 0.017533822 -0.02484646 0.019998066 0.05455483 0.020836204 -0.06222843 0.0018093515
0.13825504 -0.094219625 -0.21372811 -0.109926574 -0.0036497756 -0.025272917 -0.056484453 0.088762954
0.054679606 0.22310929 -0.15201467 -0.035569135 -0.1729268 0.07342009 0.04249621 0.06941216
0.17055054 -0.0077730045 -0.06263643 -0.16749415 0.067278735 0.09814677 0.09927745 0.037070256
0.02796884 -0.10885292 -0.21551327 -0.19296777 -0.10914381 0.05618597 -0.16271862 -0.03920841
0.14614043 0.010804737 -0.24168962 -0.09190077 0.022862962 -0.056623794 -0.14090383 -0.0561216
0.11909238 0.007071029 0.14001572 -0.015470652 -0.03116887 -0.08506307 -0.13420722 -0.0051865494
0.0007554393 0.043832093 -0.10332384 0.023434306 -0.05475935 -0.025763052 0.06926204 -0.15658107
0.2263202 -0.11822311 0.043151576 -0.18027762 -0.00023816257 0.13578314 -0.0112588275 -0.060001336
0.03674151 0.13813303 -0.34804058 -0.022139724 -0.03201342 -0.14544855 -0.19827196 -0.20481737
-0.051329065 -0.021753538 -0.046396587 -0.06824528 -0.069105506 0.29079106 -0.08325791 0.101757236
0.08590033 0.054915186 -0.05640931 0.09362126 0.015560634 0.1617207 -0.13760234 0.03531031
0.0804074 0.07504335 -0.37077916 -0.1722617 -0.07667584 0.015672188 -0.014342664 0.09550847
-0.14403217 0.041609194 -0.081790335 -0.08680156 -0.08675939 -0.26805833 0.18242274 -0.07875344
-0.1835728 0.08374965 -0.030080058 -0.051585365 -0.19864564 0.0646477 -0.07764818 0.18241712
0.106175646 -0.123635925 0.020829141 -0.10230568 0.18650599 0.051420752 0.08433834 -0.15277822
0.110526785 -0.07378238 -0.25106314 -0.07499207 -0.036478635 -0.019633086 -0.10182896 -0.17075868
-0.021734593 -0.1475827 0.0746094 0.25386 0.09542908 -0.20166022 0.077306576 -0.12958677
0.14226905 0.08901529 0.07069675 0.028550474 0.034897268 -0.22101192 -0.15237616 -0.065170415
-0.054381277 -0.035709318 0.23740807 -0.041905224 -0.1359099 0.082061775 0.17654413 -0.18575123
-0.07875552 -0.113484286 0.011321609 -0.051803295 -0.09269313 0.032487314 -0.121561006 -0.056391314
-0.081759475 -0.03684992 -0.027455835 -0.15138397 -0.0077399327 -0.026235156 -0.007156839 -0.076657064
-0.01696514 0.13341874 0.041169893 -0.038521938 -0.005905888 -0.07694481 0.06678104 0.0412895
0.049414564 0.117200226 -0.064244874 -0.06138485 -0.23208001 0.020527575 -0.0008578244 -0.26323175
0.018315023 -0.06458928 -0.12668565 -0.186881 -0.11381483 0.19290996 -0.03111122 -0.061059702
-0.05180194 -0.2101228 -0.07855869 -0.0012535638 -0.13677795 -0.028202599 -0.057263557 -0.18045047

network_body._body_endoder.seq_layers.2.bias f4 [128]
00000000: 525a cdbc f0a7 323d fcc4 f1bc e188 41bc
00000010: 7fa0 62bc 311c 43bd 31e5 54bd dd28 693c
00000020: c0da df3c ea6f 1ebd 9081 b03b 2c33 acbc
00000030: f386 50bd 1197 8fbc b12b a8bc b2b6 ffbc
00000040: 8776 f93c ff15 a9bc da0d cc3c b1f4 383b
00000050: ea8c 54bd 5221 1a3b 2736 5dbd 1bab e23b
00000060: 86c9 32bd 86d5 5dbd 40e6 6c3d a4a6 97bd
00000070: bbcb 463d c283 83bc 7c2e 5ebd 9b9d 70bc
00000080: 6da4 c5bc 5726 57bd 14fe 22bd 936f 17bd
00000090: 192a 85bd a182 0b3d 4db3 993c 8f42 d23b
000000a0: 9862 a0bd 5c8f 65bd c0e7 fbbd 0a63 aebd
000000b0: 2b02 87bc a647 e0bc aed8 cfbc 924f c03b
000000c0: c460 27bd 4a92 53bd 2978 9dbb fd2f 92bd
000000d0: 5c7a f33c 26f1 733d 27b8 753c d5a5 cd3c
000000e0: 4a26 47bd 463e 47bd 2bf5 18bd 476c e53b
000000f0: 9c1e 31bd 4e5c f0bd 665d c8bd 1b61 76bd
00000100: a49a b43b 6036 89bd d31e 7ebc 1797 cabc
00000110: bb40 753d 8e48 ae3d 7174 aa3c bb09 4abc
00000120: 38d9 b4bc bbc5 083d 3b77 e2bc 08d9 fb3a
00000130: 3e37 443c ac8d bbba a8dd 62bc 5456 b9bd
00000140: 2385 0cbd 1552 85bb 5bab 1f3d 35fc 9fbc
00000150: a4e5 9abc 3422 27bb 9288 a3bc f1aa bd3d
00000160: 4082 61bb ab20 313d 0402 81bd bff1 d93c
00000170: 5a39 52bc 3c30 22bd f59a cebc e944 95bc
00000180: b83b 61bd 99ac d5bc d9be 13bd 52a2 22bd
00000190: 0e8d 1c3b 4664 44ba 1bff 5bbd ef79 bbbc
000001a0: e34c 7cbd 4b46 0b3d 004b 953c b735 bdbd
000001b0: 2ee6 0a3d 36e4 87bd 882e b5bd d261 4bbd
000001c0: 104a 06bd 209e 03bd e08f 44bd a7e3 15bd
000001d0: f2ac 51bd c1aa a73c 97dd 88bd 2f64 c3bc
000001e0: e80c f23b 1af9 adbc 3715 373b 8882 9c3b
000001f0: 3a9a 79bc b590 d3bd ec09 41bd 4f4d cd3c
-0.025067482 0.04361719 -0.029512875 -0.01181242 -0.013832211 -0.047634307 -0.051976386 0.014230934
0.027325988 -0.03868095 0.005386539 -0.021020494 -0.050909948 -0.017528089 -0.020528646 -0.031215046
0.030452026 -0.020640371 0.024908949 0.002822202 -0.0518922 0.0023518396 -0.05400672 0.00691737
-0.04364922 -0.05415871 0.05783677 -0.07404831 0.048534136 -0.016054038 -0.05424355 -0.014686014
-0.024126256 -0.052526798 -0.03979309 -0.03697164 -0.0650217 0.034060124 0.018762255 0.006416626
-0.07831305 -0.05604492 -0.12300062 -0.08514984 -0.016480526 -0.027377915 -0.025371876 0.0058688605
-0.040863767 -0.051653184 -0.004805584 -0.07138059 0.029721431 0.05955615 0.014997519 0.025103489
-0.0486205 -0.048643373 -0.037343185 0.007001433 -0.043242082 -0.11736356 -0.09783439 -0.0601512
0.0055115987 -0.06699824 -0.015510279 -0.024730248 0.059876185 0.085099325 0.020807477 -0.0123314215
-0.022076234 0.033391695 -0.027644744 0.0019214461 0.011976061 -0.0014309189 -0.013846792 -0.09049669
-0.034306657 -0.004068623 0.038981777 -0.019529441 -0.01890833 -0.0025502564 -0.019962583 0.0926112
-0.003440991 0.043244045 -0.062992126 0.026604531 -0.0128310565 -0.03959678 -0.025220374 -0.018221335
-0.054988593 -0.026083278 -0.03607068 -0.039705582 0.0023887786 -0.00074917485 -0.053710084 -0.02288529
-0.061596762 0.034002583 0.01822424 -0.09238761 0.033910923 -0.06635325 -0.08846766 -0.049653836
-0.032785475 -0.03213322 -0.047988772 -0.03659406 -0.051190324 0.020467164 -0.0668289 -0.023851482
0.0073867925 -0.021236945 0.002793623 0.0047763027 -0.015234524 -0.10330335 -0.047128603 0.025061278

action_model._continuous_distribution.log_sigma f4 [1, 4]
00000000: 78e1 babe 3f77 b6be cbf1 c3be e55b eabe
-0.36500144 -0.35637853 -0.3827041 -0.45773235

action_model._continuous_distribution.mu.weight f4 [4, 128]
00000000: dd70 163d 45de 9c3c 2e08 8c3d a58f b03c
00000010: 6bfb d0ba 731c b23a 158e 0b3d 8985 2c3e
00000020: f277 c03c fcf7 8ebc 1a68 d73c 0ba3 65b9
00000030: 6522 223d b136 d53b 05bd 39bd fe85 edbc
00000040: bd49 c33c 589f 07bd e4ab 9a3d 304c 34bd
00000050: 5b74 6cbd 73d9 63bd 085e 3ebb 10b0 183b
00000060: 8378 c63c 7e74 9b3d 7b51 d2bc f2c5 cc3c
00000070: 2362 b5bd a9fd 093d 9a0d 073b de60 43bc
00000080: 8678 8ebd 9129 2a3d 599f d0bc cb6c b73b
00000090: c0dd a23b a225 0e3d c2d2 89bd 7209 23bc
000000a0: de27 4b3b f374 b93d 5480 683c 27af 253c
000000b0: 9dd5 a23d 9a4b faba f8c6 093d 1664 333a
000000c0: 9a84 763d 5a2c 24bd 7b9b b33d e1f9 71bb
000000d0: 32b0 08bd 3cf7 343d b802 9d3d 79bd 0c3d
000000e0: 2f84 7cbc 5d00 febc 7f2f 5cbd 5461 963d
000000f0: 9c3d c23b 5176 51bc d80c 57bc ebf5 ebbc
00000100: 366e b3bd ec1c b7bb 024c ba3d 64ab e4bc
00000110: 428b 6b3d 0f50 353d e4ca 963d 9951 c9bc
00000120: 9c8c 63bd 972d dcbc 2901 2bbd d3a3 b2bc
00000130: f4a6 ab3c 871f 853b 8e06 763c 5cc1 863c
00000140: 81e4 95bc 804e 323c 55c9 a9bc c9c6 b73c
00000150: 6680 2abc 6465 973d abba 52bd 5dec 2bbc
00000160: f902 69bc c53f b63d 9cb3 b73c cafe 80bd
00000170: 679a 6abd 0624 0a3b 7113 0a3c 3b7f 23bd
00000180: ca98 473c 2a0b 4abc 8a0b 59bc 3d14 df3b
00000190: 11b9 e13c e559 ec3b 5378 40bc 557d 94ba
000001a0: 8af5 ef3a a81a 23bd 7a83 783d 7ff3 2fbd
000001b0: f705 393c 8b2e 18bb 73c1 f5bc 70e5 a13c
000001c0: 0d15 b2bc b53d a939 4393 cdbc 14f9 e6bc
000001d0: 5a25 e6bd f7ca 853c c01a de3c 2d1f 14bb
000001e0: 3835 a3bd 1984 9c3b d14e f53c 1cce 97bc
000001f0: 8130 9bbb 83d1 09bd 880e 7abd 0f37 ffbb
00000200: 9a9f 92bc 5303 ccbc 21e4 81bd d80f 74ba
00000210: c931 b03c 7464 b93d 7185 c4ba 5fdb 463d
00000220: dca2 453c b659 173b 8b02 90bd 5277 bb3d
00000230: 5d74 55bc cf5b 40bc 1537 613c 3816 71bd
00000240: 3e25 04be e7ee 223d 9ea0 743c 9b23 7ebb
00000250: a8e1 d23b d355 063d 2563 fb3c 5ef1 f5bc
00000260: e252 38bb feea f63c a32b 5c3c 362b 903d
00000270: 727e 6cbc 7e52 e2bb 57b9 cd3a 7e3d eebc
00000280: 90c8 c03c 91f6 d3bd a249 0f3d e9f9 0cbd
00000290: 6447 153a db89 00be 20ce 133d e32a 21bd
000002a0: c811 fc3c 0e72 b53c 1ee3 693c c730 8b3c
000002b0: b066 82bb 96d0 7cbd 76aa ebbd 0043 02bd
000002c0: 1dd3 8ebc 30a7 bdbc 54ca 573d 33be 0dbd
000002d0: 754d 57bb 0374 bdbd c095 a13d 58b3 d1bc
000002e0: 88ac ea3a bbce c83b 10c8 9f3c a317 0ebc
000002f0: d76e f93c 5be4 c23b e8b5 54bb 811d 93ba
00000300: 9136 983b a1cc f2bc 8e98 043d b190 babc
00000310: 2a9c 9bbd 1334 dcbd 7152 073c d291 d53c
00000320: 91e9 523d 7b1c e9bc 388d 69bd 9f51 debc
00000330: e843 283d e50e 773c 8f4c 95bd bb35 fc3c
00000340: 9b6c 22bd 7e62 2cbd 4f52 9bbd b52d 65bd
00000350: 688b 20bc 4878 c3bd e193 02bd 5b58 85bc
00000360: 7417 babc 83c9 913d acb2 48bc abc9 a9bc
00000370: ae1f 6abd 22ca 4c3d 405b 77bd a9ae 3cbd
00000380: 40d2 663c f90f 183a 3374 093b 95dc 22bd
00000390: 3c5e 11bd 68fd 20bd 5191 96bd 67fa a8bd
000003a0: 8b37 ba3b 25ce cd3c e0eb 4abd b539 e2bc
000003b0: f602 443c 076e ff3a 37b9 deb8 3ade 21bd
000003c0: f172 4cba 980c 3dbd 6415 65bd a998 9b3c
000003d0: 1c8a 45bd feab 8fbc 4283 a93c 14c1 72bd
000003e0: 79f8 b8bc fcb3 33bd fbde 13bd 837f a5bd
000003f0: 14e0 37bc 9492 143b 004d 93bc 870f a83c
0.03672873 0.019148955 0.06837498 0.02155287 -0.0015944069 0.0013588801 0.034071047 0.16847815
0.023494694 -0.017452233 0.026294757 -0.0002189988 0.039583582 0.006506764 -0.04534628 -0.028994557
0.023838872 -0.033110946 0.07552317 -0.04401797 -0.057728153 -0.055627298 -0.0029047746 0.00232983
0.024227386 0.075905785 -0.025673619 0.024996731 -0.08856609 0.033689175 0.0020607472 -0.01192495
-0.06956582 0.041543547 -0.025466608 0.005597686 0.0049702823 0.03470386 -0.06729652 -0.009950982
0.0030999104 0.090555094 0.014190752 0.01011256 0.079509 -0.0019096017 0.033637017 0.0006843222
0.060185052 -0.04008136 0.0876989 -0.003692262 -0.033371158 0.044181094 0.07666534 0.034360383
-0.015412374 -0.031006033 -0.053756233 0.073427826 0.0059277546 -0.0127845565 -0.013125621 -0.028803786
-0.087612554 -0.0055881646 0.090965286 -0.027913757 0.057505853 0.044265803 0.07362917 -0.024575042
-0.055554017 -0.026877208 -0.041749153 -0.021806633 0.020953633 0.0040625962 0.015016211 0.016449623
-0.018297436 0.010882974 -0.020725885 0.022433655 -0.010406589 0.073923856 -0.05144755 -0.010493365
-0.0142219 0.08898882 0.022424512 -0.06298597 -0.057276156 0.00210786 0.008427487 -0.03991626
0.012182424 -0.012331763 -0.01324738 0.0068078325 0.027554067 0.0072128647 -0.0117474375 -0.0011328856
0.0018307429 -0.039820343 0.06067226 -0.042956825 0.011292926 -0.00232211 -0.02999947 0.019762725
-0.021738553 0.00032280167 -0.025094634 -0.028194942 -0.11237593 0.016332133 0.027112365 -0.002260159
-0.07969135 0.0047764895 0.02994481 -0.018530898 -0.0047360067 -0.03364707 -0.061049014 -0.007788546
-0.01789837 -0.024903929 -0.0634234 -0.0009310222 0.021508114 0.09052363 -0.0014993382 0.048549052
0.0120627545 0.0023094243 -0.07031735 0.09153618 -0.013028231 -0.011740639 0.013746043 -0.05885908
-0.12904832 0.039778616 0.014930872 -0.0038778547 0.0064355917 0.032796692 0.030686924 -0.03002232
-0.0028125574 0.03014135 0.013438138 0.07039492 -0.014434444 -0.0069068065 0.0015695494 -0.029082056
0.023533136 -0.10349763 0.03498233 -0.03441802 0.0005694537 -0.12552588 0.036085248 -0.03934754
0.030770198 0.022149112 0.01427534 0.016991032 -0.0039795265 -0.06172236 -0.11507122 -0.031802177
-0.017434651 -0.02315101 0.05268319 -0.034605216 -0.0032852564 -0.09250643 0.07889891 -0.025598213
0.0017904202 0.00612816 0.019504577 -0.008672628 0.03044836 0.0059476322 -0.0032457057 -0.0011224003
0.0046451767 -0.02963859 0.03237205 -0.022774072 -0.07598145 -0.1075212 0.008259402 0.02607051
0.051492278 -0.028455963 -0.057019442 -0.02713853 0.041080385 0.015079235 -0.07289993 0.03078734
-0.039654355 -0.042086117 -0.075840585 -0.055951793 -0.009798862 -0.09544426 -0.03187931 -0.016277483
-0.022716261 0.071185134 -0.01224963 -0.020726046 -0.05715912 0.049997456 -0.060389757 -0.046065006
0.014088213 0.000580072 0.00209738 -0.039761145 -0.03549026 -0.039304167 -0.07351936 -0.082508855
0.005682891 0.025122711 -0.049541354 -0.027615407 0.011963597 0.0019487747 -0.00010620284 -0.039518572
-0.000779911 -0.04615459 -0.055928603 0.018993692 -0.048227414 -0.017538067 0.020692471 -0.059266165
-0.022579418 -0.04387282 -0.036101323 -0.080809616 -0.011222858 0.0022670375 -0.017981052 0.020515217

action_model._continuous_distribution.mu.bias f4 [4]
00000000: a571 64bd fa9d 913b 2ef6 3e3d 0337 8f3c
-0.055772442 0.004443881 0.046621494 0.017482286

exp_avg f4 [128, 16]
00000000: 98f7 0c38 9180 abba 215f 693a 5958 1c3a
00000010: 85c5 9fb6 ffbd 79ba fd2a 163a 5b8a 2c3a
00000020: e0f9 0d3a 7f7e 0e39 0436 8bba 2bb6 f4b9
00000030: e33f 273c f486 2fbc 91f8 b7bb 6d71 6fba
00000040: 2120 8cb8 2619 d939 9052 b4ba 7547 abba
00000050: a75a bcb7 9fd2 8539 8651 a5ba 877d b0ba
00000060: ce92 2738 e2b0 48ba bcc9 9eb9 35e4 85b9
00000070: dd1f e33a 31c5 92bb f5aa ceba b6fd cbba
00000080: 3732 09b8 68dd 60b9 8d5f 5f3a 1ae6 493a
00000090: f9c4 8936 060a 98b7 d741 223a ae9a 2e3a
000000a0: e36b d239 7aab 83b8 18a9 8b39 4c19 1f3a
000000b0: 7414 eb3a 3aa6 02bb 90b1 c0ba f3f9 653a
000000c0: f8a4 9cb8 005a a939 3db2 8bbb 5294 87bb
000000d0: e993 e6b7 e4c5 7a39 cc7e 8abb 647a 90bb
000000e0: b540 f5b7 9154 10bb a0be e9ba 5d3e f8ba
000000f0: d17d cc3b 9485 5cbc 1ec7 bfbb c5e4 b3bb
00000100: 075d dab7 6e5b 3b39 e11b 18ba fbb8 1eba
00000110: d354 b8b5 f236 ddb8 cb29 a8b9 78be c0b9
00000120: 3f81 b0b9 a507 a739 43b6 d6b9 ffe7 2fba
00000130: 4bbd 1bbc f68e e63b f59e 9c3c 6b1b 38ba
00000140: 1a4d 1537 bb1c afb9 552d e9b9 241e f1b9
00000150: e912 ceb6 c4ab 3239 9dde 74ba 8d04 7fba
00000160: b620 9936 2db8 63ba ccb0 c538 b47d a138
00000170: a13b 06bc 4150 5f3b 919c ac3c 2cfa b4ba
00000180: 6a3f aab8 2d0b 1b39 a1a8 4ebb 9ce1 4dbb
00000190: de73 38b5 82d3 26b7 8f97 49bb 3830 52bb
000001a0: 28a3 3bb9 d7fe 9eba 9820 deba 407b fcba
000001b0: 3e07 15bb e708 78bb 7782 9f3c 2335 85bb
000001c0: 2100 11b7 cdbd a3b8 c964 89ba 990f 7fba
000001d0: 4a17 0bb7 227b 4639 dc7b acba 90b1 b0ba
000001e0: f233 1d38 70b0 86ba a7de 17b9 6a2e dcb8
000001f0: 6fce 9b3c d138 b4bb bc06 153c 15cc c9ba
00000200: b45f 37b9 4384 3739 5084 05bb add8 0ebb
00000210: 5c4c dd35 cf45 96b8 82eb 00bb b183 06bb
00000220: 2fc6 ffb9 648e 5d39 4ec4 e6ba 1de3 0abb
00000230: 965a 94bc 3304 a33c 6563 cf3d 4b75 50bb
00000240: fc74 b5b7 5a56 1cba a9a7 a6ba 519f aaba
00000250: 2769 fe35 9d4c 35b7 a97d f6ba 02e2 fdba
00000260: 0c8a 7735 8f3b 06ba d3a9 b4ba 4697 b5ba
00000270: bca1 bb3a a9e3 6a3c 643e ee3d ed57 50bb
00000280: 883a 27b8 3a78 80ba 53ed ad3b db80 a13b
00000290: 3f62 2738 0129 d0b9 9b34 983b 6702 9c3b
000002a0: d360 6639 ab9f 813b 9b87 eb38 b4ec e039
000002b0: dc4f 3f3c 8689 333c cfef 933c 3469 c13b
000002c0: 073c 9db8 8e26 5bb9 97f9 5abb 71c7 5ebb
000002d0: b510 9db6 defd 58b8 5fe3 69bb fe80 70bb
000002e0: 8dbe e6b9 b339 98b9 d9b6 3dbb b30e 58bb
000002f0: 4ca9 aebb 63b0 e73c e81b 423e bd27 c0bb
00000300: 4ee5 a3b8 b30d ba37 c97b a7ba e736 b0ba
00000310: 404b a436 651b 56b9 c5b2 94ba 9815 a4ba
00000320: 48d7 17ba 3a75 dd39 9243 9aba 3e2f dcba
00000330: 9277 8ebc dd56 743c c5bb 683d 7576 02bb
00000340: b1bc 6fb8 98da f638 57ca 43bb 6f8b 41bb
00000350: 2fbd acb7 4a2f fc38 765a 46bb 04a5 52bb
00000360: 210f 1fb9 ea3f a1ba 1c83 caba f574 e3ba
00000370: c26c 84bc 4d2f fc3b df44 8c3d 4d82 85bb
00000380: b6c8 3534 7b71 9239 765a da39 8ae6 ff39
00000390: 506c 6536 fb9d 0939 6a24 133a 5c52 1a3a
000003a0: 89fa 37b6 f22f 2839 531d 0d3a e518 233a
000003b0: 6f98 71bc 5f58 ab3a 8330 2ebc f6c4 613a
000003c0: f9a9 02b9 391f 44b6 4d9a beba 3f89 cbba
000003d0: 05e3 f5b7 7b18 dbb9 f1b3 94ba 1d39 b4ba
000003e0: 8cf9 d939 e015 3cba 0dc5 a7ba 4879 65ba
000003f0: 8d81 01bb f56d 56bb ab97 ea3c 265c 1bbb
3.360919e-05 -0.001308458 0.000890242 0.00059640926 -4.7615636e-06 -0.0009526908 0.00057284517 0.0006581896
0.00054159574 0.00013589299 -0.0010620956 -0.00046675032 0.010208103 -0.010713328 -0.005614348 -0.0009134028
-6.681705e-05 0.00041408202 -0.0013757516 -0.001306756 -2.245356e-05 0.00025524662 -0.0012612797 -0.0013465144
3.9952625e-05 -0.0007655752 -0.00030286412 -0.00025537764 0.0017328222 -0.0044790735 -0.0015767502 -0.0015563283
-3.271011e-05 -0.00021444785 0.0008521013 0.00077018293 4.105849e-06 -1.812448e-05 0.00061896205 0.00066606223
0.00040134703 -6.278507e-05 0.0002663813 0.0006069138 0.0017935173 -0.0019935505 -0.0014701355 0.0008772902
-7.4693875e-05 0.00032301247 -0.004263191 -0.004137554 -2.7487013e-05 0.00023915578 -0.004226541 -0.0044091213
-2.9236407e-05 -0.0022023062 -0.00178333 -0.0018939484 0.0062405844 -0.013459582 -0.005852594 -0.005489918
-2.6030944e-05 0.0001786777 -0.0005802494 -0.0006054786 -1.3733755e-06 -0.000105483356 -0.00032074595 -0.00036763004
-0.00033665632 0.00031858418 -0.00040953056 -0.00067102903 -0.00950558 0.0070360852 0.019118765 -0.00070231286
8.899044e-06 -0.00033400007 -0.00044474998 -0.0004598956 -6.14148e-06 0.0001703939 -0.00093410333 -0.0009728156
4.5635634e-06 -0.0008686807 9.426623e-05 7.700492e-05 -0.008192928 0.0034074935 0.02107075 -0.0013807467
-8.1180435e-05 0.00014786115 -0.0031533616 -0.0031414991 -6.871395e-07 -9.9436165e-06 -0.0030760502 -0.0032072198
-0.0001789449 -0.0012130392 -0.001694697 -0.0019262806 -0.0022739912 -0.0037847103 0.01947139 -0.0040651723
-8.6427035e-06 -7.807799e-05 -0.0010482307 -0.0009729802 -8.290468e-06 0.00018928622 -0.0013159472 -0.0013480652
3.7480095e-05 -0.0010275971 -0.00014483427 -0.00010499063 0.019019334 -0.005499937 0.009095844 -0.0015395904
-0.00017487892 0.00017501511 -0.0020373054 -0.002179663 1.6488007e-06 -7.16556e-05 -0.0019671624 -0.0020525272
-0.00048785048 0.00021129247 -0.0017606111 -0.00211925 -0.018109601 0.019899463 0.1012638 -0.0031808193
-2.1631357e-05 -0.0005963795 -0.0012714762 -0.0013017451 1.8955078e-06 -1.0806279e-05 -0.001880576 -0.0019369724
9.2215555e-07 -0.0005120569 -0.0013783522 -0.0013854287 0.0014315168 0.014336505 0.11632994 -0.003179069
-3.9870414e-05 -0.0009801455 0.0053078323 0.004928691 3.99074e-05 -0.00039703402 0.004644943 0.0047610286
0.00021970579 0.0039558015 0.00011230932 0.00042900967 0.011676755 0.010958081 0.018058686 0.005902434
-7.497524e-05 -0.0002089983 -0.0033412927 -0.0033993388 -4.6809096e-06 -5.1734845e-05 -0.0035688502 -0.003669798
-0.0004401099 -0.00029034688 -0.0028948097 -0.0032967746 -0.0053302404 0.02828235 0.18955958 -0.005864112
-7.815157e-05 2.2179307e-05 -0.001277798 -0.0013444097 4.896341e-06 -0.00020418836 -0.0011344781 -0.0012518642
-0.0005792272 0.00042239745 -0.0011769405 -0.0016798747 -0.017391 0.014913288 0.056819696 -0.0019907032
-5.7157773e-05 0.0001177091 -0.0029875243 -0.0029532572 -2.0592093e-05 0.00012025105 -0.0030266321 -0.0032141814
-0.00015169058 -0.0012302373 -0.0015450451 -0.0017353581 -0.016165141 0.0076960684 0.068490736 -0.004074371
1.6929957e-07 0.0002793184 0.000416476 0.00048809155 3.4186705e-06 0.0001312419 0.0005613031 0.00058869063
-2.7414956e-06 0.0001603959 0.0005383093 0.0006221666 -0.014745816 0.0013072601 -0.010631683 0.00086124183
-0.00012461086 -2.922445e-06 -0.0014541835 -0.0015528573 -2.931199e-05 -0.00041789174 -0.0011345131 -0.0013749931
0.00041575392 -0.00071748905 -0.0012799815 -0.0008753729 -0.0019761056 -0.0032719348 0.028636774 -0.0023706048

exp_avg_sq f4 [128, 16]
00000000: 60f5 8135 290e 1438 60b4 3338 568a 4038
00000010: af1a a835 9990 9337 b4d6 8138 727c 8638
00000020: 73e9 0a36 a8df 0b38 5c52 3f38 75df 4938
00000030: 4c75 ab3b 0edf 6f3a 125b 4b3c 0b62 2e39
00000040: b7b4 9735 dcdb bc36 cb85 1d37 45af 2f37
00000050: b928 5535 4d6f 5c36 c690 4137 ddd9 4e37
00000060: 5a3c 5334 aaab f936 4e8d 0e37 edc7 1137
00000070: 62e1 b838 fe7b ef38 90c9 c938 0556 0338
00000080: b0e1 7b35 1a69 0336 149d 5637 a340 6b37
00000090: 3a21 3335 042c 1036 8fd5 5137 a1f9 6137
000000a0: fe26 1236 fae8 8635 a567 5437 21a3 7537
000000b0: 64c2 2b39 9879 c238 81af 0c39 2c2f ec37
000000c0: 301d ac35 d97b d436 adae 9538 5ab0 9738
000000d0: 5f14 d435 c294 6137 e754 8138 bccb 8538
000000e0: 092c 2135 cd0e d737 25ec 5e38 1eeb 6238
000000f0: dc1d b039 6de7 3b3a 5a01 6f39 6e21 1539
00000100: ac8e 6534 a440 c534 388f c536 5f01 cc36
00000110: d440 cc34 42df 1136 0cce 8536 0d67 9c36
00000120: 8fa9 7b35 c608 5a35 cb6a 9d36 59bd bf36
00000130: 9706 263a 58fd 3b39 fe38 4c3b c65d 5f37
00000140: 531d ab34 8d88 c736 a7e2 bd37 b0f2 c137
00000150: ea7a d334 3a05 7337 7d84 6537 91ee 7d37
00000160: 5c4f c534 9f47 2137 142e a837 f26e ac37
00000170: 6a42 943b d446 013b a8f5 213d 40a1 9538
00000180: f79b 2736 41b8 8f36 0bb1 bb38 13ae c038
00000190: b32d c335 d15c 9e37 ec34 9f38 2c72 a438
000001a0: 0746 8b36 bf50 4a37 b554 a838 5d48 af38
000001b0: 625b c53a acf3 933a fcd7 473c 1c7b 3839
000001c0: 1a45 f234 e12c b036 5b16 6237 0508 6e37
000001d0: 74a2 f134 d7aa 3736 80fd 8537 051d 8b37
000001e0: aa3a 0335 e5bf ea36 5716 4637 30e5 5037
000001f0: 3bb9 e43b 9530 7c39 8496 a13b c963 2c38
00000200: 2e04 7736 d797 1737 a9d7 2238 b88f 3038
00000210: e4c0 3c36 8e29 8837 d350 0c38 b02f 1e38
00000220: 7b53 a636 c1d1 e436 46e9 2738 b553 3b38
00000230: 4a38 573c 5e46 223b 0d30 463d ccd3 ee38
00000240: 1e92 1d35 f14c bb36 46e2 a137 f9fe a537
00000250: 9eab 2235 2cbc b536 8a46 aa37 507a b137
00000260: 9f7d 6d35 d685 6a37 4fe9 4637 4619 5d37
00000270: 76fe 833c 0fd3 033b ddb4 313d c7d0 8138
00000280: 4ce2 3536 a56c e637 5a50 1139 b866 1639
00000290: 028f 0936 e002 9537 3205 1a39 5ac9 1c39
000002a0: ac49 8d36 7dbe 8e38 3aa8 cd38 61ec d938
000002b0: a6d0 8f3b 3f74 a13a c26c 393b 3980 b139
000002c0: cf2e e335 5d34 7736 8751 5a38 6365 5f38
000002d0: f64d f235 8c56 b436 6ea9 5938 3862 5f38
000002e0: 4b45 4536 a414 c937 189a 0b38 dfbd 1938
000002f0: 5e1c d53c b901 b23b db1f d13d abc3 1239
00000300: fa93 5336 df15 ef36 eda6 0438 e853 1238
00000310: d276 0536 edb3 2a37 f950 0038 679c 0b38
00000320: 6f70 d736 7720 7636 c008 0838 eb2a 2038
00000330: d797 b93a f1b8 4d3a a32b 5e3c cb4b ab38
00000340: a288 2c36 04a6 b836 5b2f ab38 f6b6 b038
00000350: 5c3d 0a36 f863 c737 24d9 8538 2561 8b38
00000360: 2a70 1836 9e20 5f37 1420 9e38 119a a238
00000370: 1c0f 123b 161e d53a 8560 f53c b85b 3639
00000380: 4669 2235 d96c 3f36 41d6 ff36 707a 0c37
00000390: 66e5 0635 41af 4c36 9ec0 0037 dab8 0c37
000003a0: 99ed 5735 104f e835 36eb 1237 d1fa 1d37
000003b0: 007f a63a fcd6 a938 e8e7 5a3a b801 9e37
000003c0: 418b b636 67ec 5637 773d cb38 edb0 d838
000003d0: fa33 6336 2ea7 f637 91ba b038 bc71 bc38
000003e0: 5163 0037 76b2 ec36 9e85 d538 f61e e638
000003f0: 5c1e b83c 307a 463b f5ac 4a3d 91c9 7c39
9.682662e-07 3.5299137e-05 4.2844913e-05 4.5905203e-05 1.2524741e-06 1.75911e-05 6.191191e-05 6.412798e-05
2.0699488e-06 3.334848e-05 4.561465e-05 4.8130245e-05 0.0052324887 0.0009150364 0.01241185 0.00016630457
1.1302972e-06 5.6284316e-06 9.38908e-06 1.0471621e-05 7.940794e-07 3.284734e-06 1.1537404e-05 1.2329282e-05
1.9672862e-07 7.4407626e-06 8.49676e-06 8.689222e-06 8.8157845e-05 0.000114195034 9.621971e-05 3.1312946e-05
9.3833205e-07 1.9581698e-06 1.2791967e-05 1.4022141e-05 6.673105e-07 2.1483293e-06 1.2507094e-05 1.3469166e-05
2.1778392e-06 1.0051583e-06 1.2660316e-05 1.4641119e-05 0.00016380247 9.2732895e-05 0.00013416821 2.8155358e-05
1.2823493e-06 6.33251e-06 7.1374096e-05 7.233089e-05 1.580116e-06 1.344568e-05 6.1670136e-05 6.379883e-05
6.0041253e-07 2.563689e-05 5.314885e-05 5.410157e-05 0.00033591583 0.0007167969 0.0002279332 0.00014222201
2.137919e-07 3.6741142e-07 5.8877304e-06 6.0798334e-06 3.804513e-07 2.1736637e-06 3.987696e-06 4.661159e-06
9.3751527e-07 8.1224096e-07 4.691397e-06 5.7142865e-06 0.00063333794 0.00017928088 0.00311619 1.3313669e-05
3.1872568e-07 5.9465588e-06 2.2636099e-05 2.3120403e-05 3.9391244e-07 1.4485146e-05 1.3680311e-05 1.5135521e-05
3.675185e-07 9.613023e-06 2.0048617e-05 2.055566e-05 0.0045245187 0.0019726055 0.039540917 7.134909e-05
2.4975723e-06 4.283182e-06 8.949832e-05 9.187697e-05 1.4541932e-06 1.8878289e-05 7.591568e-05 7.8413956e-05
4.150675e-06 1.2058938e-05 8.026642e-05 8.358129e-05 0.0015057141 0.001128783 0.012197491 0.00017593469
4.512629e-07 5.2504333e-06 1.3475855e-05 1.4187773e-05 4.5007948e-07 2.7368567e-06 1.597288e-05 1.6583605e-05
4.888667e-07 6.996083e-06 1.1806921e-05 1.2451128e-05 0.006980089 0.00024050691 0.004931273 4.1100928e-05
3.68083e-06 9.035654e-06 3.882466e-05 4.209552e-05 2.812646e-06 1.6231814e-05 3.3453874e-05 3.7714548e-05
4.956904e-06 6.819348e-06 4.0033156e-05 4.4662233e-05 0.013135979 0.002476118 0.04838567 0.000113881746
5.8699686e-07 5.5819914e-06 1.9298062e-05 1.9788264e-05 6.059944e-07 5.4161264e-06 2.0298427e-05 2.1157e-05
8.847218e-07 1.3978648e-05 1.1856041e-05 1.3178511e-05 0.016112547 0.0020114814 0.043385375 6.190087e-05
2.7102824e-06 2.7468728e-05 0.00013858211 0.0001434338 2.0497832e-06 1.7763523e-05 0.0001468852 0.00014952329
4.210704e-06 6.806569e-05 9.8064964e-05 0.00010391395 0.0043888865 0.0012317969 0.0028293584 0.00033855604
1.6926441e-06 3.6836348e-06 5.205118e-05 5.3261767e-05 1.8053095e-06 5.3744934e-06 5.1894625e-05 5.3258816e-05
2.9395621e-06 2.3970679e-05 3.3283693e-05 3.6654874e-05 0.026014503 0.0054323343 0.10211154 0.00013996537
3.1527584e-06 7.125301e-06 3.1626714e-05 3.4887256e-05 1.9887707e-06 1.0174682e-05 3.059299e-05 3.3285844e-05
6.4205883e-06 3.6675754e-06 3.2433076e-05 3.8186943e-05 0.0014159632 0.0007847688 0.0135602085 8.168033e-05
2.5709528e-06 5.502954e-06 8.162736e-05 8.426413e-05 2.0599318e-06 2.37692e-05 6.38238e-05 6.646131e-05
2.2715053e-06 1.329943e-05 7.540002e-05 7.753459e-05 0.0022286838 0.0016259577 0.02995325 0.0001739104
6.0502896e-07 2.8524576e-06 7.6245346e-06 8.3731575e-06 5.025271e-07 3.050038e-06 7.674242e-06 8.387689e-06
8.043949e-07 1.7308357e-06 8.757042e-06 9.416327e-06 0.0012702644 8.098592e-05 0.0008350597 1.8835868e-05
5.440234e-06 1.2810436e-05 9.691243e-05 0.000103326376 3.385589e-06 2.9403334e-05 8.427085e-05 8.985723e-05
7.652518e-06 7.0541237e-06 0.000101815196 0.000109730216 0.022475414 0.0030285232 0.04948135 0.00024107682

exp_avg f4 [128]
00000000: 19a5 c9b9 4ace 86ba 0f95 1e3a 318f 83bb
00000010: de2f e0b9 d4cf 49ba ea49 4abb a7c2 94ba
00000020: 0782 05bb a9a8 f7ba cf80 8c3b e095 6dbb
00000030: e7d1 aeba 75d2 3fbb 5671 363a 9c51 cfba
00000040: 9355 43bb 327c 273a a995 b4ba 02d0 1238
00000050: 9a3e 1b3a 8609 02ba ee5d 19bb 8269 d639
00000060: 0f18 33ba db46 acb8 4eed 75bb ec36 51bb
00000070: 43b5 19ba 762e 29bb 91f6 2abb 9ea8 413a
00000080: a46d 12bb 8731 65bb a7a3 e5ba 590a b3bb
00000090: 8ef2 bbb9 b39e 87bb 8e3c 14bb 8105 beba
000000a0: 9cd3 323a ad40 13bb 1723 03ba 6a1b e53a
000000b0: a363 e1b8 b879 67ba 3463 3dba e94c 3abb
000000c0: 78bc 32ba da6d 3cb9 d546 3dba 8f76 fa3a
000000d0: 31ce fbba 5929 b9ba c00c d838 2b81 d43b
000000e0: 9e74 6a3a 8401 f1ba 5e44 0fbb 8c89 84ba
000000f0: 86bb 2dbb e36c 87ba f5a6 83ba e5dd a839
00000100: f78c f93a 4996 0dba 085e d0ba 0c00 203b
00000110: c919 3c3a 240a 973b c3b3 903b b05f ea38
00000120: 1d8d b339 5102 6f3a 9a6b 52b9 370b 483a
00000130: 6d9d f7ba dead 0fbb c3b6 81b9 620e 71bb
00000140: 56ff 81bb eea2 acb9 c3ef 8639 5ab7 3eba
00000150: 714c f3b9 80e7 3cb9 db40 7b3a c6b8 b3b9
00000160: d16e 1abb 9761 f7ba b92a deba 5f4c e5ba
00000170: 7947 8338 c83a 2fbb e3f6 9fba fb11 1b3b
00000180: 3210 1cbb fd79 afb9 37e2 32bb 579a b839
00000190: 1540 1fbb 0e3d 763a ee00 38b6 6f7b 20bb
000001a0: 7242 34ba d850 c939 e937 04bb 35b8 23bb
000001b0: b977 a83a 6a2d 24bb c0e3 883b e00e 09bb
000001c0: 3c56 e2ba 645f 3bbb 219b 0eb9 53e8 1abb
000001d0: 7aa4 bb3a 3cc5 0cba ab71 d639 bcf7 0a39
000001e0: 49cf d7b9 1695 d9ba 111c 4ebb c031 44bb
000001f0: 0936 4cba 3cda 8e3a 16e3 42ba 3dfb 67ba
-0.00038460715 -0.0010284868 0.0006049433 -0.0040148725 -0.00042760273 -0.00076985103 -0.003086681 -0.0011349515
-0.0020371692 -0.0018894869 0.004287816 -0.0036252663 -0.0013337702 -0.002926973 0.00069596374 -0.0015817168
-0.0029805645 0.0006389051 -0.0013777512 3.5002835e-05 0.0005922109 -0.00049605255 -0.0023401934 0.0004089587
-0.0006831893 -8.214797e-05 -0.0037525478 -0.0031923605 -0.0005863497 -0.0025815046 -0.0026086906 0.00073874916
-0.0022343183 -0.0034972148 -0.0017520086 -0.00546388 -0.00035848137 -0.0041387915 -0.0022619101 -0.001449749
0.00068216934 -0.002246897 -0.0005002482 0.0017479484 -0.00010747395 -0.0008830088 -0.000722456 -0.002842719
-0.0006818245 -0.0001797 -0.00072203326 0.001910882 -0.001921123 -0.0014126702 0.000103020575 0.0064851246
0.0008943769 -0.0018387293 -0.0021860818 -0.0010111793 -0.0026509478 -0.0010332133 -0.0010044264 0.0003220878
0.0019039203 -0.00054011174 -0.0015897164 0.002441409 0.0007175473 0.004609363 0.0044159605 0.00011175813
0.00034246678 0.00091174716 -0.00020067245 0.00076310657 -0.0018891521 -0.0021923701 -0.00024740965 -0.0036782254
-0.003967206 -0.0003292779 0.00025737108 -0.00072752463 -0.00046405525 -0.00018015318 0.00095845544 -0.00034279207
-0.0023564587 -0.0018873689 -0.0016949988 -0.0017494074 6.2598796e-05 -0.0026737917 -0.0012204315 0.002366184
-0.0023813364 -0.0003346949 -0.002729548 0.00035210207 -0.002429967 0.0009393253 -2.7418678e-06 -0.0024487635
-0.0006876356 0.0003839794 -0.0020174927 -0.0024981622 0.0012853063 -0.0025051483 0.0041775405 -0.0020913407
-0.0017268131 -0.0028590793 -0.00013599965 -0.0023637011 0.0014315986 -0.00053699664 0.0004090195 0.00013252994
-0.00041162435 -0.0016600217 -0.0031449834 -0.002993688 -0.0007790034 0.0010898779 -0.0007434351 -0.0008849388

exp_avg_sq f4 [128]
00000000: f829 a738 1906 8237 0e93 8437 e9b4 9f38
00000010: 6234 d936 8b9b f437 a447 c738 97d3 a137
00000020: a491 5538 71c1 dc37 dec8 2e39 839e 7238
00000030: 5421 2e38 74e4 b838 3c64 3b37 754b f538
00000040: 2ca5 5638 4a99 d137 0dba 9a37 c38a 8037
00000050: 4f09 3038 ab94 fc37 e972 8038 b324 8f38
00000060: 4cd0 2e37 5d43 2e37 4a3b e038 1727 d838
00000070: 827a 2037 2327 4638 2f00 8638 d0df 5138
00000080: e029 9938 88bc 8a38 37dd 0d38 482c 3439
00000090: ee02 0338 8f58 8339 cb32 1639 1c3d 5c38
000000a0: 2b67 8937 3eee 2638 321f 5c36 4491 a938
000000b0: a7c1 1538 7e59 1c38 6421 8038 b225 2838
000000c0: d6a7 c138 45bc 3c38 6e5e 5a38 23c4 2739
000000d0: 5bbf 4338 f2c5 8a38 a779 8c36 f6bc 9b39
000000e0: c600 9c37 55ef 8f38 074b 0839 8d28 f837
000000f0: a167 c037 11ed 7938 9088 f237 7ed3 5f38
00000100: 6728 0b39 3a12 d336 09d4 0038 a3fb 4f39
00000110: 02a6 1c38 3679 5839 74b1 0e39 93c9 9b36
00000120: b1f7 d737 f2ec e138 d998 6a39 e163 3137
00000130: 6167 6a38 fc48 b638 4d45 2637 e3c3 ce38
00000140: a626 3a39 7571 a637 b724 7a37 0376 d337
00000150: d5c8 4038 e5da 2237 2790 3138 ff0f 8d37
00000160: 4341 d337 25f5 5237 1645 c938 4ec1 d437
00000170: 448b 8636 00d3 8d38 1609 c737 39e0 9d39
00000180: 0997 fe38 1d04 5236 51df ab38 ca77 b837
00000190: 8b3b 1738 d5dc 8838 3ba1 2238 f204 1238
000001a0: 87c8 9c37 8321 fc37 9ea7 7d38 3687 7538
000001b0: c1ca a438 be5d 0838 280f 3739 524f 6738
000001c0: fc2f 3738 cc40 5438 dd57 db36 e126 fc38
000001d0: 7a88 c737 51e3 a537 1c1f 4138 ea67 9937
000001e0: 50d4 3837 7652 6238 40aa 6538 f15d 6338
000001f0: 77d3 cb36 33a2 6c38 6607 1d38 9b10 c637
7.970998e-05 1.5500047e-05 1.5804104e-05 7.615408e-05 6.473202e-06 2.9159497e-05 9.5024036e-05 1.9291225e-05
5.0918796e-05 2.6316122e-05 0.00016668762 5.784492e-05 4.1515872e-05 8.8163564e-05 1.1169406e-05 0.00011696565
5.1175404e-05 2.4986122e-05 1.8444867e-05 1.5323405e-05 4.197034e-05 3.010997e-05 6.124919e-05 6.825607e-05
1.0419706e-05 1.0386892e-05 0.00010692196 0.00010306964 9.565267e-06 4.7243328e-05 6.389652e-05 5.0037925e-05
7.303408e-05 6.6154695e-05 3.3823042e-05 0.00017182634 3.1235562e-05 0.00025052248 0.00014324037 5.2509e-05
1.6379714e-05 3.9799364e-05 3.2800713e-06 8.085606e-05 3.570472e-05 3.7276644e-05 6.109735e-05 4.0089428e-05
9.234219e-05 4.4998033e-05 5.2063195e-05 0.00015999428 4.6669837e-05 6.617223e-05 4.1864873e-06 0.0002970469
1.859701e-05 6.8633504e-05 0.0001299792 2.9582787e-05 2.293644e-05 5.958701e-05 2.891224e-05 5.336431e-05
0.00013271124 6.290412e-06 3.071505e-05 0.000198348 3.7347905e-05 0.0002064452 0.00013608282 4.6428263e-06
2.5745338e-05 0.000107729706 0.00022372919 1.0573277e-05 5.5886227e-05 8.692031e-05 9.910506e-06 9.859332e-05
0.0001775274 1.9841575e-05 1.49097095e-05 2.5208114e-05 4.5963407e-05 9.706918e-06 4.233434e-05 1.6815959e-05
2.518355e-05 1.2574053e-05 9.597295e-05 2.5362384e-05 4.009724e-06 6.762706e-05 2.372688e-05 0.00030112432
0.00012139796 3.1294833e-06 8.195511e-05 2.199029e-05 3.605666e-05 6.5261185e-05 3.8773967e-05 3.481372e-05
1.8690027e-05 3.0056346e-05 6.0476006e-05 5.8538477e-05 7.857895e-05 3.251223e-05 0.00017457886 5.5148565e-05
4.367529e-05 5.0605086e-05 6.5369372e-06 0.00012023538 2.37862e-05 1.9775385e-05 4.604376e-05 1.828741e-05
1.10166875e-05 5.3959397e-05 5.4756412e-05 5.4208507e-05 6.074489e-06 5.6417844e-05 3.7438607e-05 2.3611172e-05
