results/RedCells3RaycastP2/RedCell3Raycast/RedCell3Raycast-155750.onnx (onnx, 79104 bytes, 7 tensors)

network_body._body_endoder.seq_layers.0.weight f4 [128, 15]
00000000: 2fd5 0e3f 0407 383d f50a 81be 60cc 95bc
00000010: e973 b83b f4e8 de3e da06 3b3e 55b3 6d3e
00000020: 1eb9 0b3e 41a9 a8be 5a23 0dbe 688d 19be
00000030: 3480 053e 7f1c 29bd 8c22 22be 0c6a 813d
00000040: 690d 6ebe f2f3 163f 1760 6fbe c745 0abe
00000050: 79d9 efbc abd7 6cbe c70f e13e 687f 9cbe
00000060: 8b29 e83e 505b 16bf 1dfc 2dbd 6fe5 41bd
00000070: 0ab6 843e fb14 b8bc d006 823d ac18 6c3e
00000080: 0491 01bd e6fd 853c 852f c4bd 90e9 ffbc
00000090: 88cc bcbe b62e 57be 1ac8 c03e d743 823e
000000a0: c18f 12bf 5719 98be f5a9 583c 83d6 243d
000000b0: e40c d9be 8069 3b3e de4a 093e f619 9fbe
000000c0: 6472 fdbc 4c19 1dbd 7ed4 a93e 83c8 9ebd
000000d0: 4956 373e b389 cf3e 2525 c73e 59f4 80be
000000e0: b93b 023e 0ab0 783c 21f3 9cbd acdd dc3c
000000f0: c1cb 993e 3d46 9dbc 8425 23be 68c8 3abc
00000100: 7471 92bd 158f 64be 1c29 e53e c1f0 043e
00000110: 3b9d b53d 13c8 cebe 23a0 b73d c0e8 203c
00000120: 314f 1c3e b027 bc3e 9974 a2bd fe94 c6be
00000130: e793 44bc 4846 a4bd 2948 1d3e a306 63be
00000140: 2240 d13a 3aac a13c b1ef 1dbe b312 8cbe
00000150: 08a3 32bf 3161 8b3e 9967 373e b8b4 123c
00000160: d45d 24bf 3dad 273e 4fce c83e 098b 00bf
00000170: ec74 e33d 557d 2e3c db71 843f 2a11 0b3f
00000180: 413f 77be 30ad a0be 718c b33e a91d d7be
00000190: d422 2abe 824b 373e dbea e5be 970c 953c
000001a0: 4cf0 043e d40e 453e a66a 9e3e 4ff0 16be
000001b0: 859a a33e 29a3 f7bd f2be 88bd 4375 c6be
000001c0: 6a9a 93be 317f 893e 2d9e cfbe be28 373f
000001d0: 52ab d13e 5915 10bd 3344 9c3e 6214 2c3e
000001e0: 3b0f 78bf c159 1f3f b23f b93d 29db b9be
000001f0: 87ee 22be b785 003e 81cd d63a 711c 713d
00000200: 487d 69be 7c98 00bd e791 a63c 15a4 eebc
00000210: 996b cfbd 9a9e 5c3e 8f8e bc3e e47d c8bd
00000220: 94ed 1f3e d934 34bf 5dda 1fbd d711 7dbd
00000230: a703 0fbe e076 3fbd 09db 013e c77a 233d
00000240: dac7 5abe 3416 dabe 2c36 5e3e 6761 9fbe
00000250: 80c1 a43d 6dfd 56bd 8b9d 443e 4d97 863e
00000260: f12b 1d3e fb6c 903d 465e af3e b031 be3e
00000270: 46d1 4bbf a4d5 9a3e ba8c 0bbf a610 2fbf
00000280: 60c4 e23b e8c2 b0be e46e 6ebd ab10 d9bd
00000290: cebd 53be 1157 cf3d 5cbd 47be 1011 f53e
000002a0: d47c d83e 0766 823e 36f4 dcbe 7ff2 56bc
000002b0: 2dec 103e 7ed3 a1be e7f2 12bf 2042 553d
000002c0: df5e 3e3e ee6d 92be 31e2 823e 6541 03bf
000002d0: 2e10 733d 12f3 a83d f933 02bf c697 23be
000002e0: 3d0a 0cbd 50b0 19be 3dfc 623e 81d1 23be
000002f0: 3239 c5be 64a5 ba3e 2a72 4b3e 2e4f 7cbe
00000300: 8228 173e 3ff6 693e 4905 963d 5ff4 3f3e
00000310: 7c59 2ebf 207b 243e 5537 493e e9cf 3dbe
00000320: 8944 2f3f 3132 903d df53 71be 3169 9cbe
00000330: dd66 363d ef89 4dbe db10 babe a0ef 01bc
00000340: da19 04bd 4035 c43e 22cb 473e ce2f 6bbe
00000350: dfc3 79be 69c4 9a3e a7a8 633d 651f 56be
00000360: 94dc ad3e 9f08 15be c39d 47be 2d52 a13b
00000370: 6776 dfba ab94 65be c245 ddbe d3ed 0dbd
00000380: 60e6 55be 68c1 013e ef4b babe 39a9 8bbe
00000390: b502 b1bd 7365 353e 5902 a3bd d350 f33d
000003a0: f674 6e3e 7c95 c8be 0848 a63e 69c7 a33e
000003b0: 88a7 2e3e 2c32 06bd fb2e a73e 9407 44be
000003c0: b69c c33d 7137 e9be 9d3b d5bd 51ad 9d3e
000003d0: 17b6 d0bd 1980 0bbf d2ff aabb 8f90 813e
000003e0: 7d02 32be 814f de3e caaf 4fbe d54b 42be
000003f0: d002 973d c1e3 00bd 9176 043e 7fce 05bf
0.5579404 0.044928566 -0.25203672 -0.01828593 0.005629052 0.43537104 0.18264332 0.23212941
0.13644835 -0.3294163 -0.13783017 -0.14995348 0.13037187 -0.04128694 -0.15833491 0.06319055
-0.23247303 0.5896598 -0.23376499 -0.1350318 -0.029278504 -0.23129146 0.4395735 -0.30565953
0.45344195 -0.5873308 -0.042476762 -0.047337946 0.25920135 -0.022470942 0.06348956 0.23056287
-0.03163244 0.01635642 -0.09579376 -0.031239301 -0.36874795 -0.21013913 0.37652665 0.25442383
-0.572506 -0.29706833 0.013224115 0.040243637 -0.42392647 0.18301964 0.13407466 -0.31074494
-0.030938335 -0.038354203 0.3316993 -0.07753088 0.17904009 0.40534744 0.38895527 -0.25186422
0.12718095 0.01517869 -0.07663561 0.02696117 0.30038264 -0.019198531 -0.1593228 -0.01140032
-0.07150546 -0.22320206 0.44757926 0.12982465 0.0886788 -0.4038702 0.089660905 0.009821117
0.15264584 0.3674903 -0.079323955 -0.38785547 -0.011998153 -0.080212176 0.15359558 -0.221705
0.0015964548 0.019735444 -0.15423466 -0.27358016 -0.69780016 0.2722259 0.17910613 0.0089542195
-0.6420567 0.16374679 0.392199 -0.5021215 0.111062855 0.010649999 1.0347246 0.54323065
-0.24145223 -0.31382132 0.35068086 -0.42014816 -0.16614848 0.17899898 -0.44905743 0.01819448
0.12982291 0.19243938 0.3094074 -0.14740108 0.31953827 -0.12091667 -0.06677045 -0.3876134
-0.28828746 0.26854852 -0.40550366 0.7154654 0.4095102 -0.03517661 0.30520782 0.1680465
-0.9689824 0.6224633 0.09045352 -0.36300018 -0.15911303 0.12551008 0.0016388149 0.058865014
-0.22801697 -0.03139542 0.020333244 -0.029130975 -0.101279445 0.21544877 0.36827514 -0.09789637
0.15617973 -0.7039314 -0.039026607 -0.06178459 -0.13966237 -0.046744227 0.12681212 0.03991201
-0.213653 -0.42595065 0.21700352 -0.31129 0.0804472 -0.05248778 0.19200723 0.26287308
0.15348794 0.070520364 0.34251612 0.37147284 -0.796162 0.3024112 -0.54511607 -0.6838478
0.0069203824 -0.34523702 -0.058211222 -0.10598882 -0.20677873 0.101240285 -0.19505829 0.4786458
0.42282736 0.25468466 -0.43155068 -0.013119339 0.14152594 -0.31606668 -0.5740189 0.052065015
0.18590878 -0.28599495 0.25563195 -0.5127166 0.059341602 0.08249487 -0.50860554 -0.15975866
-0.03418945 -0.15008664 0.22166534 -0.15997888 -0.385202 0.36454308 0.19867769 -0.2463958
0.14761546 0.22847842 0.07325227 0.18745564 -0.6810529 0.16062593 0.19650014 -0.18536343
0.6846395 0.07040823 -0.2356715 -0.30549005 0.04453169 -0.20072149 -0.36340985 -0.007930666
-0.032251216 0.38321877 0.19511083 -0.22967455 -0.24391125 0.30227974 0.05558076 -0.20910414
0.3395735 -0.1455407 -0.19493775 0.004923126 -0.0017048836 -0.22419994 -0.43217283 -0.034650635
-0.20888662 0.12671435 -0.36386058 -0.27277544 -0.086430945 0.17714481 -0.07959432 0.1188065
0.23286805 -0.39176548 0.3247683 0.31988075 0.17056096 -0.03276269 0.3265303 -0.19143516
0.095513746 -0.4555011 -0.10411761 0.30796292 -0.10190981 -0.54492337 -0.0052184844 0.25305602
-0.17383762 0.43420032 -0.20281902 -0.1897424 0.07373583 -0.031467203 0.12935854 -0.52268213

network_body._body_endoder.seq_layers.0.bias f4 [128]
00000000: cad9 cabb 03b7 833b 302a dbbd 1489 073d
00000010: 12ed 0ebe 8b59 cbbd 14da c73b 20fb 5cbc
00000020: 14b8 c2bd 42ec b5bd 0af8 a73c 1edc 2dbc
00000030: a9a4 e9bd 96e9 283d 6c51 eebc 2441 f7bc
00000040: 3811 663d 4a9f 1fbd 7585 c0bd ca23 f5bd
00000050: 10c7 2fbe c3c9 54be 2e91 ecbd 5547 2ebe
00000060: 925c f4bd 6311 e1bd ade7 24bc b4dd 03be
00000070: 569f 123a 271a 573d 2ecb edbd 6172 a1bd
00000080: fd9a 3cbe 14ca 5b3d a321 e3bb ce4a 1a3c
00000090: a192 50bd c9a8 433c d626 983c 9c6d adbc
000000a0: afde 0dbd ce45 cd3a 03de 26be 61c1 21be
000000b0: f54f 91bd d4fe 21bd 5bb9 d23b 42e0 bdbd
000000c0: 4a8c 053e 650f cf3c 5adb 0dbd 1925 f23c
000000d0: 17e0 63bd dc16 ee3a 6dd9 b23d f582 30bd
000000e0: 4a3e 94bb ed32 8dbd 71a6 c33d 6506 053d
000000f0: 8524 933d bb54 26bd 27f0 7bbb a6d6 2a3d
00000100: 3c97 d23d 8617 8ebd d3f0 a5bd b16e 2dbd
00000110: 4494 c3bd f483 37bd f3e7 94bd 50ad 8cbd
00000120: f5f5 c43c 3c11 7e3c 225e 71bd 1bc6 0b3e
00000130: 7562 28bd 811f c3bd 1d35 9ebd 8d18 da3b
00000140: 4f4a 07bc 2240 52bd 006c 0dbe 288e 6ebd
00000150: bee5 b9bc 465f a93d d4cc c23d bb42 12be
00000160: 9efb eebc 2a26 0b3d 04cd 61bd 1eaa 82bd
00000170: f7c4 c4bd 5c2e bcbc 6f8b 5ebd 14f9 f5bd
00000180: cf13 5b3d df5a 95bd fda7 cfbd 6c6f 09bd
00000190: 2237 92bd 3592 8cbd 47b3 b7bd 5472 34bd
000001a0: 8df7 733d 07fc 983d a0f3 84bd 74a8 abbd
000001b0: acce 47bd 3282 d1bd 3373 bdbd 6437 ba3c
000001c0: 4add fe3c 6c06 3cbe 2dbb d3bc 2755 65bd
000001d0: 3deb 9abd b65e 05bd a9b1 a9bd 00d4 f9bd
000001e0: 9f87 c3bd 50b8 3b3b efd1 21bd 6a9c f3bc
000001f0: a0b4 86bd ffd2 dfbd e102 98bd 7ff2 76bd
-0.0061905133 0.0040196194 -0.10701406 0.033089712 -0.13957623 -0.09929188 0.006098995 -0.013487607
-0.09507766 -0.08882953 0.020504016 -0.010611562 -0.114083596 0.04123839 -0.02909156 -0.030182429
0.056168765 -0.03897027 -0.09400455 -0.11969717 -0.1716578 -0.20780091 -0.11551128 -0.17019399
-0.11931719 -0.109896444 -0.010065001 -0.12877542 0.0005593201 0.052515175 -0.11611019 -0.07883144
-0.18418498 0.053659514 -0.0069315 0.009417249 -0.050921086 0.011942097 0.018573206 -0.02117043
-0.034636196 0.0015661062 -0.16295628 -0.15796424 -0.07095329 -0.039549664 0.0064307875 -0.092712894
0.13041797 0.025275895 -0.034633018 0.029558705 -0.05563363 0.0018164772 0.08732877 -0.04309364
-0.004524027 -0.06894479 0.095532306 0.0324768 0.071847 -0.04060815 -0.0038442702 0.04170861
0.10282752 -0.069380805 -0.08102574 -0.04234189 -0.09549764 -0.044803575 -0.07270803 -0.06868994
0.024043063 0.015507039 -0.058927663 0.1364979 -0.04110952 -0.09527493 -0.07724974 0.0066557587
-0.008257463 -0.051330693 -0.1381073 -0.05824104 -0.022692557 0.08270125 0.09511724 -0.14283268
-0.029172715 0.033971943 -0.05512716 -0.063801035 -0.096078806 -0.022971325 -0.054332193 -0.120103985
0.053485688 -0.07292723 -0.10139463 -0.033553526 -0.07139422 -0.06863824 -0.08969741 -0.044054344
0.059562255 0.074699454 -0.0649178 -0.08381739 -0.048781082 -0.10229911 -0.09250488 0.02273149
0.031111378 -0.18361825 -0.025846088 -0.05598941 -0.075643994 -0.032561027 -0.08285839 -0.12198639
-0.09547352 0.0028643794 -0.03950685 -0.02973767 -0.0657742 -0.10928916 -0.07422424 -0.060289856

network_body._body_endoder.seq_layers.2.weight f4 [128, 128]
00000000: 24a6 e5bd 7b4b fabc 2b00 46be bcac 66be
00000010: 4c86 1bbd ecd0 1abd b420 d5bd 7206 3dbe
00000020: ddf6 babd a7d9 fe3b 35d3 843b 5334 d1bd
00000030: c65e b53c c66b 42be 6574 57bd c1c7 c63c
00000040: e813 a83d 6386 fabb 06b6 99bd 47b6 863c
00000050: 09d7 d33c 9eb8 5abd e50b 9ebc f944 8abd
00000060: 137b 373d 751d 1ebd c0b4 743d ffb0 2fba
00000070: b795 f53c 8537 69bd 3fd4 46bd 3c68 733d
00000080: 9212 f83d 745f 08bc 90a5 7abe 619f 683d
00000090: 696f 84be c33b 21be 2412 a0bd 5440 1d3e
000000a0: 9db6 67be c039 bfbe ae85 bdbd 8b99 063c
000000b0: 7968 93bd 448a 9fbe b93f d43d a59f 7ebd
000000c0: 4177 7d3d f390 7fbb 6d60 4bbe dbd0 073e
000000d0: f5a6 dbbb 11c5 4e3e 9217 09bf 0fe7 d6bd
000000e0: d8d4 babd bdd7 e73c 5553 30be bc86 c7bd
000000f0: ecea edbd 9d49 17be a9f8 e0bc 07f1 c8bd
00000100: 65ba 323c e6c4 22bc c014 653e 521d b63d
00000110: 1574 c3bc 0dc4 8e3e c3cc e33d c620 c7bc
00000120: 1ffe 93bd 36da 823c dd6c 323d 6b4a 473d
00000130: 187a b43d f42c 983b e9cf c0be 9f6a f8bd
00000140: 3d8c f13c a02b 383d 8ac7 e6bd 1c25 2fbe
00000150: 2042 0cbe 4912 36be d35d 03be f1b1 cfbd
00000160: b4ab 84be 5837 dd3a dd6d 9a3c d450 f9bb
00000170: c3b1 2f3e d98c 87bc 1b13 babd ff79 c8bc
00000180: 56e9 963d abca 29bd 5a1d 5dbe 4d4d dfbc
00000190: 59f8 edbd 2ee6 9f3d 49f8 6abe c203 8fbd
000001a0: e516 f23c 1f00 76be 85b2 683c bf12 0cbd
000001b0: cb97 c03c 25a0 743d b507 433d be47 20be
000001c0: 495b d8bc e5fe edbd 701a 4b3d a623 cdbe
000001d0: 7f26 383d d391 e43b f2e3 f9bd 3a93 a0be
000001e0: ce1b 653d b57d 42be 45ce aebd 5dfc cbbd
000001f0: 052b cebd 0e69 81bd 9e2a 91bd 99b1 d63c
00000200: 8845 e0bd 389d 653d 616d 6c3d 3a76 07be
00000210: 09dc aabd 1507 8b3d 1e1c 8ebe f7a2 35bd
00000220: 6b80 c13d 316c 2dbd 95aa 893c 12f1 b9bc
00000230: 5ef7 b13d b077 ab3d d4bd e03d 1fe9 473e
00000240: 481f 353d 6d9b 43be 1d28 5abc 0e71 bd3d
00000250: 9142 acbd 8b36 ecbd 1885 3d3d d921 5bbe
00000260: dd0f 07be 5c46 2d3d 4c49 e63d 4633 39bd
00000270: 01e9 8b3c fd26 f23b a5d9 23be c8eb 023d
00000280: da25 0dbd 7912 87bd 4ed0 33be 6e47 6dbd
00000290: d872 b33d 92e0 cfbc 151a 4bbe a0a6 debd
000002a0: e900 66be fa10 60bd fffb 2cbe 97c0 ba3d
000002b0: ac9f 1a3d 9caa 463d f424 6fbe 791a 7b3d
000002c0: 376c 55be 7c74 083d a770 91bd 8a92 31bd
000002d0: 2ce9 1cbc 62e5 013d b3d4 61bd 2d06 193d
000002e0: 7857 a63d 385a 89be d722 343e 16c8 a0bd
000002f0: bb5d a23d 3793 b3bc 255a d2bd 163a bdbd
00000300: 66b3 973d df01 a0bd 38a1 7b3d d087 263d
00000310: ad98 66bd 3961 f2bd f316 0bbd 22c0 7f3d
00000320: ef66 32be 8d82 41be fc16 113c d5fa 083c
00000330: d57f 313d 9aa9 9dbd 98b7 18be 5239 f9bd
00000340: 88e0 08be ccd2 1abe 67f3 a43d 91d4 8f3a
00000350: a8cd 6c3c 00b2 2fbe 4014 a9be 15ff dbbc
00000360: bb5c dabd 431a a53d 4b74 1ebe 9e56 35bd
00000370: 31a6 133d d187 6abe dc59 b03c e069 02be
00000380: 086c 663d 335e 72bd 8ad3 bb3b 0299 f7bc
00000390: a372 0dbd f138 61bd 2552 0fbe 72b4 b93d
000003a0: 38a6 ac3d de35 d0bd 2d38 c1bd 07dc a33d
000003b0: 2294 66bd 64a5 613e 7fc9 3dbe 8fa7 fabd
000003c0: 950c ed3a 814c bbbd 6b75 ec3d 0518 a53d
000003d0: fdef eabd a4aa fbbc e8ce 0ebe 8061 bebc
000003e0: 7a59 bdbd f3db 083e d6ef b43c 3fe7 a13d
000003f0: 3d76 89bd 507d c3bd 5847 1bbd 7fc2 43bd
-0.112133294 -0.03055357 -0.19336002 -0.2252683 -0.037969872 -0.0377969 -0.10406628 -0.1845949
-0.09129117 0.007777411 0.004053498 -0.10215058 0.022139918 -0.18986425 -0.052601237 0.024265172
0.08206922 -0.0076454147 -0.07505421 0.016444338 0.025859373 -0.05339872 -0.019292781 -0.06751437
0.044795107 -0.03860231 0.05974269 -0.00067020947 0.029978616 -0.056937713 -0.048542257 0.059425578
0.12112917 -0.008323539 -0.2447722 0.05679262 -0.2586625 -0.15745454 -0.0781596 0.1535657
-0.22628255 -0.37348747 -0.09254013 0.008215318 -0.07197661 -0.31160176 0.10363717 -0.062163968
0.061881308 -0.0038996309 -0.19861002 0.13263266 -0.0067032524 0.20192362 -0.5355159 -0.1049329
-0.09122628 0.028301114 -0.17219289 -0.097424954 -0.116170734 -0.14774175 -0.02746232 -0.09811597
0.010908698 -0.00993464 0.22371197 0.08892311 -0.023859063 0.2788395 0.111230396 -0.02430762
-0.07226204 0.015973192 0.04356085 0.048654955 0.0881235 0.0046440307 -0.37658623 -0.12129711
0.029485816 0.04496348 -0.11268528 -0.17104 -0.136971 -0.17780413 -0.1282876 -0.101413615
-0.2591225 0.0016877456 0.018851215 -0.0076085124 0.17157654 -0.016546654 -0.09085675 -0.024472235
0.07368724 -0.041453045 -0.21593228 -0.02725854 -0.11619634 0.07807575 -0.22946276 -0.069831386
0.029551933 -0.24023484 0.014202719 -0.034197565 0.02350988 0.05972304 0.047614772 -0.15652367
-0.026410716 -0.11620883 0.04958576 -0.4006626 0.044958588 0.0069753914 -0.1220168 -0.31362325
0.05593472 -0.18993266 -0.085354365 -0.09960244 -0.10066799 -0.06318866 -0.07088207 0.026207732
-0.10950762 0.05605814 0.0577215 -0.13228694 -0.083427496 0.0678846 -0.27755827 -0.04434487
0.09448322 -0.042339507 0.016804973 -0.02269796 0.0868976 0.08372438 0.10973707 0.19522522
0.044219285 -0.19102259 -0.013315228 0.09250079 -0.08411134 -0.11533841 0.046269506 -0.2139963
-0.13189645 0.042303428 0.11244449 -0.045214914 0.017078878 0.0073899017 -0.16000994 0.03196314
-0.034459926 -0.0659532 -0.1755993 -0.05792945 0.08762139 -0.025375638 -0.19834168 -0.10871625
-0.22461285 -0.05470369 -0.16893004 0.09118765 0.03774993 0.04850255 -0.2335394 0.061304543
-0.20842062 0.033314213 -0.07101565 -0.04335264 -0.009577077 0.031712897 -0.055134486 0.037359405
0.08122152 -0.26826644 0.17591415 -0.07850663 0.07928034 -0.021920783 -0.102711 -0.09239595
0.074072644 -0.07812857 0.061433047 0.040656865 -0.056297947 -0.1183495 -0.033957433 0.06243909
-0.17422079 -0.18897457 0.008855578 0.008360584 0.0433348 -0.076983646 -0.14913785 -0.12169136
-0.13366902 -0.15119475 0.08054238 0.0010973384 0.014453329 -0.17157745 -0.33023262 -0.026855031
-0.10662218 0.0806165 -0.1547405 -0.044272058 0.036047164 -0.22903372 0.021527223 -0.127357
0.05625537 -0.059171867 0.0057320045 -0.030224327 -0.034533154 -0.054985944 -0.1399618 0.0906762
0.08430141 -0.10166524 -0.09434543 0.08000951 -0.056293614 0.22035748 -0.18533896 -0.122389905
0.0018085415 -0.09145451 0.11545833 0.08061222 -0.114715554 -0.030721016 -0.13946116 -0.023239851
-0.09245582 0.13365154 0.022087019 0.07905435 -0.06712005 -0.09545386 -0.037909836 -0.047792908

network_body._body_endoder.seq_layers.2.bias f4 [128]
00000000: 93be 99bd da96 a9bd 6587 74bd e00e 0ebd
00000010: ae16 00bd b935 51bc 8db5 9a3c 1443 50bc
00000020: 042d 8cbd 6ff0 38bc 4b6d cebd ca50 43bd
00000030: a109 60be debf d0bb 555e 89bd e825 6fbd
00000040: 1b60 b3bc 78d6 acbc 8ec6 64bd b3ef 9abd
00000050: 5056 423c 90d5 963c c59f 91bd 90a6 d9bc
00000060: 9d03 6abd 117a 73bc 718d 07bd fa4c dabc
00000070: 176c 6bbd d3d0 8bbd e89b 08be 19c8 6fbc
00000080: d881 c03d d9cf c43c 9fda d3bd 3f59 0b3d
00000090: e7c0 413d c74c 73bd d0ce ef3b 073c 23be
000000a0: 1089 eabd fc16 bb3c ab55 293b e782 0d3d
000000b0: 3cbd 4abd 0397 d8bd c150 c4bd 59e5 b43d
000000c0: c9ab a2bd 830b 56bd fe74 bfbd 1256 c7bd
000000d0: 78da 86bd d28d 58bd 968e fa3c f23b 70bd
000000e0: 1e1b a8bd 6228 30bd b979 2cbd e8e4 9ebd
000000f0: 116e bfbd 6ac1 05bd f073 60bd b27b 443d
00000100: 238f 96bc bb5e 13be 48f1 e0bd 2e68 1fbd
00000110: c4fe c5bc 6a7f bbbd 3fd0 133c b337 c6bc
00000120: c290 4f3c e49c 9fbd 5335 35bb 868a 97bc
00000130: 80f6 67bd 353b 363c 8c8a 70bd cb5e 83bd
00000140: 841a 96bd cf9c f2bd 8766 993d f63d 49bd
00000150: 7b5a 7ebd 5807 f13b 9ea7 72bd a697 86bd
00000160: 1327 56bd 56d1 5dbd 7a57 6dbd ee53 fabc
00000170: 018a 903d f47e 54bb 5ce9 ebba e9c4 5dbc
00000180: a2d4 48bd 07ce 2e3d 165c 9abc 2e02 28bd
00000190: 29dc 2c3a 4c4c 9bbd d9c2 51bd c803 7bbd
000001a0: e342 823b 461d 1cbd c9e0 7abd f8cb 8dbc
000001b0: 5557 12be e8f1 45bb e68f 653c bd5c d5bc
000001c0: ca2c 923c edd1 9dbc 8e1e 52bc ec7e 51bd
000001d0: 1b87 cabd bdfc d23c acfb cabc 1875 d0bd
000001e0: 87d2 9d3c 812d fdbd 95fa c5bc c971 4ebd
000001f0: 870c a63b 9f19 94bd 8717 0dbd aade 25bb
-0.07507052 -0.08280726 -0.059699435 -0.034682155 -0.03127163 -0.012769156 0.018885398 -0.012711305
-0.068445235 -0.011287793 -0.1007944 -0.04768447 -0.21878673 -0.0063705286 -0.067074455 -0.05838576
-0.021896413 -0.02109836 -0.05585342 -0.0756525 0.011861399 0.018412381 -0.07110552 -0.026568681
-0.057132352 -0.014860646 -0.033093873 -0.026648033 -0.05747613 -0.068269394 -0.13340724 -0.014635109
0.09399766 0.02402489 -0.10344433 0.03402066 0.047303107 -0.059399392 0.007318355 -0.15940867
-0.11451924 0.022838108 0.0025838416 0.034548666 -0.049496874 -0.10575678 -0.09585715 0.08832807
-0.07942922 -0.052257072 -0.09348486 -0.097332135 -0.06584638 -0.052869625 0.030585568 -0.05865092
-0.08208297 -0.043007262 -0.04210827 -0.07758504 -0.093471654 -0.032655157 -0.054798067 0.047969528
-0.0183788 -0.14391606 -0.10983521 -0.038917713 -0.024169333 -0.09155162 0.009021818 -0.024196481
0.01266879 -0.077935964 -0.0027650192 -0.01849867 -0.056631565 0.0111225145 -0.05872588 -0.06414565
-0.07329276 -0.11846315 0.07490259 -0.049131356 -0.062098008 0.007355612 -0.059241883 -0.065718934
-0.052283358 -0.054154716 -0.057944752 -0.030557599 0.07057572 -0.0032424303 -0.0017998624 -0.013535717
-0.049030907 0.04267695 -0.018842738 -0.041017704 0.0006594086 -0.07582912 -0.05121121 -0.061282903
0.0039752587 -0.038113855 -0.061249528 -0.017309174 -0.14291127 -0.0030204002 0.014011359 -0.026045198
0.017843623 -0.01926514 -0.012824668 -0.051146433 -0.098890506 0.02575528 -0.02477821 -0.10178584
0.019265426 -0.12362195 -0.024167338 -0.050401483 0.0050674113 -0.07231449 -0.034446266 -0.002530972

action_model._continuous_distribution.log_sigma f4 [1, 4]
00000000: 1ac8 a6be 8292 38be 06b0 24bf cb1a 5ebe
-0.3257454 -0.18024638 -0.6433109 -0.21689908

action_model._continuous_distribution.mu.weight f4 [4, 128]
00000000: 4e05 0dbd 6621 313c 80c0 be3c 93b9 343d
00000010: 1191 09bb 81c7 60bd 16da af3c 534d 91bc
00000020: 4a8e bd3c 5a61 c53d dd39 b13d 41c2 a7bd
00000030: b85a 013d 6a41 ad39 1af5 343e d156 043d
00000040: bf73 883d 1a7b 783c 7790 52bc dad2 bd3d
00000050: e945 b53d 77d2 a0bc 24df 9a3d b990 cf3c
00000060: 0eae 1e3d 7aa4 833a 7b52 a33d 2940 473c
00000070: 4e0f c23b 0895 ec3b ca89 d13c d60b 893d
00000080: 6a54 ddbd 35ba 30bd bd60 c33d beb0 58bd
00000090: 94d2 c1bd e49b 833d bf8d 823d 2b07 2b3d
000000a0: 81f6 db3d 0009 26bc f020 643d 8c70 63bd
000000b0: 06af 123d d7ec fb3d 7bbb af3b 1116 d5bd
000000c0: 2220 3d3d f43b b03d 764d 9e3c d794 893c
000000d0: fdba bb3d 5bff 073e 46c4 903c f7ca 033c
000000e0: a87c 753c 71a5 79bc 4591 e03c 9944 283c
000000f0: 82fd 0e3d 6285 243b 04ef 3a3d 96ca 3fbc
00000100: d2a2 e43c 7d6f 553d d531 913d 1682 723d
00000110: 84e6 343d 5695 833d a6b5 9a3d dd7f 093c
00000120: 2aa1 8f3d 05c0 d5bb 94f7 b63b 4b70 1b3d
00000130: bfd3 4f3d 9633 ab3d d580 3d3d 19dc fd3b
00000140: b0cc 1a3e 4d1d 473d 5b33 23be 1b36 edbb
00000150: 542e 453d da34 c1bc f295 573c 55f5 a8bc
00000160: 49d2 353d c890 033d 013b 543d 4b36 893d
00000170: 7f55 96bd 937f bb3d f0fc 5a3d 07ec b03c
00000180: 3585 963c 374b 08be 96fb 3c3b f6b3 023e
00000190: 44cf 353d 1dde 1f3e 79d9 ab3d d5dc 6e3d
000001a0: 1f62 0a3c 4c40 9fbc 4ed3 fc3d ab31 a13d
000001b0: 1995 a03d 5c00 2e3e 2218 543d 8bb9 c63d
000001c0: 22d0 8fbb edf2 cd3d 29fe 8dbd 8bc5 eb3d
000001d0: 5de4 0c3c 2e5c 86bb 6004 0f3d 8c8e c93d
000001e0: 16c7 60bd 45ea 053d 5faa c63d 03c4 103d
000001f0: b5de 8a3c ed2c 7e3c 2aaf bd3d 4d37 d83d
00000200: d291 5f3d 2e3b 95bb 5e60 e538 95d1 26bd
00000210: e1af c03c f7f3 13bd cb9f 5e3d 50d6 a8bc
00000220: 9367 10bd b159 b1bd a87b 943c e36a 193c
00000230: 2cf4 583c a3c0 2cbc c467 a6bc b3c7 1e3c
00000240: 4093 88bd 6392 6dbb 54e1 ef3c 6672 52bd
00000250: 0ff0 803d 2d2c a23c 8a5f 54bd 6879 afbc
00000260: 3346 0ebc 9e86 08bc 841a 163d fcac 45bc
00000270: f0d8 4a3b fdcb 3bbd fef5 353d 9c93 af3d
00000280: d6bb 5fbd 86c1 93bc a262 4dbc d14b 0d3c
00000290: 8d06 2b3d 71c8 afbd b237 c2bd 1375 d5bb
000002a0: 7195 b03b fd66 8abd 1967 11bd 1182 0c3d
000002b0: a2f0 42bd 359e 28bb da27 3d3d 6822 573d
000002c0: 78ca 5fbd 0289 73bd f500 fd3b e658 c63d
000002d0: af19 01bd e23e 8d3d 6664 4fbc 6dce d1bc
000002e0: 1b44 ebbc 412e e0bc cf48 4a3b de93 8fbc
000002f0: eec9 0fbd c657 f9bc ba89 c9bd 94f7 b33c
00000300: ed7d 4dbd 3bba 443c 2785 9cbd 084d d1bd
00000310: d2c1 2dbd 818a aebc 578d 62bd 70d5 883b
00000320: 17f4 dabc f43d c0bb 2d2e 49bd 5295 ed3b
00000330: 77de 0b3b badd 18be f95c 113b d76d 9fba
00000340: e9b6 56bd bb76 6bbb 3b9a 7c3d 5073 86bc
00000350: 8d93 8a3d f99d 06be c140 44bd 7573 34bc
00000360: db98 b3bc 381d 243d c676 ea3c 804e 923c
00000370: d209 04bd 93fc c4bd 5efc c4bd 95fc fe3c
00000380: db9b b0bd ddd0 b1bb 679d 09bd 7979 06be
00000390: 2f5d 8dbc 62ce 19bc 4624 a63d c991 1d3d
000003a0: eb30 653d 0269 abba 4d32 54bd 6b52 58bd
000003b0: 6fea b5bc dceb 9e3b 37d7 663b f229 8bbd
000003c0: 16c3 08bd 9a27 483d d63e 09bb c2e9 433d
000003d0: efb0 1cbd 9df1 3a3d 3b9d ca3c 9a7c 96bc
000003e0: f55e 8abc 6086 47bc 0395 19bd 6167 d73c
000003f0: 201f 4abc 6714 2dbd 6fff 11bd 3519 2bbe
-0.034428887 0.010811185 0.02328515 0.04412229 -0.0020991007 -0.05487776 0.021466296 -0.017737066
0.023139138 0.09637709 0.08653615 -0.08191348 0.031580657 0.0003304587 0.17671624 0.032309357
0.06662702 0.015166068 -0.012851826 0.09268732 0.08851225 -0.019631607 0.07562092 0.025337564
0.03874021 0.0010043525 0.07974716 0.012161293 0.0059222346 0.0072199143 0.025578398 0.06691711
-0.10807116 -0.04314633 0.09539936 -0.05290293 -0.09463993 0.06426218 0.06374692 0.041754883
0.10740376 -0.010133982 0.055695474 -0.055527255 0.035811447 0.12301033 0.0053629256 -0.104045995
0.046173222 0.08605185 0.019324046 0.016794605 0.091665246 0.13281004 0.017671715 0.008043996
0.014983334 -0.015237198 0.02741302 0.010270261 0.034909733 0.0025103916 0.0456381 -0.011706015
0.02790967 0.052108277 0.07089583 0.05920609 0.04416515 0.06424968 0.07554178 0.008392301
0.070131615 -0.0065231347 0.005583713 0.037948888 0.050739046 0.083594486 0.046265442 0.007747185
0.15117145 0.048611928 -0.1593756 -0.007239116 0.048139885 -0.023584772 0.013158308 -0.020624796
0.044389997 0.032120496 0.051814083 0.06699809 -0.07340526 0.09155192 0.053463876 0.021596922
0.018374065 -0.13309942 0.002883648 0.12763962 0.044387117 0.15612073 0.08391089 0.05831607
0.008446245 -0.019439839 0.12344991 0.078708015 0.07840938 0.16992325 0.051780827 0.09703358
-0.004388825 0.100561 -0.06933243 0.11512288 0.008599368 -0.004100344 0.03491628 0.09841642
-0.054877363 0.03269412 0.097004645 0.03534318 0.016951898 0.015513641 0.092619255 0.10557423
0.054582424 -0.004554174 0.00010937521 -0.040727217 0.023521366 -0.036121335 0.05435161 -0.020610005
-0.035255026 -0.086596854 0.01812537 0.009363863 0.013241809 -0.010543975 -0.020313151 0.009691167
-0.06668711 -0.0036250583 0.02928225 -0.05137863 0.062957875 0.019796455 -0.051848926 -0.021420196
-0.008683729 -0.0083328765 0.03664638 -0.0120651685 0.0030952059 -0.045848835 0.04442405 0.08573076
-0.054622494 -0.018036615 -0.012535723 0.008624033 0.041754294 -0.08583153 -0.09483279 -0.0065142005
0.0053889086 -0.06757925 -0.035498712 0.03430373 -0.047592767 -0.0025729064 0.046180584 0.052523047
-0.05463645 -0.059456833 0.0077210614 0.09684925 -0.031518634 0.068967596 -0.012658214 -0.025611127
-0.028718999 -0.027365806 0.0030866151 -0.017526563 -0.035104685 -0.030437361 -0.098407224 0.02196864
-0.05016892 0.012007291 -0.07642584 -0.10219771 -0.04242117 -0.021306278 -0.055310573 0.0041758344
-0.02672772 -0.0058667604 -0.049116302 0.0072504664 0.0021342316 -0.14928332 0.002218066 -0.0012163472
-0.05242053 -0.0035928923 0.061670523 -0.016412407 0.06766424 -0.131462 -0.047913317 -0.011013855
-0.021923473 0.040066928 0.028621089 0.017859697 -0.032235928 -0.09618487 -0.09618448 0.0311263
-0.08623477 -0.00542651 -0.033597376 -0.13132276 -0.017256347 -0.009387584 0.08112387 0.03846911
0.055954855 -0.0013077559 -0.051805783 -0.052812975 -0.022206513 0.004849894 0.0035223493 -0.0679511
-0.033389173 0.048865892 -0.0020941994 0.04783035 -0.038254675 0.045640577 0.024733176 -0.018369962
-0.016890982 -0.012178034 -0.037495624 0.026294412 -0.012336522 -0.042255785 -0.03564399 -0.16708834

action_model._continuous_distribution.mu.bias f4 [4]
00000000: d9c9 f1bd 3890 773c 7914 043c 742e 37bd
-0.118060775 0.015110068 0.008061522 -0.044722036
