results/RedCells3Raycast/RedCell3Raycast/RedCell3Raycast-404480.pt (torch, 472116 bytes, 36 tensors)

network_body._body_endoder.seq_layers.0.weight f4 [128, 15]
0	0x3f07dd09	0.5307165
1	0x3daa8576	0.08326237
2	0xbe866d53	-0.26255283
3	0xbd225004	-0.03962709
4	0x3e226f67	0.15862809
5	0x3ee401ab	0.44532523
6	0x3d8246f8	0.063611925
7	0x3e1cbc06	0.153061
8	0x3e02e91e	0.1278424
9	0xbeb7ecd6	-0.3592288
10	0xbe0a1810	-0.13485742
11	0xbe1cb840	-0.15304661
12	0x3ddd1080	0.10794163
13	0xbcca3a79	-0.024686085
14	0xbe683f01	-0.22680284
15	0x3db92367	0.090399556
16	0xbe393c0c	-0.18089312
17	0x3f1180bd	0.56837064
18	0xbe80d779	-0.25164393
19	0xbcc29d57	-0.023756666
20	0xbd3120ec	-0.043244287
21	0xbe90c150	-0.28272486
22	0x3ed4bc08	0.41549706
23	0xbebba1c4	-0.36646855
24	0x3ec23155	0.37928262
25	0xbf007c8a	-0.5019003
26	0xbbc0450b	-0.0058676056
27	0xbb668ea9	-0.0035180247
28	0x3e70c428	0.23512328
29	0x3c63522d	0.013874573
30	0x3e155974	0.14584905
31	0x3e4bb0ce	0.19891664
32	0x3d8d9521	0.0691321
33	0x3dddf7f1	0.10838307
34	0xbd6e0d94	-0.058118418
35	0x3d8e698a	0.06953724
36	0xbea9f279	-0.33192804
37	0xbe201a3a	-0.15635005
38	0x3ecc85fe	0.39945978
39	0x3e839884	0.25702298
40	0xbef4277e	-0.4768638
41	0xbe48a8b5	-0.19595607
42	0x3da01563	0.07816579
43	0x3d95bed0	0.07311785
44	0xbf047909	-0.51747185
45	0x3dacf25a	0.084446624
46	0x3e3b4e07	0.18291484
47	0xbe8d5e0e	-0.2761082
48	0xbcd615c8	-0.026133433
49	0x3c99eabb	0.018788686
50	0x3eb3d890	0.35126162
51	0xbe10035f	-0.14063786
52	0x3e14af69	0.14520039
53	0x3ea3dfa3	0.3200656
54	0x3ecc2ca1	0.398778
55	0xbe52b692	-0.20577458
56	0x3e0770df	0.1322665
57	0x3cf26d1f	0.029593049
58	0xbd8e2232	-0.06940116
59	0xbd701acd	-0.05861931
60	0x3e857c55	0.2607142
61	0xbd19e2a5	-0.03756966
62	0xbdc9fb9e	-0.09862445
63	0x3d05b50c	0.032643363
64	0x3d5222d7	0.051302757
65	0xbe731448	-0.23738205
66	0x3ed235fe	0.41056818
67	0x3df7f9a7	0.12108164
68	0xbc706f8c	-0.014675032
69	0xbeebd3bd	-0.4605998
70	0x3e1dbd7b	0.15404312
71	0x3d381367	0.04494038
72	0x3e256e50	0.16155362
73	0x3ed157f7	0.40887424
74	0xbe106d9f	-0.14104317
75	0xbe859588	-0.26090646
76	0x3de1af83	0.11019804
77	0xbde2a1c8	-0.110660136
78	0x3e2ad600	0.16683197
79	0xbe468ad6	-0.19388899
80	0xbc833b00	-0.016019344
81	0x3d9c4ef8	0.076322496
82	0xbdcc7d96	-0.09984891
83	0xbea09cab	-0.31369528
84	0xbf15b034	-0.5847199
85	0x3e8a1910	0.26972246
86	0x3e419e2d	0.18907996
87	0x3d19b454	0.03752549
88	0xbf35b315	-0.7097638
89	0x3df4d658	0.11954945
90	0x3ee7e527	0.45292017
91	0xbf064644	-0.52450967
92	0x3def77f4	0.11692801
93	0x3ce56f2c	0.028007112
94	0x3f88ae2e	1.0678155
95	0x3f196404	0.59918237
96	0xbe8c9927	-0.27460596
97	0xbe9eeb6c	-0.31038988
98	0x3ebdb8f5	0.37055174
99	0xbea8496e	-0.32868522
100	0xbe3db909	-0.18527617
101	0x3e32da71	0.17466141
102	0xbee4a470	-0.44656706
103	0xbb808f6e	-0.003923348
104	0x3e5ca4f3	0.21547298
105	0x3e6ce599	0.2313446
106	0x3e71be3e	0.23607728
107	0xbdf38755	-0.11891047
108	0x3ead9e8a	0.33910018
109	0xbe7aded4	-0.24499065
110	0xbd7df0f7	-0.06199738
111	0xbea51046	-0.32238978
112	0xbe85938c	-0.26089132
113	0x3ed34dc1	0.4127026
114	0xbe9e5bb3	-0.30929336
115	0x3f29a506	0.6626743
116	0x3ecd54e2	0.40103823
117	0xbd1808ba	-0.037117697
118	0x3ea3d075	0.31994978
119	0x3e18a486	0.1490651
120	0xbf6ae70b	-0.91758794
121	0x3f1611c8	0.5862088
122	0x3e06c105	0.13159569
123	0xbea79c64	-0.32736504
124	0xbe7b91a4	-0.24567276
125	0x3d933b88	0.07189089
126	0x3df975f4	0.12180701
127	0x3e14f65f	0.14547108
128	0xbe5cb68a	-0.21554008
129	0xbd9be63f	-0.07612275
130	0x3da32444	0.079659015
131	0x3c9af527	0.018915726
132	0xbdb9b785	-0.09068207
133	0x3e7c8539	0.24660195
134	0x3ec6dadb	0.38838848
135	0xbe21d81c	-0.15805095
136	0x3e6dd644	0.23226267
137	0xbf2ca927	-0.67445606
138	0xbcd8722e	-0.026421633
139	0xbcd75908	-0.02628757
140	0xbe343e0b	-0.17601793
141	0xbb06b09a	-0.002055204
142	0x3e296e6a	0.16546026
143	0x3dd83c7f	0.10558414
144	0xbd97e1a7	-0.07416087
145	0xbefab610	-0.48967028
146	0x3e5e6218	0.21717107
147	0xbe98daff	-0.2985458
148	0x3dcb2184	0.09918502
149	0xbb297eff	-0.002586305
150	0x3d406c92	0.04697854
151	0x3ec7cba2	0.39022547
152	0x3db7985d	0.08964608
153	0x3a88e376	0.0010443765
154	0x3e80f9ad	0.25190488
155	0x3eaaecd7	0.3338382
156	0xbf490a33	-0.7853119
157	0x3e90cb1e	0.28279966
158	0xbee3ae89	-0.44469097
159	0xbf1b402f	-0.6064481
160	0xbd51fdc9	-0.05126742
161	0xbec61141	-0.3868504
162	0xbcf696a1	-0.030101122
163	0xbe198c61	-0.14994957
164	0xbe4dca6f	-0.20096754
165	0x3e1f11c5	0.15534122
166	0xbcd51b13	-0.026013887
167	0x3ed95be4	0.4245292
168	0x3eccb2be	0.3998012
169	0x3e6cde8f	0.23131774
170	0xbedf2c4e	-0.4358849
171	0xbc8b216c	-0.01698371
172	0x3e07f1c7	0.13275824
173	0xbe510a11	-0.20413996
174	0xbf1551f4	-0.58328176
175	0x3d1c268b	0.038122695
176	0x3e442535	0.19154818
177	0xbe6cb871	-0.23117234
178	0x3e6b0e03	0.22954564
179	0xbef6e64d	-0.4822258
180	0xbc6203ad	-0.013794822
181	0x3e16d3e5	0.14729269
182	0xbeee6cb5	-0.46567312
183	0xbe0d0f66	-0.13775405
184	0xbd616c08	-0.055034667
185	0xbe208007	-0.15673839
186	0x3e959bd3	0.29220447
187	0xbdc0c068	-0.094116986
188	0xbec36f42	-0.3817082
189	0x3e909b88	0.2824366
190	0x3e8ba2b3	0.27272567
191	0xbe3fba03	-0.18723302
192	0x3e166424	0.14686638
193	0x3e917269	0.284076
194	0x3d92af08	0.07162291
195	0x3e176150	0.14783216
196	0xbf272984	-0.6529772
197	0x3e2998ef	0.16562246
198	0x3e4f2d43	0.2023211
199	0xbe22928d	-0.15876217
200	0x3f28e5ff	0.65975946
201	0x3d987b3a	0.074453786
202	0xbe62c4a0	-0.22145319
203	0xbeb566b5	-0.35429922
204	0x3d243f11	0.040099207
205	0xbe3e37f6	-0.18576035
206	0xbebee49c	-0.3728379
207	0xbc9027e6	-0.01759715
208	0x3c4e494a	0.012590716
209	0x3ec7594b	0.38935313
210	0x3e023667	0.12716065
211	0xbe1a819a	-0.15088502
212	0xbe83e10b	-0.25757632
213	0x3e92c904	0.28668988
214	0x3ca223d9	0.019792484
215	0xbe72bc70	-0.23704696
216	0x3eaf3425	0.3421947
217	0xbe1e0585	-0.15431793
218	0xbde5327b	-0.11191269
219	0xbcfceb24	-0.030873843
220	0xbd0b367c	-0.033987507
221	0xbe64671b	-0.22304957
222	0xbeccbf2a	-0.39989597
223	0xbdd59f3a	-0.10430761
224	0xbe1cb20d	-0.15302296
225	0x3e3c40f1	0.18384148
226	0xbeb90ef8	-0.36144233
227	0xbe9191db	-0.2843159
228	0xbda5febb	-0.081052266
229	0x3e33f7a6	0.17574939
230	0xbd150c85	-0.036388893
231	0x3dd1fa04	0.10252765
232	0x3e5653f7	0.20930468
233	0xbea2971b	-0.3175591
234	0x3e9b22cf	0.30299994
235	0x3e99455e	0.29935735
236	0x3e326345	0.17420681
237	0x3d03e183	0.032197487
238	0x3e8d9a1b	0.27656636
239	0xbe4ca123	-0.19983344
240	0xbbebf0c7	-0.0072003338
241	0xbedaa3c7	-0.42703077
242	0xbd9e0dbe	-0.07717465
243	0x3ea4eb62	0.32210833
244	0xbd095d62	-0.033536322
245	0xbf0f4a02	-0.559723
246	0xbd2274ce	-0.039662175
247	0x3e6da984	0.23209196
248	0xbe8c2850	-0.27374506
249	0x3ea41d5e	0.32053655
250	0xbdf880a6	-0.12133913
251	0xbe2738c8	-0.16330254
252	0x3dae8e5b	0.08523246
253	0x3bc25b33	0.005931282
254	0x3dfce51e	0.12348388
255	0xbeedc93d	-0.46442595

network_body._body_endoder.seq_layers.0.bias f4 [128]
0	0xbcae0e0c	-0.021246932
1	0xbaea22fa	-0.0017863207
2	0xbccdf8ef	-0.025143115
3	0x3ce0f73c	0.02746164
4	0xbdfb57f3	-0.12272634
5	0xbd7ef613	-0.062246393
6	0x3c7c55c6	0.015401309
7	0xbb9aefef	-0.0047283093
8	0xbd6856e2	-0.056723483
9	0xbd3a9db2	-0.045560546
10	0xbbf54e29	-0.007486124
11	0xbc09e877	-0.00841724
12	0xbd98b83d	-0.07457016
13	0x3d1b32ac	0.03789012
14	0xbd23b7cb	-0.0399702
15	0xbc9e06c2	-0.019290332
16	0x3d462447	0.04837444
17	0xbcd792e1	-0.026315155
18	0xbdd2d07a	-0.1029367
19	0xbdd9608b	-0.10614117
20	0xbdf0bc4d	-0.117546655
21	0xbe145a3e	-0.1448755
22	0xbdc8b78a	-0.09800632
23	0xbdbf9f8b	-0.09356602
24	0xbdccdf3f	-0.10003518
25	0xbd5d4a49	-0.054025922
26	0xbc05c0be	-0.008163629
27	0xbd1cd5b8	-0.038289756
28	0x3d218402	0.039432533
29	0x3d3c4d52	0.045972176
30	0xbdcafab5	-0.099111
31	0xbd806cee	-0.06270777
32	0xbe07b9f2	-0.13254526
33	0x3d2c0ecb	0.042006295
34	0x3cbaaa9d	0.022786433
35	0x3c7eb958	0.015547119
36	0xbd8915e9	-0.06693632
37	0x3d2d0d03	0.042248737
38	0xbbd70ac6	-0.0065625636
39	0xbcb4186b	-0.0219843
40	0xbd0470c9	-0.032334123
41	0xbc32e281	-0.010918261
42	0xbdee8e4b	-0.11648234
43	0xbdd2449a	-0.10266991
44	0xbd9508b9	-0.07277054
45	0xbc568fd4	-0.013095815
46	0x3c75c91d	0.015001562
47	0xbd8becbd	-0.068322636
48	0x3dc0773e	0.09397744
49	0x3d235a99	0.039881323
50	0xbbd80f81	-0.006593645
51	0xbb60d28c	-0.0034305183
52	0xbd2238d2	-0.03960497
53	0xbbfa53ea	-0.007639398
54	0x3d970915	0.07374779
55	0xbd26e0c8	-0.04074171
56	0x3c44222b	0.011971037
57	0xbd92f84b	-0.071762644
58	0x3d67fa07	0.05663493
59	0x3cfdde71	0.030989857
60	0x3cba9d50	0.02278009
61	0xbd50be60	-0.050962806
62	0xbc294913	-0.010332364
63	0x3a4c88d0	0.0007802369
64	0x3db95197	0.09048765
65	0xbd4e5dc7	-0.0503824
66	0xbd968b12	-0.07350744
67	0xbcd10d79	-0.02551912
68	0xbd8a4dee	-0.06753145
69	0xbc9982b0	-0.018739074
70	0xbd84a32b	-0.06476434
71	0xbd689cc1	-0.056790117
72	0x3d1742c8	0.036928922
73	0x3c5aff9f	0.013366609
74	0xbd11f14d	-0.035630513
75	0x3d9afffd	0.07568357
76	0xbceb614c	-0.028732918
77	0xbd4baad1	-0.04972345
78	0xbd8bdfae	-0.06829773
79	0x3a8b16d0	0.0010611657
80	0xbc575e5f	-0.013145058
81	0xbd4d86e9	-0.05017749
82	0xbdaebd20	-0.085321665
83	0xbd61eae5	-0.055155654
84	0xbc40f86b	-0.011777977
85	0x3d471ad0	0.048609555
86	0x3d73c309	0.059512172
87	0xbdb7f6ae	-0.08982597
88	0xbc264e43	-0.010150495
89	0x3d2213ad	0.039569546
90	0xbd0e55cf	-0.034749802
91	0xbd967f78	-0.073485315
92	0xbdeea246	-0.11652045
93	0xbd02c206	-0.031923316
94	0xbd396da3	-0.045270573
95	0xbdcf6b62	-0.101279035
96	0x3ca6a0af	0.020340292
97	0xbce82df4	-0.028342225
98	0xbdc977d7	-0.09837311
99	0xbd7d20bb	-0.061798792
100	0xbd8e40fd	-0.06945989
101	0xbc04b7bb	-0.008100445
102	0xbd4a1b65	-0.04934253
103	0x3bfefd82	0.0077816853
104	0x3d83a3a3	0.064276956
105	0x3d317645	0.04332568
106	0xbd7879e1	-0.060663108
107	0xbd9dff82	-0.0771475
108	0xbd4ba258	-0.04971537
109	0xbdb9fbf5	-0.0908126
110	0xbd10ca98	-0.03534946
111	0xbc9499f4	-0.018139817
112	0x3c7df431	0.015500114
113	0xbe00ef29	-0.12591232
114	0x3a9aa442	0.001179822
115	0xbcb7d991	-0.022442611
116	0xbd8c131d	-0.06839583
117	0xbc940ac0	-0.018071532
118	0xbd8b28af	-0.06794869
119	0xbd354cf3	-0.044262838
120	0xbdb765eb	-0.08954986
121	0xbcdffc6f	-0.02734205
122	0xbcc1a98f	-0.023640422
123	0xbc7b5b53	-0.015341598
124	0xbd1a8d92	-0.03773267
125	0xbd91a506	-0.07111554
126	0xbd9861bf	-0.074405186
127	0xbcd87941	-0.026425006

network_body._body_endoder.seq_layers.2.weight f4 [128, 128]
0	0xbcf85e70	-0.030318469
1	0xbd080035	-0.033203322
2	0xbe0ee525	-0.13954599
3	0xbdf04b93	-0.11733165
4	0xbbc6f616	-0.006071816
5	0x3cd499c2	0.025952224
6	0xbe18088f	-0.14847015
7	0xbe00b231	-0.12567975
8	0xbd809de5	-0.06280116
9	0xbda327b1	-0.07966555
10	0xbcf7ded7	-0.030257626
11	0xbd5de629	-0.054174576
12	0x3d39766a	0.045278944
13	0xbdd66ce6	-0.104699895
14	0xbcb4d474	-0.022073962
15	0x3d042cae	0.032269172
16	0x3debe9ec	0.115192264
17	0x3ab45c71	0.001376046
18	0xbe16b1c3	-0.14716248
19	0xbdb9fd37	-0.090815
20	0x3d57e17e	0.05270528
21	0xbd08d09e	-0.033402078
22	0x3c5ea6b6	0.013589552
23	0xbd8ceece	-0.06881486
24	0x3d804a46	0.062641665
25	0xbc3fa9ef	-0.01169823
26	0x3b4cc0d6	0.003124287
27	0x3b791b73	0.0038010746
28	0x3dc5e5d3	0.09662976
29	0x3becb48f	0.0072236727
30	0xbcdd19fb	-0.026989928
31	0x3c646985	0.013941173
32	0x3e0b6d51	0.1361592
33	0x3d13253c	0.03592418
34	0xbe4607f3	-0.1933897
35	0x3cd76c7e	0.02629685
36	0xbe2f8d26	-0.17143688
37	0xbe2c8019	-0.1684574
38	0xbc6970f2	-0.01424812
39	0x3d992321	0.074774034
40	0xbe046db4	-0.12932473
41	0xbeb767cb	-0.35821375
42	0xbdd371f6	-0.10324471
43	0x3d2ca5d4	0.042150334
44	0xbc76525d	-0.015034285
45	0xbe9b9601	-0.3038788
46	0x3dd883ad	0.1057199
47	0xbd2c5614	-0.042074278
48	0x3dd4b64c	0.10386333
49	0x3cc4a37a	0.024003733
50	0xbe683e30	-0.22679973
51	0x3d36aef3	0.04460044
52	0xbd5becdd	-0.053692687
53	0x3e517e2e	0.2045829
54	0xbeb3c9e2	-0.35114962
55	0xbe00c345	-0.1257449
56	0xbd30438b	-0.043033164
57	0x3d8852b8	0.06656402
58	0xbe38f4a2	-0.1806207
59	0xbd28feb0	-0.041258514
60	0xbcfce630	-0.03087148
61	0xbe27a62f	-0.16371988
62	0x3d2ecf39	0.04267809
63	0x3c1cd146	0.009571379
64	0x3cfae7d3	0.03062812
65	0xbcf48fe7	-0.029853774
66	0x3e7bd949	0.24594606
67	0x3d9d34da	0.07676096
68	0x3d0a369f	0.033743497
69	0x3e271479	0.16316403
70	0x3e3e1416	0.1856235
71	0x3c7ed191	0.015552894
72	0xbc924669	-0.01785584
73	0x3bb59b3c	0.005542187
74	0xbd3f00a0	-0.046631455
75	0x3e0ea60a	0.13930526
76	0x3cd05961	0.025433244
77	0xbcbf61a4	-0.023361988
78	0xbea15ed0	-0.3151765
79	0xbdbd3285	-0.092381515
80	0x3d64c096	0.055847727
81	0x3d8e560e	0.069500074
82	0xbdc7ae74	-0.09750071
83	0xbdc4995a	-0.09599562
84	0xbe4ec7f0	-0.20193458
85	0xbde62341	-0.11237193
86	0xbd3c4f62	-0.045974143
87	0xbd8ecf2c	-0.06973109
88	0xbe87bc5b	-0.2651089
89	0x3d3c4680	0.04596567
90	0x3cf43b2b	0.02981337
91	0xbcde5f5f	-0.027145086
92	0x3e44d7e4	0.1922298
93	0x3d6b3686	0.057425044
94	0xbd3d656a	-0.046239294
95	0xbd65f918	-0.056145757
96	0x3dd17604	0.10227588
97	0xbd5939c7	-0.053033616
98	0xbdda5b22	-0.106619135
99	0x3c927add	0.017880851
100	0xbdc8413d	-0.09778068
101	0x3cb0eeb1	0.021598192
102	0xbda6e5e1	-0.08149315
103	0xbdd826f2	-0.10554303
104	0x3d339119	0.043839548
105	0xbe11133a	-0.1416749
106	0x3dbb2c5a	0.09139319
107	0x3b226918	0.002478188
108	0x3ce9f1ec	0.02855774
109	0x3d668af2	0.056284852
110	0x3d99e3f1	0.075141795
111	0xbce72ee0	-0.028220594
112	0x3d416127	0.047211792
113	0xbde84bde	-0.113425955
114	0x3c8b55a2	0.017008606
115	0xbeae518a	-0.34046584
116	0x3db3b075	0.08773891
117	0x3d4f9c30	0.05068606
118	0xbd3fe080	-0.04684496
119	0xbe93d039	-0.288698
120	0x3d3a6a36	0.045511447
121	0xbe6c256b	-0.23061149
122	0xbd745fb7	-0.059661593
123	0xbdf9a2b4	-0.12189236
124	0xbda801a4	-0.08203438
125	0xbcafd33f	-0.021463035
126	0xbd0e96a3	-0.034811627
127	0xbc3ef558	-0.011655174
128	0xbdac5907	-0.08415418
129	0x3db63a49	0.08897836
130	0x3d54cfc7	0.051955964
131	0xbdf9d710	-0.12199223
132	0xbc86da58	-0.016461536
133	0x3dae7245	0.08517889
134	0xbe77b52e	-0.24190208
135	0x3d04b300	0.03239727
136	0x3e30228d	0.1720068
137	0xbabbe372	-0.0014334752
138	0xbd1fb289	-0.038988624
139	0x3c91f890	0.01781872
140	0x3e04d7c0	0.12972927
141	0x3e0b127d	0.13581271
142	0x3e4157f7	0.18881212
143	0x3e5db814	0.21652251
144	0x3de38d98	0.11110991
145	0xbe244f7c	-0.16045946
146	0x3d2aaaad	0.041666675
147	0x3d83b5de	0.06431173
148	0xbcf381b6	-0.029724937
149	0xbdec7f32	-0.11547698
150	0x3e0306a7	0.12795506
151	0xbe8263ef	-0.25466868
152	0xbdb0c417	-0.08631151
153	0x3d3ea27a	0.04654167
154	0x3e4391a6	0.19098529
155	0x3c067fe9	0.008209207
156	0x3d8a664d	0.067577936
157	0x3d3eb041	0.046554808
158	0xbdf36e60	-0.11886287
159	0x3c26043b	0.010132845
160	0x3d18e1fb	0.037324887
161	0x3c6ccb3b	0.014452751
162	0xbe2f0303	-0.17090993
163	0xbc29589d	-0.010336068
164	0x3e167dc3	0.14696412
165	0xbd41350f	-0.04716974
166	0xbdeb97eb	-0.115035854
167	0xbdf5fc5c	-0.12011024
168	0xbe5d2353	-0.21595506
169	0x3c72ca5e	0.014818756
170	0xbdb3ece1	-0.087854154
171	0x3deb6d66	0.114954755
172	0x3ddcb7ed	0.107772686
173	0x3dd7f908	0.10545546
174	0xbe1ba22b	-0.15198581
175	0x3dd95204	0.10611346
176	0xbdfee2b1	-0.12445582
177	0x3cb432a4	0.021996804
178	0xbe085ef5	-0.13317473
179	0xbc9464eb	-0.018114528
180	0x3cc5a22a	0.024125177
181	0x3d95de3b	0.07317778
182	0xbcbfb0ae	-0.023399677
183	0x3ddf8697	0.10914343
184	0x3e06efe0	0.13177443
185	0xbe2c44da	-0.1682314
186	0x3e1338e3	0.1437717
187	0x3c1d6aaa	0.00960795
188	0x3e180620	0.14846087
189	0x3d9968df	0.07490706
190	0xbcec8fc6	-0.02887715
191	0xbaadf886	-0.0013272918
192	0x3e23de7f	0.16002844
193	0x3cf61c5a	0.030042816
194	0x3db03e12	0.08605589
195	0x3d728ced	0.05921643
196	0x3b8a880a	0.004227643
197	0xbdf397ce	-0.11894189
198	0x3d33ddd7	0.043912735
199	0x3e00150f	0.12508033
200	0xbdfec775	-0.12440387
201	0xbd6275d6	-0.05528816
202	0xbcae156c	-0.02125045
203	0x3da667fb	0.081253015
204	0x3d902cf7	0.07039826
205	0xbe08adfe	-0.13347623
206	0xbd99afda	-0.07504244
207	0xbd8b682b	-0.06806978
208	0xbd21eee9	-0.039534483
209	0xbd9d1eae	-0.07671867
210	0x3e123ca3	0.14280944
211	0x3d408b01	0.047007564
212	0x3c208348	0.009796925
213	0xbe004157	-0.12524925
214	0xbe80eb6e	-0.2517962
215	0x3d242c93	0.04008157
216	0xbdbdc1ee	-0.09265505
217	0x3dd54455	0.10413424
218	0xbdd7c297	-0.10535162
219	0x3ad3d731	0.0016162154
220	0x3c6b6ef4	0.014369715
221	0xbe15e0d5	-0.14636548
222	0x3dbb4f46	0.091459796
223	0xbdde1998	-0.10844725
224	0x3d8d3b39	0.068960615
225	0x3d577a34	0.052606776
226	0x3d81e73b	0.06342932
227	0xbd45d94e	-0.04830294
228	0x3c10c2a0	0.008835465
229	0xbd75e352	-0.060031243
230	0xbdbb2fe1	-0.091399916
231	0x3dbdf6ba	0.09275575
232	0x3dc7fb2e	0.097647056
233	0xbd9edb15	-0.0775663
234	0x3b7d685f	0.0038666946
235	0x3e1ff6f7	0.15621553
236	0xbc97acc4	-0.018514998
237	0x3e89e769	0.26934364
238	0xbe11e645	-0.14247997
239	0xbd5ef24c	-0.05443029
240	0x3d907816	0.070541546
241	0xbd0b5a04	-0.034021392
242	0x3e026c24	0.12736565
243	0x3e1dcdf8	0.15410602
244	0xbd23a441	-0.039951567
245	0x3c900482	0.017580274
246	0xbd751cbd	-0.05984186
247	0xbb49d5bf	-0.0030797569
248	0xbd994cb9	-0.07485337
249	0x3db8347b	0.08994385
250	0x3d8ec88e	0.069718465
251	0x3d935a0c	0.071949095
252	0xbd3bb576	-0.04582735
253	0xbd9bc9ff	-0.07606887
254	0x3cc74abd	0.02432763
255	0xbd3aeb92	-0.045634814

network_body._body_endoder.seq_layers.2.bias f4 [128]
0	0x396e3f8a	0.00022721119
1	0x3bc7cbb8	0.006097283
2	0xbd09a1de	-0.033601634
3	0xbaaf1572	-0.0013357832
4	0xbcb12ec2	-0.021628741
5	0x3ca2829a	0.019837666
6	0xbb56eeca	-0.0032796138
7	0xbc07a559	-0.008279168
8	0xbcacf5f1	-0.021113368
9	0xbc489587	-0.012242681
10	0xbdd66b07	-0.104696326
11	0xbcb484b9	-0.022035943
12	0xbdf12c4d	-0.11776028
13	0xbc0ad5d7	-0.008473835
14	0xbdbe2e9b	-0.09286233
15	0xbca4a41c	-0.020097785
16	0xbd4eb92e	-0.05046957
17	0x3d0399a6	0.032128952
18	0x3c0eff7e	0.008727906
19	0xbda03c22	-0.078239694
20	0xbc7a389d	-0.015272287
21	0x3ccca150	0.024979264
22	0xbd1a213b	-0.037629347
23	0xbb0f8f1d	-0.002190537
24	0xbcf8130f	-0.030282525
25	0x3c09fdd1	0.008422331
26	0x3a9f733c	0.001216508
27	0xbd3753f3	-0.044757795
28	0xbd7d38fa	-0.061821915
29	0xbb16e87b	-0.0023026753
30	0xbd594257	-0.053041782
31	0xbb1c79e2	-0.0023876359
32	0x3d7ea04d	0.062164593
33	0x3cc36ff5	0.023857096
34	0xbd6ff6a8	-0.05858484
35	0x3c9859af	0.018597452
36	0x3d1eca8e	0.03876739
37	0xbbf8d6e1	-0.007593975
38	0x3ce0a3bd	0.027421826
39	0xbdb79d8c	-0.089655966
40	0xbd9d0348	-0.076666415
41	0x3c366b50	0.011133984
42	0xb9982901	-0.0002902225
43	0x3cbe9b8f	0.023267535
44	0xbca98636	-0.02069388
45	0xbde2eba4	-0.11080101
46	0xbca817d6	-0.020519178
47	0x3d806794	0.06269756
48	0xbcfc2f23	-0.030784195
49	0xbbcb24a6	-0.006199437
50	0xbd74e773	-0.05979104
51	0xbd0de8c5	-0.034645814
52	0xbd653914	-0.055962637
53	0xbd8e1e82	-0.06939413
54	0x3a271b1a	0.0006374583
55	0xbc892ece	-0.016745951
56	0xbd4a725f	-0.04942548
57	0x3c144838	0.009050421
58	0xbbde3d32	-0.0067821974
59	0xbc812ef0	-0.015769452
60	0xbd8f443a	-0.06995435
61	0xbbdd700a	-0.006757741
62	0xbd947647	-0.07249122
63	0x3d16c655	0.036810238
64	0xbcf49221	-0.029854836
65	0xbd8de823	-0.06929042
66	0xbd17b161	-0.037034396
67	0xbcacf221	-0.02111155
68	0x3a902b37	0.0010999207
69	0x3b2458d1	0.0025077353
70	0x3c60e35e	0.013726084
71	0xbda85f6d	-0.08221326
72	0x3b7506c2	0.0037388061
73	0x3c137acc	0.009001445
74	0x3ae4fe8e	0.0017470883
75	0xbc5e8c9b	-0.013583328
76	0xbd81a0f0	-0.063295245
77	0x3c5630f7	0.013073198
78	0xbd04b37e	-0.03239774
79	0xbd2fcff8	-0.042922944
80	0xbd9c78b0	-0.07640207
81	0xbd8646e9	-0.06556494
82	0x3d29ed05	0.041485805
83	0x3bc2b1e1	0.005941615
84	0xbd41b27b	-0.047289353
85	0x3c9439ea	0.018094022
86	0x3b198ec3	0.002343104
87	0xbbaa0199	-0.0051881787
88	0xbc0b4bf7	-0.008501998
89	0xbcf1257d	-0.029436821
90	0xbd0aee1a	-0.033918478
91	0xbcdbf8d1	-0.026852043
92	0x3d2d94c7	0.042378213
93	0x3ca3f89d	0.020016009
94	0xbd6347a2	-0.055488236
95	0xbcfb77cb	-0.03069677
96	0xbd784fe9	-0.060623083
97	0x3d0c93d4	0.034320667
98	0xbc1146b6	-0.008866956
99	0xbd15d451	-0.036579434
100	0xbc13ec1c	-0.009028461
101	0xbd79ba0c	-0.060968444
102	0xbd9abd5c	-0.07555649
103	0xbd59a873	-0.05313916
104	0xbd078b41	-0.033091787
105	0x3c89a3bd	0.01680171
106	0xbd89546c	-0.06705555
107	0xbc7add5d	-0.015311566
108	0xbdeae5f9	-0.11469645
109	0xbcd417f6	-0.025890332
110	0x3cb10be3	0.021612113
111	0xbc9e0434	-0.019289114
112	0x3c736293	0.014855045
113	0xbd4b6948	-0.04966095
114	0x3cc49fbd	0.02400195
115	0xbd0c9bf4	-0.034328416
116	0xbd8250c7	-0.06363063
117	0x3d0e2a82	0.034708507
118	0x3c502ae4	0.012705538
119	0xbd9ec7d7	-0.0775296
120	0x3d921448	0.071327746
121	0xbb270bb7	-0.002548916
122	0x3cd83af0	0.026395291
123	0xbd8cb8e4	-0.068712026
124	0x3cbdb8eb	0.023159465
125	0xbd52a56a	-0.051427282
126	0xbce81032	-0.028328035
127	0x3b47acc6	0.0030467971

action_model._continuous_distribution.log_sigma f4 [1, 4]
0	0xbe84e943	-0.25959215
1	0xbe853096	-0.2601363
2	0xbf1a4ea6	-0.6027626
3	0xbe75d631	-0.24007489

action_model._continuous_distribution.mu.weight f4 [4, 128]
0	0xbd59f836	-0.053215228
1	0x3cbd8886	0.023136389
2	0x3d8d11b8	0.06888145
3	0x3d0c9fb7	0.034332003
4	0x3cdc8153	0.026917135
5	0xbdb71f49	-0.08941514
6	0xbd46f9c2	-0.04857803
7	0xbb6f3985	-0.003650279
8	0x3da5dcf0	0.08098781
9	0x3d9f2a72	0.07771768
10	0x3d447870	0.04796642
11	0xbde9a8a2	-0.11409117
12	0x3c98cb40	0.018651605
13	0xbd34cb6d	-0.044139314
14	0x3ddd85ad	0.10816512
15	0x3d46777f	0.048453804
16	0x3c3d6686	0.011560088
17	0xbd480d59	-0.048840854
18	0xbd90c7c1	-0.0706935
19	0x3db71fb4	0.08941594
20	0x3d80784d	0.062729456
21	0xbbd2b7a7	-0.0064305845
22	0x3cdeb57c	0.027186148
23	0x3bd158d2	0.006388762
24	0x3d2b7d83	0.041867744
25	0x3c6bbbea	0.014388064
26	0x3dbd5e17	0.09246462
27	0x3d06efc3	0.0329435
28	0x3cbe59fe	0.023236271
29	0x3d280a9e	0.04102575
30	0x3c2ff3f8	0.010739319
31	0x3be29fbc	0.0069160145
32	0xbdb1c111	-0.086794026
33	0xba1a26ad	-0.0005880397
34	0x3da2ccbc	0.07949206
35	0xbd10d668	-0.035360724
36	0xbd8bbba5	-0.068229
37	0x3c0a10c4	0.008426849
38	0x3c44d093	0.012012619
39	0x3d43dfba	0.047820784
40	0x3dfae7bd	0.12251232
41	0xbd1c2723	-0.03812326
42	0x3d03a1bb	0.03213666
43	0xbd2a5cac	-0.041592285
44	0x3d38f0a2	0.04515136
45	0x3dbce3a5	0.09223107
46	0x3cb00936	0.021488767
47	0xbdabf273	-0.08395853
48	0x3d1cb946	0.038262628
49	0x3d3ab982	0.04558707
50	0xbcf30afd	-0.029668326
51	0x3c8f7a45	0.017514357
52	0x3dd8f6dd	0.105939604
53	0x3ddef34f	0.10886251
54	0x3c324269	0.010880091
55	0x3c3881e9	0.011261442
56	0x3d2ea383	0.042636406
57	0xbd2758da	-0.04085622
58	0x3d974327	0.07385855
59	0x3c846928	0.016163424
60	0x3d138399	0.036014173
61	0xbd0de1b5	-0.03463908
62	0x3d1f714f	0.03892642
63	0x3ca52e73	0.02016375
64	0x3cbc8e40	0.023017049
65	0x3c9e4355	0.019319216
66	0x3d8529d3	0.06502118
67	0x3d11045b	0.035404544
68	0x3d4eda06	0.050500892
69	0x3dd6bdc9	0.104854174
70	0x3db2ebf2	0.08736409
71	0x3cc0c1b6	0.023529869
72	0x3c084d34	0.008319188
73	0x3a8eec2e	0.0010904127
74	0xbd2a5d17	-0.041592684
75	0xbc9959c7	-0.018719567
76	0x3c849621	0.016184868
77	0x3d07b893	0.033135008
78	0x3d1cf502	0.038319595
79	0xbc29b851	-0.010358886
80	0x3de5a92c	0.112139076
81	0x3d48865e	0.048956268
82	0xbe10bc84	-0.14134413
83	0xbd8f619b	-0.07001039
84	0xbb0692fa	-0.0020534382
85	0xbc8f49d4	-0.017491259
86	0x3cf6ccc3	0.030126935
87	0xbd344566	-0.044011496
88	0x3db09958	0.08622998
89	0x3d65be4a	0.056089677
90	0x3d5ad2d6	0.053423725
91	0x3d183dd4	0.03716834
92	0xbd8b8cc0	-0.06813955
93	0x3da39e4d	0.07989178
94	0x3b1c23db	0.0023825082
95	0x3c7ed6d5	0.01555415
96	0x39c8aac4	0.00038274203
97	0xbe09fe27	-0.13475858
98	0xbd053255	-0.032518703
99	0x3db85b3a	0.09001775
100	0x3d56304c	0.052292153
101	0x3e0b6354	0.1361211
102	0x3d3fb1b8	0.046800345
103	0x3d955172	0.07290925
104	0xbc13390e	-0.008985771
105	0xbd25a27e	-0.040438168
106	0x3dae82ad	0.08521018
107	0x3d8962b4	0.06708279
108	0x3d5f39f2	0.05449862
109	0x3daf109a	0.08548088
110	0x3d80bd52	0.0628611
111	0x3dc4577c	0.09586999
112	0x3ca3c1d2	0.019989882
113	0x3da1c285	0.0789843
114	0xbdb3fccc	-0.087884516
115	0x3d774a0f	0.060373362
116	0x3bf8fe1f	0.007598653
117	0x3c9c0457	0.019045038
118	0x3d292e4a	0.04130391
119	0x3d3ff23f	0.046861883
120	0xbe021753	-0.1270421
121	0xbaded1a5	-0.0016999735
122	0x3dfe5f7b	0.12420555
123	0x3d57caa6	0.052683495
124	0xbc0c0757	-0.008546672
125	0x3bf479e7	0.007460821
126	0x3dc11670	0.09428108
127	0x3d78aa22	0.060709126
128	0x3d5813e5	0.052753348
129	0xbd31a515	-0.043370325
130	0x3d2e8e3d	0.042616118
131	0xbcec90e8	-0.02887769
132	0x3d4f76f1	0.05065054
133	0xbc8f03aa	-0.017457802
134	0xbc1eba8c	-0.009688031
135	0xbd2d4ff9	-0.042312596
136	0xbd5fe7dd	-0.05466448
137	0xbd4a5a81	-0.049402718
138	0xbccfd842	-0.025371674
139	0xbb9ba930	-0.0047503933
140	0x3b8c0792	0.0042733634
141	0xbc54cb96	-0.012987992
142	0xbce16505	-0.02751399
143	0x3d84356a	0.064555004
144	0xbd56825e	-0.05237042
145	0x3d85dea7	0.06536608
146	0x3db186f8	0.08668321
147	0x3d2e30c7	0.042526986
148	0x3d6d4426	0.05792632
149	0x3d87f4e6	0.066385075
150	0xbd7bec0d	-0.061504412
151	0x3c309de9	0.010779836
152	0x3d34bf78	0.04412791
153	0xbc8b868f	-0.017031936
154	0x3d4d92ee	0.05018895
155	0xbb1b414d	-0.0023690045
156	0xbb847fc8	-0.004043553
157	0xbce4fccb	-0.027952572
158	0x3c94d40c	0.018167518
159	0x3ddd63da	0.10810061
160	0xbd38a818	-0.04508218
161	0xbd1798af	-0.037010845
162	0xbc9aeab0	-0.018910736
163	0x3d1c2418	0.03812036
164	0x3d9402b2	0.072270766
165	0xbdbbd86d	-0.09172139
166	0xbd3392fa	-0.04384134
167	0x3b95686d	0.0045595677
168	0x3d55a020	0.05215466
169	0xbd6e353e	-0.058156244
170	0x3d120259	0.03564677
171	0x3dca9dc6	0.09893374
172	0xbcd62de6	-0.026144933
173	0xbd0cf13c	-0.034409747
174	0x3da18d4d	0.07888279
175	0x3da3c9f9	0.079975076
176	0xbd07a180	-0.033113003
177	0xbd5a407d	-0.053284157
178	0x3b9b4642	0.0047386
179	0x3d5ff5e2	0.05467785
180	0x3d163419	0.036670778
181	0x3c9fea9c	0.01952105
182	0xbd564fc0	-0.05232215
183	0x3c8e46ac	0.017367683
184	0xbd0a9f22	-0.033843167
185	0xbd25df69	-0.040496264
186	0x3b9e9ea8	0.0048406906
187	0xbca1b27b	-0.019738426
188	0xbd0ed0da	-0.034867145
189	0x3baf0a28	0.005341787
190	0xbd3b00c0	-0.045655012
191	0x3d246f4e	0.04014521
192	0xbc8d3953	-0.017239248
193	0x3ce4d43d	0.027933234
194	0xbc895056	-0.01676194
195	0xbd8ef7cb	-0.069808565
196	0xbd3fd2fa	-0.046832062
197	0xbd26ed6b	-0.040753763
198	0xbcbd33f7	-0.023096068
199	0xbc1e248b	-0.009652267
200	0x3ccc8515	0.024965802
201	0x3d2a2263	0.0415367
202	0xbc27af57	-0.010234675
203	0x3d5b1cf5	0.053494412
204	0x3c00bfdd	0.007858244
205	0xbdf32a94	-0.118733555
206	0xbbb57242	-0.0055373022
207	0xbb66d1d8	-0.0035220291
208	0xbd24daf3	-0.04024787
209	0x3c4ae418	0.012383483
210	0x3d9599a8	0.07304698
211	0x3cc4b5a1	0.024012389
212	0x3dafd154	0.08584848
213	0xbd9f18c5	-0.07768396
214	0xbca186c0	-0.019717574
215	0xbcae448a	-0.021272916
216	0xbcb20b77	-0.021733982
217	0x3c8cbcd3	0.017179882
218	0xbd1c47a6	-0.038154267
219	0x3d04b61f	0.032400247
220	0xbcf26c3b	-0.029592624
221	0xbd7a9d32	-0.06118507
222	0xbd3ce546	-0.04611709
223	0xbc04f591	-0.008115188
224	0xbd63c31e	-0.055606
225	0x3bc0a0d4	0.005878547
226	0xbb35e4b6	-0.002775473
227	0xbdb09a2b	-0.08623155
228	0x3aa3f9fb	0.0012510413
229	0xbccb4576	-0.024813395
230	0x3c0a02a4	0.008423481
231	0x3b31fb62	0.0027157892
232	0xbb1e5bd6	-0.0024163625
233	0x3c441c21	0.011969597
234	0xbd1e26b0	-0.038611114
235	0xbc97ab94	-0.018514432
236	0x3b4401f0	0.0029908381
237	0x3d2185fb	0.039434414
238	0x3ca999da	0.020703245
239	0xbd5113a2	-0.051044114
240	0xbd1050ba	-0.035233237
241	0x3c8058ee	0.015667405
242	0x3c86907a	0.016426314
243	0x3d895dfc	0.06707379
244	0xbbe8a000	-0.0070991516
245	0xbc74dd4e	-0.014945341
246	0x3d889210	0.06668484
247	0xbbc79f7c	-0.00609201
248	0xbcfeef8a	-0.03112008
249	0x3d05c21f	0.03265583
250	0xbc011a9a	-0.007879877
251	0xbcdfc217	-0.027314229
252	0x3ba3c282	0.0049975524
253	0xbd48c273	-0.049013566
254	0x3b250f15	0.0025185992
255	0xbde8e9e2	-0.113727346

action_model._continuous_distribution.mu.bias f4 [4]
0	0xbdbe3000	-0.09286499
1	0x3d073050	0.03300506
2	0x3d14aa6f	0.03629535
3	0xbb33acbd	-0.0027416192

exp_avg f4 [128, 15]
0	0x3867d33e	5.5271426e-05
1	0x3a59d5ae	0.0008309734
2	0x3acc89ed	0.001560507
3	0x3acc255f	0.0015575102
4	0x38aa9282	8.133521e-05
5	0x3a8f2056	0.0010919671
6	0x3aa6e9e0	0.0012734495
7	0x3ab9dbfa	0.0014179938
8	0xb84c3040	-4.8682326e-05
9	0x399c7211	0.00029839625
10	0x3b0ffc2d	0.0021970377
11	0x3b0d6ffa	0.0021581636
12	0xbcb1251a	-0.021624137
13	0xbc870f72	-0.016486857
14	0xbc6e84b9	-0.014558011
15	0xb75383f8	-1.2607306e-05
16	0xba00c648	-0.00049123587
17	0xbb9b4f44	-0.004739674
18	0xbb9e4f86	-0.0048312573
19	0xb98a755e	-0.00026408857
20	0xbaeba529	-0.0017978299
21	0xbb50825d	-0.0031815984
22	0xbb6b2a5a	-0.0035883398
23	0xba9e03c1	-0.0012055562
24	0xbb7a6774	-0.0038208636
25	0xb963a48f	-0.0002170971
26	0xbabf6ad0	-0.0014603976
27	0xb9ee2e0b	-0.00045429202
28	0xbc2787e5	-0.010225271
29	0xbc9504f3	-0.018190837
30	0x383576a4	4.3264256e-05
31	0x38aa235f	8.11282e-05
32	0xb39f1121	-7.40713e-08
33	0x372958ce	1.0093861e-05
34	0x37bc6215	2.245702e-05
35	0xb8a80603	-8.011984e-05
36	0x393ed233	0.00018198117
37	0x39076ecf	0.00012915883
38	0xb8d835a5	-0.00010309675
39	0x39040ddd	0.00012593665
40	0x38d4d0db	0.0001014785
41	0x365d5582	3.2981338e-06
42	0xbb193421	-0.0023377019
43	0xbb0bfcd5	-0.0021360416
44	0xbb767dd8	-0.003761163
45	0xb773c99d	-1.453087e-05
46	0x3a8f52ab	0.0010934671
47	0x3ac94c5a	0.0015357838
48	0x3ad65810	0.0016353149
49	0x38e7fbdd	0.000110618515
50	0x3ace2a36	0.0015729133
51	0x3a741afe	0.00093118835
52	0x3aa6a9b5	0.0012715372
53	0x39bc4446	0.00035909022
54	0x37068b47	8.01945e-06
55	0x3b134ca4	0.0022476101
56	0x3b29f665	0.0025934216
57	0xbbbf9232	-0.0058462853
58	0xb95208ad	-0.00020030393
59	0x3ad918c0	0.0016563162
60	0xb903535d	-0.00012524189
61	0x3a375c4a	0.0006994648
62	0x3b873fcb	0.0041274778
63	0x3b852fad	0.0040645213
64	0x3a177483	0.00057775545
65	0x3a79f3ac	0.0009534906
66	0x3b4fc767	0.0031704546
67	0x3b7ef666	0.003890419
68	0x3acd5f9b	0.0015668751
69	0x3a263532	0.0006340324
70	0x3b23e458	0.002500793
71	0x3b85523d	0.0040686415
72	0x3b6972c4	0.0035621384
73	0x3c65cba7	0.014025605
74	0x3c853daa	0.016264755
75	0xb6635929	-3.3877534e-06
76	0x3a9ca520	0.0011951067
77	0x3add220f	0.0016871112
78	0x3ae54135	0.0017490747
79	0xb73bb622	-1.1188475e-05
80	0x3ada45c9	0.0016652878
81	0x3aa08727	0.001224731
82	0x3aae2593	0.0013286344
83	0xb87b24a9	-5.9877206e-05
84	0x3a00daf5	0.00049154396
85	0x3b206096	0.0024471632
86	0x3b1aaac4	0.002360032
87	0xbc78c430	-0.0151834935
88	0xbc388c7b	-0.011263962
89	0xbbdfceb3	-0.0068300604
90	0x390b8f04	0.0001330935
91	0x3664d978	3.410123e-06
92	0xbb112936	-0.0022149808
93	0xbb0f9ed5	-0.002191474
94	0xb9c892ee	-0.00038256444
95	0xba3fe2b1	-0.00073198514
96	0xba7cb014	-0.0009639275
97	0xbace31c8	-0.0015731389
98	0xba57e630	-0.00082359
99	0x3ac9c536	0.0015393856
100	0xbb37201d	-0.0027942725
101	0xbb6dc808	-0.0036282558
102	0xbbcc96ab	-0.006243547
103	0xbc1c26ba	-0.0095307175
104	0xbc436dbe	-0.01192802
105	0x398c4808	0.00026756548
106	0xbb28e0e5	-0.0025768813
107	0xbbb1affd	-0.0054225908
108	0xbbb69dac	-0.005572995
109	0xba375f05	-0.0006995055
110	0xbb122fa2	-0.0022306223
111	0xbb9d583d	-0.0048017786
112	0xbbc29aac	-0.0059388485
113	0xba172a8b	-0.0005766532
114	0x3afed9a4	0.0019443524
115	0xbc151684	-0.009099606
116	0xbc1e789f	-0.009672313
117	0x3a20dd61	0.00061365037
118	0xbc7c122e	-0.015385194
119	0xbcb28dc7	-0.02179612
120	0x385fc957	5.3354855e-05
121	0xbb1ebc75	-0.0024221216
122	0xbc084073	-0.008316147
123	0xbc076c3a	-0.008265549
124	0xba3babef	-0.0007159104
125	0xbba9ccfd	-0.005181907
126	0xbb9cdd11	-0.0047870954
127	0xbbc72583	-0.00607747
128	0xbab151e4	-0.0013528434
129	0xbb0267e4	-0.001989835
130	0xbbf09723	-0.0073422357
131	0xbc0e96ae	-0.008702917
132	0x3b343d4b	0.0027502354
133	0xbc93221c	-0.0179606
134	0xbd0380e8	-0.032105356
135	0xb5a5c609	-1.2351094e-06
136	0x39999d8c	0.00029299816
137	0x3a12ccb3	0.00055999606
138	0x3a2f3714	0.00066839275
139	0x37dd1701	2.6355965e-05
140	0x3a1a00fa	0.00058747793
141	0x39797b8e	0.00023792518
142	0x39ab4c2b	0.0003267241
143	0x39c97d50	0.00038431073
144	0x398f35a5	0.00027315054
145	0x394bbc6c	0.00019429781
146	0x3a239721	0.00062404765
147	0xbb0fbcac	-0.0021932526
148	0xba239604	-0.00062403106
149	0xb9d06e53	-0.0003975505
150	0x36f2ece9	7.239742e-06
151	0x39df4a65	0.00042589303
152	0x395a7363	0.00020833085
153	0x3995636d	0.00028493573
154	0x375d2bf7	1.3182863e-05
155	0x3a56141f	0.00081664504
156	0xb94583af	-0.0001883644
157	0xb863da35	-5.432424e-05
158	0xb985f51c	-0.00025550358
159	0x36bb8a80	5.589158e-06
160	0x3a69ab60	0.00089137815
161	0x3a2a25f3	0.000649064
162	0xbbf5149a	-0.0074792625
163	0xbbce4b78	-0.0062956177
164	0xbbb52310	-0.0055278614
165	0xb91a89cd	-0.00014737919
166	0xb8f9f634	-0.00011919104
167	0x3b9da183	0.0048105135
168	0x3b9c45bb	0.0047690547
169	0x3a6c16a8	0.00090060616
170	0x3a3f6e05	0.0007302466
171	0x3b3ee98c	0.0029130904
172	0x3b79ed68	0.003813589
173	0x3aacb74c	0.0013177185
174	0x3a407a76	0.0007342467
175	0x3b235074	0.002491978
176	0x3b7a228c	0.0038167564
177	0x3c28a75d	0.010293809
178	0x3ca63be5	0.020292232
179	0x3caa525e	0.020791229
180	0xb94690fd	-0.00018936764
181	0x39d9113b	0.00041402303
182	0xba80741b	-0.0009800227
183	0xba56c2c3	-0.0008192474
184	0x38b7c59f	8.76293e-05
185	0xbb07bf9a	-0.0020713569
186	0x3aa100f3	0.0012283608
187	0x3a95a753	0.0011417664
188	0x3902f6f0	0.00012489758
189	0xbb08a60e	-0.002085093
190	0x3a9deb54	0.0012048283
191	0x3aa492a2	0.0012555907
192	0x3bb62862	0.005559013
193	0x3b8ca319	0.0042919037
194	0xbb4ff459	-0.0031731336
195	0x393fa2b3	0.0001827579
196	0xbb166058	-0.002294561
197	0xbc5260e1	-0.012840481
198	0xbc53db60	-0.012930721
199	0xba64a2c2	-0.00087217626
200	0xbbafa180	-0.0053598285
201	0xbc0edf84	-0.008720282
202	0xbc29d49f	-0.010365634
203	0xbb35fc53	-0.0027768805
204	0xbb2d92e3	-0.0026485256
205	0xbc1c16a1	-0.0095268795
206	0xbc4b9497	-0.012425563
207	0xbb420c75	-0.0029609476
208	0xbcfb6688	-0.03068854
209	0xbd41c477	-0.047306504
210	0xb6098d28	-2.0496755e-06
211	0xb7b3611c	-2.1383683e-05
212	0xb8540834	-5.055238e-05
213	0xb7c9a7b5	-2.4039162e-05
214	0xb864c2a7	-5.454072e-05
215	0x39e16132	0.0004298776
216	0xb9eb9314	-0.00044932275
217	0xb9fe96c1	-0.00048558976
218	0xb9114bb2	-0.00013856476
219	0x399a98ff	0.0002948716
220	0xb9717aac	-0.0002302925
221	0xb9a4049e	-0.00031283958
222	0x3c859e34	0.016310789
223	0x3c63f513	0.013913411
224	0x3c9116db	0.017711094
225	0xb95f41d1	-0.00021291456
226	0x3aaa6a65	0.0013001679
227	0x3ba76280	0.0051081777
228	0x3ba4aeee	0.005025736
229	0x3a45eaba	0.00075499306
230	0x3ad8392c	0.0016496531
231	0x3b786ed2	0.003790785
232	0x3b9afcd3	0.004729846
233	0x3aad72e4	0.0013233093
234	0x3a9a3730	0.0011765715
235	0x3b72310d	0.0036955506
236	0x3ba55347	0.005045328
237	0x3b65fd45	0.0035093587
238	0x3c8a9575	0.01691697
239	0x3ca5f992	0.020260606
240	0xb9385209	-0.00017578168
241	0x3a0d593c	0.000539202
242	0xbb549b1f	-0.0032441092
243	0xbb672060	-0.00352671
244	0x39224bf6	0.00015477822
245	0xb9d811b7	-0.0004121193
246	0xbb2bec7b	-0.0026233483
247	0xbb23f9d0	-0.0025020726
248	0xba7e81a1	-0.0009708647
249	0xbb7c761b	-0.0038522545
250	0x3afe9928	0.0019424306
251	0x3a62714a	0.0008638097
252	0x39dbf9ae	0.0004195696
253	0xbb430c47	-0.0029761957
254	0xbc3b9b30	-0.011450574
255	0xb7c0919c	-2.2955988e-05

exp_avg_sq f4 [128, 15]
0	0x35f3cb1a	1.8164021e-06
1	0x36e7db4c	6.909866e-06
2	0x371f02a5	9.477754e-06
3	0x3733d2ca	1.071831e-05
4	0x359f90c1	1.1888552e-06
5	0x36bda146	5.6514136e-06
6	0x3742c6a4	1.1609551e-05
7	0x374e8164	1.2308683e-05
8	0x35e0b5fc	1.6742265e-06
9	0x36899896	4.1006815e-06
10	0x375748a6	1.2831913e-05
11	0x376424b6	1.3598406e-05
12	0x39e105b4	0.00042919593
13	0x3994043a	0.0002823191
14	0x39a5198b	0.00031490283
15	0x35430b8f	7.265998e-07
16	0x3764030f	1.3590571e-05
17	0x389b01ae	7.391289e-05
18	0x389cf187	7.483648e-05
19	0x35ca193d	1.5057518e-06
20	0x3717caa3	9.047481e-06
21	0x38a09999	7.658004e-05
22	0x38a37df5	7.795907e-05
23	0x35b3e5e8	1.3403451e-06
24	0x3863dcef	5.4326778e-05
25	0x380b2572	3.3175056e-05
26	0x38193017	3.652283e-05
27	0x3947214c	0.00018990523
28	0x3a08034d	0.000518848
29	0x3a199586	0.00058587675
30	0x356db415	8.8551434e-07
31	0x366aa378	3.4963869e-06
32	0x373304f4	1.0670385e-05
33	0x373d04a6	1.126636e-05
34	0x35a06b45	1.1952148e-06
35	0x35fceb4a	1.8843941e-06
36	0x374a3725	1.2052978e-05
37	0x3757c279	1.2860278e-05
38	0x358e8a52	1.0620081e-06
39	0x37031d53	7.815036e-06
40	0x36c17423	5.7653683e-06
41	0x36dd3ee5	6.593635e-06
42	0x399a4d7f	0.00029430908
43	0x393a8b44	0.00017790223
44	0x39627c78	0.00021599408
45	0x357cf527	9.423406e-07
46	0x3792bb4c	1.7491773e-05
47	0x378c12c5	1.669804e-05
48	0x3795cad3	1.7856632e-05
49	0x35700ceb	8.9425765e-07
50	0x3787c809	1.6186403e-05
51	0x379429d5	1.7662454e-05
52	0x379dc60e	1.8808085e-05
53	0x35d8f0f8	1.6163385e-06
54	0x37771170	1.4726407e-05
55	0x37a2e2df	1.941755e-05
56	0x37b03f26	2.101024e-05
57	0x39958271	0.0002851668
58	0x39838f06	0.00025092828
59	0x39991485	0.00029197722
60	0x352f7c67	6.537361e-07
61	0x3664f9d6	3.4120071e-06
62	0x383217f0	4.24608e-05
63	0x3835c9cf	4.334171e-05
64	0x353eae39	7.1034043e-07
65	0x36d6d9c4	6.4030482e-06
66	0x38288f27	4.0187642e-05
67	0x382b55af	4.0849376e-05
68	0x35a415d1	1.2225302e-06
69	0x3611f794	2.1750793e-06
70	0x383464c3	4.3009186e-05
71	0x383b393c	4.4637578e-05
72	0x3904fcee	0.00012682725
73	0x39f1f194	0.00046147092
74	0x39d3a3cc	0.00040367094
75	0x358a5c60	1.0308686e-06
76	0x375a9461	1.302836e-05
77	0x37a9a3b3	2.0222598e-05
78	0x37b12bd5	2.1120455e-05
79	0x3555d3e2	7.9657013e-07
80	0x37133b05	8.775624e-06
81	0x37ce9437	2.4626132e-05
82	0x37d53133	2.5414489e-05
83	0x35c07065	1.4337826e-06
84	0x376ff787	1.4303142e-05
85	0x37a1c451	1.9284113e-05
86	0x37aaeb99	2.0375288e-05
87	0x399e2a4c	0.00030167622
88	0x394d95f6	0.00019606188
89	0x3980795e	0.00024504488
90	0x35e82fec	1.7299294e-06
91	0x373bd0d9	1.1194695e-05
92	0x387724c7	5.892364e-05
93	0x387c12ec	6.0099104e-05
94	0x36083fb9	2.030267e-06
95	0x3807ab00	3.2345764e-05
96	0x3827b32b	3.9982766e-05
97	0x38329b27	4.2583004e-05
98	0x360d9305	2.1096214e-06
99	0x36e80657	6.914877e-06
100	0x3883081d	6.248078e-05
101	0x38873954	6.44798e-05
102	0x396a7721	0.00022360358
103	0x399435e5	0.00028268914
104	0x3a239673	0.0006240375
105	0x3603f749	1.966446e-06
106	0x384f5618	4.9432827e-05
107	0x393b0e37	0.00017839005
108	0x393f2724	0.0001822976
109	0x361f0a0e	2.36987e-06
110	0x388943de	6.54531e-05
111	0x39390035	0.00017643052
112	0x393c83dc	0.00017978199
113	0x366902d5	3.4721354e-06
114	0x37899d29	1.6404856e-05
115	0x3960efd4	0.00021451648
116	0x396497bd	0.00021800301
117	0x3a006594	0.0004897949
118	0x3a9ba12f	0.0011873598
119	0x3af46483	0.0018645677
120	0x361c0d9c	2.3253733e-06
121	0x387be970	6.006047e-05
122	0x3933113f	0.00017077195
123	0x3938a982	0.00017610754
124	0x363b8c19	2.794672e-06
125	0x38643070	5.4404547e-05
126	0x39423a44	0.00018522987
127	0x39459021	0.00018841076
128	0x36a5251d	4.9217037e-06
129	0x37eb9b6c	2.8086557e-05
130	0x395daa2f	0.000211396
131	0x396429f4	0.00021759403
132	0x39f248cc	0.00046212075
133	0x3ad61877	0.0016334195
134	0x3b114717	0.0022167617
135	0x35364ba5	6.791036e-07
136	0x370f0f3e	8.527013e-06
137	0x3672684b	3.6121517e-06
138	0x36952ea3	4.4459753e-06
139	0x34ccf917	3.8179198e-07
140	0x35df5682	1.6639972e-06
141	0x373378c0	1.0697346e-05
142	0x37390693	1.102839e-05
143	0x3511d828	5.433126e-07
144	0x36c8e684	5.9873e-06
145	0x36cf594a	6.1794753e-06
146	0x36e223eb	6.7395063e-06
147	0x38b2fa16	8.5342836e-05
148	0x3874f9af	5.840667e-05
149	0x388964df	6.551458e-05
150	0x34f18bcc	4.4991464e-07
151	0x36a79f34	4.9955215e-06
152	0x369fa8d2	4.7582225e-06
153	0x36ac8254	5.1411716e-06
154	0x350d8fbb	5.273575e-07
155	0x36fa36a9	7.456944e-06
156	0x36241003	2.4447224e-06
157	0x364a4a3d	3.0143558e-06
158	0x34f417bd	4.5465814e-07
159	0x35d3cb00	1.5779806e-06
160	0x370b4756	8.301655e-06
161	0x370e266f	8.472808e-06
162	0x39331b63	0.00017080973
163	0x38de52ff	0.00010601244
164	0x38ea457b	0.00011170931
165	0x35a2fede	1.2144117e-06
166	0x37005299	7.648626e-06
167	0x38d7a181	0.00010282081
168	0x38da8bdc	0.00010421101
169	0x3609ca60	2.0532389e-06
170	0x379d7fb3	1.8775323e-05
171	0x38bed714	9.0999674e-05
172	0x38c4029e	9.346496e-05
173	0x35dc8267	1.6429229e-06
174	0x368761a8	4.034682e-06
175	0x38dca2f4	0.0001052077
176	0x38deba5c	0.00010620497
177	0x3a122765	0.0005575328
178	0x3a83be97	0.0010051307
179	0x3a2d1fea	0.0006604182
180	0x3598c842	1.1383165e-06
181	0x37eb7168	2.8066992e-05
182	0x38194132	3.653876e-05
183	0x3820b670	3.831688e-05
184	0x35063d1c	5.0007816e-07
185	0x3715392b	8.8944025e-06
186	0x386f9580	5.7121273e-05
187	0x3872160d	5.7717833e-05
188	0x3551ccf2	7.81568e-07
189	0x378cedbe	1.6800008e-05
190	0x3848ab49	4.7843238e-05
191	0x384cda98	4.884097e-05
192	0x39550f6b	0.00020319007
193	0x3a313a14	0.00067606685
194	0x3a0d7020	0.0005395431
195	0x36a46368	4.8991533e-06
196	0x37fe3f42	3.0308616e-05
197	0x398e2588	0.00027112314
198	0x39916fbf	0.00027739813
199	0x369b61f5	4.6307637e-06
200	0x38c9acbf	9.616603e-05
201	0x39607c77	0.00021408671
202	0x39656233	0.00021875724
203	0x370b14ee	8.289919e-06
204	0x3880e1a4	6.1455445e-05
205	0x3972241c	0.0002309237
206	0x397fe617	0.0002440441
207	0x3a08d908	0.00052203285
208	0x3adf54a9	0.001703878
209	0x3b472659	0.0030387847
210	0x35e22140	1.6847989e-06
211	0x36b41ad0	5.3675394e-06
212	0x38448390	4.685257e-05
213	0x384a632d	4.8252918e-05
214	0x35a16856	1.20258e-06
215	0x36a4ab63	4.907533e-06
216	0x384b353b	4.8448546e-05
217	0x384e7d0d	4.923069e-05
218	0x35eb9844	1.755318e-06
219	0x37558fb3	1.2729247e-05
220	0x382572da	3.944603e-05
221	0x382a682b	4.0628172e-05
222	0x3a2609ef	0.00063338777
223	0x39cc038f	0.00038912563
224	0x39caf99d	0.0003871442
225	0x35a37d76	1.218096e-06
226	0x370cdb6d	8.395739e-06
227	0x386e905c	5.6878067e-05
228	0x387692f5	5.8787835e-05
229	0x359e51c1	1.1795711e-06
230	0x3740ac56	1.1484217e-05
231	0x386f7f94	5.7100857e-05
232	0x3873f787	5.8166243e-05
233	0x35831c67	9.768527e-07
234	0x36d185bd	6.2442546e-06
235	0x387d9820	6.0461578e-05
236	0x3882294f	6.2065774e-05
237	0x39410162	0.0001840643
238	0x3a301196	0.00067164877
239	0x3a0ddb76	0.00054114254
240	0x361b0b10	2.310324e-06
241	0x37343ee7	1.0743482e-05
242	0x38e9dac0	0.00011151051
243	0x38f0981a	0.00011472423
244	0x36472631	2.967554e-06
245	0x36f53d63	7.3087153e-06
246	0x38f55eae	0.00011700146
247	0x38fad13f	0.00011959904
248	0x3618058c	2.2652994e-06
249	0x3851c8e1	5.0016566e-05
250	0x389b4bbb	7.405082e-05
251	0x38a51a79	7.872744e-05
252	0x398eec71	0.00027260513
253	0x3a2cda9a	0.00065938535
254	0x3a9b2a40	0.0011838153
255	0x3500efeb	4.803284e-07

exp_avg f4 [128]
0	0x3b2059ad	0.0024467513
1	0xbbabd1cf	-0.005243517
2	0x39025b78	0.00012431841
3	0x3b2b5bba	0.0026147203
4	0x3b9a10b9	0.0047017005
5	0x3b3caac2	0.0028788303
6	0xbb083711	-0.0020784775
7	0xbbfd5bef	-0.0077319066
8	0xbc2f0fc6	-0.010684913
9	0x3a5f4896	0.0008517591
10	0x3a2827e6	0.0006414637
11	0x3b94e55c	0.0045439433
12	0xba4603d1	-0.0007553669
13	0xbc74fa6e	-0.014952285
14	0xb89b28b4	-7.3985575e-05
15	0x3bcb030a	0.0061954306
16	0xbb3cc9f0	-0.0028806888
17	0x3acbc116	0.0015545215
18	0xb9c24022	-0.00037050346
19	0xbb3862fd	-0.0028135173
20	0x3b4b46c6	0.0031017526
21	0x3b8400a5	0.004028397
22	0x39a7a6c0	0.0003197696
23	0x3a118d43	0.00055523607
24	0xbbb19600	-0.0054194927
25	0xbb209fa9	-0.0024509227
26	0x3ae6eaa6	0.0017617538
27	0xbaab9d72	-0.0013093187
28	0x3b9f809e	0.0048676273
29	0x3b6ed2ce	0.0036441567
30	0x3a2d52a5	0.0006611741
31	0x3a6024e1	0.0008550417
32	0x3b85105f	0.0040607895
33	0xba9ab5ea	-0.0011803482
34	0x3b159599	0.0022824763
35	0xbbdcb671	-0.006735616
36	0x3c15c8d8	0.009142123
37	0x391c9b65	0.00014935208
38	0x3bf9947b	0.007616577
39	0xbbeaa425	-0.007160681
40	0x3bc36246	0.005962643
41	0xba3fc9c9	-0.000731614
42	0xbbf5aa4f	-0.007497109
43	0xbb536aec	-0.0032259775
44	0xbb86bc9c	-0.0041118395
45	0x3a89b60d	0.0010506526
46	0x38e3e7ac	0.00010867356
47	0x3b075aa4	0.0020653391
48	0x3ab5852a	0.001384889
49	0x3a78f726	0.0009497277
50	0x3b83e46b	0.0040250323
51	0xb8b089df	-8.4180145e-05
52	0xba5ed897	-0.00085009023
53	0x3bd1886f	0.006394438
54	0xbb873f32	-0.0041274065
55	0x3acf261b	0.0015804203
56	0xbc1df6cb	-0.00964136
57	0x3ab0e6d6	0.0013496529
58	0x3aaf754b	0.0013386396
59	0x3c1a23d0	0.009407952
60	0x3abe4ffd	0.0014519688
61	0xbb7b0640	-0.0038303286
62	0xbc1e1c50	-0.009650305
63	0x3b48c362	0.0030634035
64	0x3be3c32f	0.006950758
65	0xbbef3b6f	-0.007300786
66	0xb964e524	-0.00021829136
67	0xbb3f0f3f	-0.0029153374
68	0x3998049d	0.00028995136
69	0x3b244503	0.0025065548
70	0x3b1901cb	0.0023347016
71	0xbc1cee38	-0.00957828
72	0xbb7819d6	-0.0037857196
73	0x3a9b4ea7	0.0011849002
74	0xbc0805dd	-0.008302179
75	0x39ba1d16	0.00035498355
76	0xba1ca1ae	-0.000597502
77	0x3aa16ea5	0.00123163
78	0xba6ca220	-0.0009026844
79	0xba61370c	-0.00085912715
80	0x3bc33df7	0.0059583145
81	0x3b901aad	0.0043977113
82	0xba2502fa	-0.0006294694
83	0xbba39a47	-0.0049927565
84	0xbb0eb817	-0.0021777207
85	0x3a8ffe39	0.0010985798
86	0x38bd4391	9.0248075e-05
87	0xbbafa404	-0.0053601284
88	0x3ad57441	0.0016285257
89	0x3ac9fdc2	0.0015410709
90	0xbc792575	-0.015206684
91	0xba0d77f5	-0.0005396598
92	0xb88d4fec	-6.7382905e-05
93	0x3be836f1	0.0070866277
94	0xb9be4e1d	-0.00036297823
95	0x3b13b727	0.0022539587
96	0xba419dc2	-0.00073858735
97	0xbc0da7c8	-0.008645959
98	0x3a777547	0.0009439778
99	0x3a94aed2	0.0011343604
100	0x3b517910	0.0031963028
101	0x3abbbf84	0.0014324044
102	0xba72c007	-0.00092601817
103	0x3ab031f4	0.0013442622
104	0x3a823150	0.0009932909
105	0x3b575124	0.003285476
106	0xbb29a70b	-0.002588692
107	0x3b055c55	0.0020349224
108	0x3ae0d593	0.0017153494
109	0xbbf295b4	-0.0074031
110	0x3a677120	0.00088288076
111	0x3b28983f	0.0025725511
112	0xbbf4ba1e	-0.007468476
113	0x3abf9546	0.001461663
114	0xba8469f7	-0.0010102381
115	0xbc2987af	-0.010347291
116	0x38981c08	7.253146e-05
117	0x3ac7150c	0.0015188768
118	0x3adeb1ec	0.0016990281
119	0x3b0b3ad7	0.0021244788
120	0xbb593b05	-0.003314675
121	0xbb1efbff	-0.0024259088
122	0x39bd982b	0.00036162263
123	0x3a2b1ffc	0.00065278984
124	0x3b95a4dc	0.004566772
125	0x3a79b11a	0.00095249864
126	0xba879136	-0.0010342959
127	0x3b3f3a47	0.0029179023

exp_avg_sq f4 [128]
0	0x379b23cd	1.8494111e-05
1	0x38b6cb79	8.716336e-05
2	0x377e57be	1.5160009e-05
3	0x38154399	3.5587324e-05
4	0x384542f6	4.7030822e-05
5	0x380fd5f2	3.429311e-05
6	0x38960c31	7.154828e-05
7	0x39785121	0.00023681346
8	0x398068c3	0.00024492116
9	0x3756dd5f	1.2806936e-05
10	0x37333e5c	1.0683751e-05
11	0x38e86b0c	0.00011082561
12	0x388a21c4	6.586642e-05
13	0x39a16679	0.0003078466
14	0x38629e36	5.4029944e-05
15	0x3891bbf2	6.949146e-05
16	0x39054cd8	0.00012712495
17	0x377fc8f5	1.5245973e-05
18	0x378d1c56	1.6821705e-05
19	0x3782ce61	1.559331e-05
20	0x37c75fa6	2.3767188e-05
21	0x37f6e70b	2.9433073e-05
22	0x3815984d	3.566621e-05
23	0x36cdda38	6.13488e-06
24	0x38c51f9c	9.39958e-05
25	0x37c84f1a	2.3878692e-05
26	0x38bafbc4	8.916066e-05
27	0x37fc83d5	3.010213e-05
28	0x38cd24d1	9.782019e-05
29	0x385e461f	5.299423e-05
30	0x3784c519	1.5827407e-05
31	0x386e489c	5.6811245e-05
32	0x3816baaf	3.593665e-05
33	0x38c83b87	9.547831e-05
34	0x37d4103e	2.5279933e-05
35	0x38a0bfa5	7.665091e-05
36	0x38d6b627	0.00010238244
37	0x36bb7ba1	5.5874266e-06
38	0x3932347c	0.00016994955
39	0x39247b3b	0.00015686166
40	0x3936b6d8	0.00017424987
41	0x390b0c90	0.00013260753
42	0x392e0686	0.00016596363
43	0x38034c4e	3.1303898e-05
44	0x37fe3f50	3.0308642e-05
45	0x37e90680	2.7778791e-05
46	0x38626c16	5.398326e-05
47	0x381bb0f6	3.7119687e-05
48	0x38029bdd	3.1139574e-05
49	0x3705ecf4	7.982588e-06
50	0x3834dbfc	4.312022e-05
51	0x379dd932	1.8816998e-05
52	0x386eb493	5.6911795e-05
53	0x38f0b5c5	0.00011477949
54	0x38c259d4	9.267373e-05
55	0x37d443b5	2.5303898e-05
56	0x391fc7c3	0.00015237839
57	0x38598c01	5.186722e-05
58	0x375bcfc1	1.3101789e-05
59	0x39a2737b	0.00030985088
60	0x3785b0b3	1.5937117e-05
61	0x386f92ec	5.7118872e-05
62	0x39aec51c	0.00033334724
63	0x37a3c7e2	1.9524192e-05
64	0x39628a56	0.00021604574
65	0x39214586	0.00015380056
66	0x375413ed	1.2640824e-05
67	0x37c43a2f	2.3392115e-05
68	0x372ea6c6	1.0410038e-05
69	0x37d905b4	2.5871072e-05
70	0x3886e2ae	6.43184e-05
71	0x3901b777	0.00012370745
72	0x39581711	0.00020607958
73	0x38753d4b	5.8469635e-05
74	0x390acbcc	0.00013236626
75	0x377bcb4d	1.50081005e-05
76	0x37728f81	1.4457736e-05
77	0x3731e68e	1.0603702e-05
78	0x38b00dc1	8.394896e-05
79	0x373caaf4	1.1245476e-05
80	0x38978815	7.225588e-05
81	0x38cc0369	9.728113e-05
82	0x37c1fcfc	2.3125198e-05
83	0x38ba2012	8.875145e-05
84	0x3735188b	1.0794155e-05
85	0x378a391d	1.6477477e-05
86	0x3936321c	0.0001737554
87	0x38464687	4.7272562e-05
88	0x37880a0f	1.6217147e-05
89	0x38583962	5.1551855e-05
90	0x39e2e20d	0.000432745
91	0x37fe6b3d	3.0329096e-05
92	0x3638f5f4	2.75613e-06
93	0x393b7d61	0.00017880417
94	0x3857a2a4	5.1411465e-05
95	0x381b1655	3.6975678e-05
96	0x37c7e034	2.3827051e-05
97	0x393d0e99	0.00018029883
98	0x37f06a6e	2.865979e-05
99	0x369060aa	4.3027876e-06
100	0x38c9b04e	9.617266e-05
101	0x37b445b1	2.1490125e-05
102	0x36f6888f	7.347269e-06
103	0x37d12e73	2.4936371e-05
104	0x37911e5d	1.7299486e-05
105	0x38ca1e36	9.637738e-05
106	0x38c1ac27	9.235023e-05
107	0x390cd027	0.00013428983
108	0x38584de9	5.1570973e-05
109	0x3891cbe7	6.9521186e-05
110	0x37284976	1.0030684e-05
111	0x3912110c	0.00013929995
112	0x3959fe4a	0.00020789463
113	0x3707d29e	8.095665e-06
114	0x369e03d9	4.709215e-06
115	0x391930b7	0.00014609365
116	0x388a6421	6.599003e-05
117	0x37609570	1.3386234e-05
118	0x39186b18	0.00014535745
119	0x3799f893	1.8354773e-05
120	0x3864f9d6	5.4592114e-05
121	0x37810597	1.5380601e-05
122	0x37691a91	1.3894068e-05
123	0x373952f5	1.1046174e-05
124	0x390f2082	0.00013649653
125	0x375037e7	1.2410782e-05
126	0x370968a4	8.1902e-06
127	0x37aebfdf	2.0831763e-05
