results/RedCells3/RedCellBehaviour.onnx (onnx, 87296 bytes, 7 tensors)

network_body._body_endoder.seq_layers.0.weight f4 [128, 31]
000000 99 aa 8f bd f5 b4 4a 3e bb a3 5d bd 7d 40 14 3e
       -0.07014961 0.19795592 -0.054111224 0.14477725
000010 e9 0e 13 3e f0 14 b0 bd 92 5f 34 be 2d 65 04 be
       0.14361157 -0.085977435 -0.17614582 -0.1292922
000020 e3 75 e6 3b 5d e6 02 bf 77 1c 0e 3f 15 ee 00 bd
       0.007033096 -0.51132756 0.55512184 -0.031477053
000030 18 cf 9f be f9 ec 87 bd 24 59 a4 bb 15 ef 74 be
       -0.31212687 -0.06636996 -0.005015509 -0.23919328
000040 79 dc 9b bc ad eb 5f be d8 39 75 3d f3 f9 bc 3d
       -0.019026028 -0.21867247 0.059869617 0.092273615
000050 0c b3 ed bd b9 7e 37 3e e5 6c 95 bc 64 13 d5 be
       -0.11606416 0.17919435 -0.018240402 -0.41616356
000060 19 db 59 3d b9 55 07 3e 3c 42 06 3e de 47 ce 3e
       0.053187463 0.13216294 0.13111204 0.40289205
000070 1c 58 cd 3c a6 72 78 be fd 52 8c 3b c3 60 1d be
       0.025066428 -0.24262485 0.004282354 -0.15368943
000080 1d 61 26 be 6a b8 28 3e a5 67 b8 3d 42 07 89 bd
       -0.16247983 0.16476598 0.090041436 -0.066908374
000090 56 20 58 bd 3b a6 0d be a7 67 c7 3e a7 a6 d7 3d
       -0.052765213 -0.13832943 0.38946268 0.10529833
0000a0 db 24 93 3e 7d 75 63 be 33 34 4d be c3 c4 6c bd
       0.28739056 -0.22212787 -0.20039444 -0.057804834
0000b0 32 cf df 3e 5d 77 f6 bb 3d 34 52 be 7c 19 9b be
       0.43712765 -0.0075215534 -0.2052774 -0.3029288
0000c0 03 91 b8 3c ed c5 1f 3e ce df 29 be d8 9c c7 be
       0.022530084 0.15602846 -0.16589281 -0.3898685
0000d0 14 95 f2 bd f2 39 c9 3c 75 e8 c8 3d 87 c6 f1 be
       -0.11844841 0.024563763 0.09809963 -0.47221777
0000e0 b0 8e 51 bd 24 8c 36 be 6f 39 02 3e 3f 82 b6 bc
       -0.051161468 -0.17826897 0.12717222 -0.022278903
0000f0 0e 9e d5 3d 83 0b d9 bc ad fd 69 be 77 8b 1e 3e
       0.10430537 -0.026494747 -0.22850676 0.15482889
000100 af d8 b6 3e 6d 40 4e 3e 61 c9 32 be 80 59 ae 3b
       0.3571219 0.20141764 -0.17459632 0.005320728
000110 9c d0 34 3e 36 1f 35 be 9e e9 97 bd e3 a8 8c 3e
       0.17657703 -0.17687687 -0.07417606 0.274726
000120 b8 13 d1 3d 18 d0 81 be 29 62 19 bd 71 01 e5 bd
       0.10208839 -0.25354075 -0.03744713 -0.111819156
000130 a9 2d c0 3c c1 98 28 bd 14 3d 2c 3e 08 d1 f4 bd
       0.023459272 -0.041161302 0.16820174 -0.11953932
000140 32 69 4a be 38 62 ab 3e cc 18 44 be e7 65 3f be
       -0.19766691 0.33473372 -0.19150084 -0.18691216
000150 8b 10 9f 3e d7 be 60 3e ee 71 78 be 86 fa 19 3c
       0.3106731 0.219478 -0.2426221 0.009398108
000160 2e da ea be cf 7d 9e be 18 0b ce bb 06 a8 3f bd
       -0.45869583 -0.3095536 -0.0062879436 -0.0467911
000170 dc 20 2f 3e 47 d1 ec 3d 99 89 e7 bd 7e 69 71 bd
       0.17102379 0.11563354 -0.113055415 -0.058938496
000180 67 26 84 be 94 e0 62 bd d0 ef 45 bd 47 c2 0c 3e
       -0.2581055 -0.055389956 -0.048324406 0.13745986
000190 14 c0 97 be 7d 7c 26 3e c3 e3 82 3e a7 6f 4b bf
       -0.2963873 0.16258426 0.25564393 -0.7946724
0001a0 36 72 39 3e bc df 73 3e 32 6f d6 3e 2d 81 b7 be
       0.18109974 0.23815817 0.4188171 -0.3584074
0001b0 0b 39 d5 be 9e 47 08 3e c4 2c d4 be 8a b7 18 3c
       -0.41645083 0.1330857 -0.41440403 0.009321103
0001c0 27 2e c4 3e 6c 0c 5c be 99 de d3 3b b5 19 0d bf
       0.3831646 -0.21489114 0.0064657447 -0.5511735
0001d0 4b d2 b1 be ca a6 90 bd 49 8b 37 be f9 27 55 be
       -0.34730753 -0.070630625 -0.17924227 -0.2081603
0001e0 da f4 37 be 55 00 b1 be 85 25 0c bc 09 28 e8 bc
       -0.17964497 -0.34570566 -0.008553867 -0.028339403
0001f0 b3 1b d0 3e a2 7e de 3d 4e 58 07 be 8f 09 e5 bd
       0.40646133 0.10863997 -0.1321728 -0.11183464
000200 98 41 37 3e d2 ad 74 3d e2 cd 01 3e fb fa 98 bd
       0.17896116 0.05973608 0.12676194 -0.07469746
000210 55 c5 96 3e 3c 00 4a 3e 01 6b 00 bf e7 52 25 3e
       0.29447427 0.19726652 -0.50163275 0.16144906
000220 08 20 a8 3d bf 32 c2 bc c1 16 45 3e f1 ac a5 3b
       0.082092345 -0.023705838 0.19246961 0.0050560166
000230 3d 1f 81 3e e1 ce f5 3d ac 8e 63 3e 6a 53 8d 3a
       0.25219145 0.1200235 0.22222394 0.0010782306
000240 41 fe 5f bc f9 d0 f2 3a b1 04 fa bc d1 a8 41 3e
       -0.013671459 0.0018525413 -0.030519815 0.18912055
000250 e1 3d bf 3e 8d 58 b8 be 1f 6b cc be 90 bf 93 3d
       0.37351897 -0.3600506 -0.39925477 0.07214272
000260 a0 26 20 3e fa 15 bf 3d f9 7f 19 be ea 05 55 bd
       0.15639734 0.093303636 -0.14990224 -0.052007593
000270 d7 ed 2b bd 58 c0 52 be 74 8e b3 3d be 97 cc be
       -0.04197487 -0.20581186 0.08767405 -0.3995952
000280 9f 90 fb 3d f2 c8 8e 3e 2b a2 f7 bb cc f5 03 be
       0.12283444 0.27887684 -0.0075571737 -0.12886733
000290 42 5c 91 bb 06 49 42 bd 26 9e 96 be a6 44 cf be
       -0.004436047 -0.04743292 -0.29417533 -0.40482062
0002a0 86 a7 15 bf f7 96 42 3c 92 2f a1 bc 81 fe 10 be
       -0.58458745 0.011876813 -0.019676004 -0.14159586
0002b0 93 b1 33 3e 00 4d ee bd 6c c9 7f be 58 9e a7 bc
       0.17548208 -0.1163578 -0.2497918 -0.020461246
0002c0 c3 44 48 bd bd bf 20 3e 6d dc 67 3e 75 1f bd bd
       -0.0488937 0.15698142 0.2264268 -0.092345156
0002d0 24 f6 c6 3e 77 34 2f be f1 7e 5e 3e 8a 6a ac bd
       0.38859665 -0.17109857 0.21728112 -0.08418758
0002e0 dd 0b d7 3d df 01 e2 bd e5 47 30 3d 62 e0 b6 be
       0.105003096 -0.11035513 0.043037314 -0.35718066
0002f0 6a 04 90 3d 8d ae a2 3e 04 c4 ce 3e c4 0b e5 bd
       0.07032092 0.31773797 0.40383923 -0.11183885
000300 63 13 8a 3d 72 66 7f bd 00 6e ab 3d 90 73 78 bd
       0.06741979 -0.06235356 0.0837059 -0.060657084
000310 ae a0 85 be df 5a 5c be 55 dc 01 3f 4d 09 e9 bc
       -0.2609915 -0.2151904 0.50726825 -0.028446818
000320 c2 59 94 be dc c5 50 3e 0b 57 8a 3d 14 5b 88 3e
       -0.2897473 0.20387977 0.067548834 0.26631987
000330 f5 7a 13 3e e8 86 11 3e cc 9e 6d 3e cc 44 cb bd
       0.14402373 0.14211619 0.23205107 -0.09925231
000340 a7 24 50 be 8c fd 93 be 75 e4 d3 be 99 63 b6 be
       -0.20326482 -0.28904378 -0.41385236 -0.35622862
000350 52 13 d6 bd 3d 47 b5 bd 5a 1b bb 3d 5a de 13 be
       -0.10452904 -0.08851478 0.09136076 -0.14440289
000360 4d 19 99 3e dd 72 52 3e 1d dc 40 bd 72 ae 1b be
       0.29902115 0.2055163 -0.047084916 -0.15203264
000370 2f 40 d8 bd b9 ca 46 be 7f 6e c7 bd f3 ab 9f bd
       -0.10559117 -0.1941327 -0.09737872 -0.077964686
000380 c4 c6 92 be ea cd 36 bd 92 78 db be a3 ef 4a be
       -0.2866727 -0.04462997 -0.42865425 -0.19817977
000390 e8 95 75 be c3 ba 9a bd 63 bd 48 3e e0 da 8f be
       -0.23982966 -0.07555153 0.19603495 -0.28096676
0003a0 f3 58 dc 3c f7 bb 98 bd a5 da ba 3d 9e 61 dd bd
       0.026897883 -0.074577264 0.091237344 -0.108096346
0003b0 9b 71 29 3e 0c af fe bd 4d 33 71 be ac 19 23 3e
       0.16547243 -0.12435731 -0.23554726 0.15927762
0003c0 8a b5 8d be f0 a9 22 bd e5 1e 2d be 48 76 ee 3d
       -0.27677566 -0.039712846 -0.16906317 0.11643654
0003d0 49 45 9d be 50 c8 02 3e ca 50 f5 3d 1d 4b 90 be
       -0.30716923 0.12771726 0.119783 -0.28182307
0003e0 2b 1c d5 be c3 62 f6 bc e1 f4 e8 3d e6 ee e5 bd
       -0.41623053 -0.03007639 0.11374832 -0.11227207
0003f0 9e c1 47 be 42 3d 5c be 5e f9 ae be d4 58 b1 3c
       -0.19507453 -0.21507743 -0.34174627 0.021648802

network_body._body_endoder.seq_layers.0.bias f4 [128]
000000 d3 c2 a2 3c c5 06 a9 bd 89 de 97 bc 24 88 25 3d
       0.01986829 -0.08253244 -0.01853873 0.040413037
000010 fe a0 89 3d fb b7 1d 3d 07 aa bf 3c 29 0a 99 bd
       0.0672016 0.038505536 0.023396505 -0.07472641
000020 a7 6c 44 bd bb 48 98 bd b4 be 82 3c 56 1a 79 bd
       -0.04795518 -0.07435747 0.015960075 -0.06081613
000030 4c ef 90 3c 1b a5 26 3c 86 a6 86 3c b8 44 8e bd
       0.01769223 0.0101712 0.016436826 -0.06946701
000040 43 3f 9d 3b 2c e0 a3 bc 56 7c 3e bd 04 be cd bc
       0.004798801 -0.020004354 -0.046505295 -0.02511502
000050 7a 26 fb 3c ab 4f 63 bc c6 a8 b4 bc cf 85 c7 bc
       0.030657995 -0.013873975 -0.022053134 -0.024355797
000060 19 e0 5d bd 19 f4 29 bd 9f 66 15 bc 12 be 93 bc
       -0.054168794 -0.041492555 -0.009118705 -0.018034969
000070 62 b9 83 bd 62 5e c5 bb d3 75 b0 bd ba 4f 70 3c
       -0.06431843 -0.006023214 -0.08616223 0.014667446
000080 c4 da dd 3c ab 87 3c bd 11 5e 6e bd 19 45 15 3c
       0.027081855 -0.04602782 -0.058195177 0.009110712
000090 85 f4 15 bd 4e 24 26 bc fe 24 51 b9 0f 6c 91 3a
       -0.036610145 -0.010140492 -0.00019945574 0.0011094826
0000a0 9a 0e bd 3c c9 f2 cf bb 3f 99 18 3c 94 15 77 bc
       0.023078252 -0.006346081 0.0093138805 -0.015080828
0000b0 f1 db 8f 3b 73 8b 88 bd 08 a4 17 bd d8 03 a2 3c
       0.0043902327 -0.06667223 -0.037021667 0.019777223
0000c0 0c 6f 2d bd dd fd 65 bd eb 43 c8 bd e4 c0 39 3b
       -0.04234223 -0.056150306 -0.09778579 0.0028343732
0000d0 9f 50 6a bd aa 81 11 3d 8b d5 3a bd ce 65 c8 3c
       -0.057205793 0.035524048 -0.045613807 0.024462607
0000e0 73 74 18 bd 2a 0c ab 3d 47 68 2f 3b 6a 4f 28 3d
       -0.03722043 0.083519295 0.0026765035 0.04109136
0000f0 22 ef 25 bd f6 9b 4b bd eb 4f 6a 3b b7 e3 18 3d
       -0.040511258 -0.049709283 0.0035753201 0.03732654
000100 d9 9e 27 bd 34 b6 a3 bc 43 f6 12 bd 27 0b 77 bd
       -0.040922973 -0.019984342 -0.035879385 -0.06031337
000110 a0 a7 f6 bc 89 7e d1 bb 7e 08 1b 3d 58 27 16 bd
       -0.030109227 -0.006393258 0.037849896 -0.036658615
000120 16 30 fe bc 9d 11 ec bc a3 e4 a7 3a a3 a1 28 bd
       -0.031028789 -0.028816992 0.0012809228 -0.041169774
000130 a3 a5 44 3c a3 c6 33 bc 4f d4 1a bd 71 ff 31 bd
       0.0120023815 -0.010972652 -0.03780013 -0.0434565
000140 2e ae 3f bc 3d 98 48 bc 2b 95 15 bd 26 f4 0a 3d
       -0.0116992425 -0.012243328 -0.03651921 0.033924244
000150 49 b1 02 bd 10 50 43 bd b2 95 4f 3b 26 75 1a 3c
       -0.031907354 -0.047683775 0.0031674919 0.009427344
000160 1a 9d cb 3b 00 1d 13 bc 76 57 86 3d 43 1b 1f 3c
       0.0062137963 -0.008979082 0.065596506 0.00971109
000170 2a c3 ed 3c 4b 08 bb 3b 12 4e ab bb c3 b8 8a bd
       0.029023726 0.0057077757 -0.0052278126 -0.06773522
000180 e5 48 59 3d d4 7f d9 ba d0 24 92 3c da eb 10 bc
       0.053048033 -0.0016593882 0.01783982 -0.008845294
000190 c8 1d e1 3b 4f 94 16 bc 35 15 da bb 76 c3 b9 bd
       0.0068700053 -0.009190633 -0.00665536 -0.09070484
0001a0 71 56 6c 3c a5 33 dc bd 41 f9 73 3b d5 98 8f bd
       0.014424906 -0.10752038 0.0037227424 -0.07011572
0001b0 40 a5 08 bd 15 bf b8 bc ac 48 2c 3c c0 f9 6f 39
       -0.03336072 -0.022552053 0.010515373 0.00022885855
0001c0 a4 0f e5 bc 30 c0 fa 3c 3b d3 a7 3c 4d 92 73 bd
       -0.02796156 0.03060922 0.020486465 -0.059465695
0001d0 23 25 1d bd cc 94 36 bd a4 e5 a4 bd de d0 b6 bb
       -0.038365494 -0.044575498 -0.08051613 -0.005579098
0001e0 cc 2f c8 bc f2 71 f5 bd d1 df 35 bd 49 b6 16 3d
       -0.024436854 -0.11984624 -0.0444029 0.036794934
0001f0 73 8e 8c 3d bc 59 24 bd 1c 0e c8 3d a5 64 f9 3c
       0.068631075 -0.04012464 0.09768316 0.030443499

network_body._body_endoder.seq_layers.2.weight f4 [128, 128]
000000 40 b7 32 3c 80 97 5d 3d e0 76 72 bd f7 4c b6 bb
       0.010907948 0.05409956 -0.0591954 -0.005563374
000010 31 4d 56 3e d8 e7 c9 3d 04 f2 d1 bd df 15 88 3d
       0.20927884 0.09858674 -0.10251239 0.066447966
000020 99 68 61 bd 80 12 aa bd 9d 28 0a bd e6 ee 61 3c
       -0.055031393 -0.0830431 -0.033730138 0.013789868
000030 c4 d4 ce 3c bc ea 5c be 53 4b 24 3c 36 0a ce 3d
       0.025247939 -0.21573919 0.010027724 0.10060541
000040 69 61 f5 bd 2d 07 8c be 27 58 aa 3b 25 47 66 bd
       -0.1198147 -0.27349225 0.005198497 -0.056220192
000050 9b 81 8b 3e e8 75 89 3d 0d b6 7c 3d e4 4f 50 3d
       0.2724732 0.06711942 0.061697055 0.05085744
000060 34 24 a9 3d 58 cd 88 bd d8 b7 dc 3d 65 50 87 3c
       0.08258858 -0.06679791 0.10777253 0.016517827
000070 55 32 19 be c7 96 cd 3c e9 ad 4e bc 98 bb b3 bd
       -0.14960606 0.02509631 -0.012614706 -0.08776015
000080 1a 37 74 bc 77 d2 08 3e 7e 85 10 be c7 a5 44 ba
       -0.014905715 0.13361536 -0.14113423 -0.00075015094
000090 d7 ac 28 be 7d 10 f6 3c db 23 b3 3d 6c cf 03 3e
       -0.16472183 0.03003716 0.08747073 0.12872094
0000a0 de e9 3a 3d 5e e1 00 be 5a 63 cd bd d0 c2 06 be
       0.04563319 -0.12585971 -0.100287154 -0.13160253
0000b0 a4 a6 0f 3b 38 0b 9d 3d 0e de 56 3e 53 fd 60 bd
       0.0021919394 0.076681554 0.20983145 -0.05492909
0000c0 50 e1 6f 3d ba 85 a6 bc 2e ba 79 bd 50 56 62 3e
       0.058564484 -0.020327438 -0.06096857 0.22103238
0000d0 91 aa d7 3c 8b 1f 2a 3d eb eb 46 3d fa 4d d9 bc
       0.02632645 0.041533988 0.048564833 -0.02652644
0000e0 ac 29 67 bd a3 91 19 3e fb ac 0f be d2 fa 1a be
       -0.056436226 0.14996962 -0.1403083 -0.15134743
0000f0 cc af fc bb 51 eb 9a 3c 1d 8d 1c be d0 b4 c6 3d
       -0.0077113863 0.018911036 -0.15288205 0.09702456
000100 6d e5 43 bd 3c f4 5d 3e 0a c4 02 be 85 d1 56 3e
       -0.04782622 0.216752 -0.12770095 0.20978363
000110 31 eb 8f 3d 37 45 a8 3d 3f ce e4 3c 93 83 26 bd
       0.07027281 0.08216327 0.027930377 -0.040652823
000120 68 ed 23 be c7 b5 9f bd d9 12 22 be d5 98 99 bc
       -0.16008532 -0.07798343 -0.15827502 -0.018749634
000130 0f 3c c1 3d 33 dc 91 3d f9 98 43 3e 1b 3e 83 3e
       0.094352834 0.07122078 0.19101323 0.2563332
000140 1f e2 a8 3d 2c 20 34 be 80 55 18 3d 68 ed cb bc
       0.08246254 -0.17590398 0.037190914 -0.024893478
000150 80 ec 96 bd c1 41 e5 3d f0 44 ce bd 65 c3 ca bd
       -0.073693275 0.11194182 -0.100717425 -0.0990055
000160 51 71 be bc c4 43 5e 3d 5e 24 55 3d c0 83 cc 3e
       -0.023247393 0.054263845 0.052036636 0.39944267
000170 d9 4d c2 3d b5 b9 37 3d 68 f8 94 3e 4f 75 08 3c
       0.094875045 0.04485484 0.2909577 0.00832875
000180 be 61 d5 3d 68 41 9d bd d9 1f 24 be e0 03 03 bd
       0.104190335 -0.07678491 -0.16027774 -0.031986117
000190 45 d8 43 bd a0 fb 82 bd 78 39 eb 3d 66 23 cb 3d
       -0.047813673 -0.0639565 0.11485571 0.09918861
0001a0 be c8 7c be d6 e3 f4 3a 6a f3 5e 3d 2c 6c 1b 3e
       -0.24685952 0.0018683623 0.054431356 0.15177983
0001b0 6e 21 c2 3d 3a 0f 9e bd ca 8d 7b 3d 25 a8 34 3a
       0.094790325 -0.07717748 0.061414517 0.00068915106
0001c0 29 78 4f 3d 1a 03 2a bc f4 4b 31 bd 63 6e 11 3d
       0.050651703 -0.010376716 -0.043285325 0.035505664
0001d0 9d 69 95 3d 5b 03 58 3d 78 b7 96 be c5 90 1e 3d
       0.07295535 0.052737575 -0.2943685 0.03871228
0001e0 38 d4 81 bd 5e 09 ea 3d 0d 96 5c 3e f6 10 13 3c
       -0.06339306 0.11427568 0.21541615 0.008976212
0001f0 05 d0 0c be 3a 12 4d 3e 75 31 7a 3d 7d 7b a5 bd
       -0.13751228 0.20026484 0.061082322 -0.08080194
000200 f0 cd 5d bd 2e 11 03 3e 97 45 b8 bd 0f c7 36 3e
       -0.054151475 0.12799522 -0.08997648 0.17849372
000210 61 fa cf ba dc 44 06 3e 68 6d 47 bd d0 88 fd 3d
       -0.0015867465 0.13112205 -0.048688322 0.123796105
000220 0f 5f d1 3d ed e1 51 be 7b 5e 20 be 90 89 aa bc
       0.10223209 -0.2049634 -0.15661041 -0.020817548
000230 14 7a 04 3e 6f 7b d6 3d a2 0c 84 bd df ea e4 3d
       0.12937194 0.10472762 -0.06447722 0.111776106
000240 aa 73 d0 bc e9 84 32 3e 4a fe 3d bd 9d 84 8c bc
       -0.025445778 0.17433514 -0.046385087 -0.017153079
000250 cf 6a 16 3e 60 1f b9 bc fe 12 30 3e 74 7e ea 3c
       0.14689182 -0.022597969 0.17194745 0.02862475
000260 e3 36 0c 3e 70 d0 b3 3c a0 ab e7 3d 88 de 03 be
       0.13692813 0.021949977 0.11312032 -0.12877858
000270 09 9a 4c 3c 8f 50 ea 3c 1c da 17 be 9f e1 82 3b
       0.012487897 0.028602866 -0.14829296 0.0039941813
000280 f0 07 42 3d a9 b0 1c 3d 35 b2 b3 3d 4d d7 11 3e
       0.04737085 0.038254414 0.08774225 0.14242287
000290 6b 9d 02 be 77 10 d6 bd 5e ce 4d 3e d6 b2 26 be
       -0.12755363 -0.10452359 0.20098254 -0.16279158
0002a0 b1 fd 09 bb 17 d9 e3 bc 08 ff 30 3d fd 77 ca bd
       -0.0021055753 -0.027813477 0.043211967 -0.09886167
0002b0 5b 98 25 3e 36 03 6b 3b c2 b4 e8 3d 18 b5 67 bd
       0.161714 0.0035860068 0.11362602 -0.05656919
0002c0 01 08 ad ba 91 e6 07 3b f3 40 b1 bc de 42 1e 3e
       -0.0013201238 0.0020736794 -0.021637416 0.15455195
0002d0 16 45 f1 3d df f3 3d 3d b5 ac 04 3e 57 c7 3c 3e
       0.11780755 0.04637515 0.12956508 0.18435417
0002e0 4c a0 9b 3c 14 7a 2d bd dc 96 6f be 4e e9 8e 3d
       0.018997334 -0.04235275 -0.23397392 0.06978093
0002f0 75 a0 d0 3a 82 55 7b 3d cb 47 eb bd d3 2a 62 be
       0.001591696 0.061360843 -0.11488303 -0.22086649
000300 2d 04 03 3e 4a 7c e2 bd 61 e4 cd bd b9 ac 18 3e
       0.12794562 -0.110588625 -0.100533254 0.14909638
000310 75 ed 0e 3e 86 08 c1 bd 5e cd 0c 3c b3 ea 15 3e
       0.1395777 -0.09425454 0.008593885 0.14640312
000320 43 dc f8 bd 1b ae dc bd e0 5b 19 3d 1b fb 38 be
       -0.121513866 -0.107753955 0.037441134 -0.18064539
000330 08 05 a1 3d ba 88 df 3d 49 25 7c bc 92 00 55 3c
       0.07862288 0.109147504 -0.015389749 0.013000624
000340 ae 08 da bd 81 3d 97 3d d1 43 b8 bc 81 9d f2 3d
       -0.10646187 0.07384778 -0.022493275 0.11846448
000350 45 c5 1d bd 70 42 52 be bf f7 80 3d 53 5a 87 bd
       -0.03851821 -0.20533156 0.06297254 -0.06609025
000360 10 a5 c1 bd 2b 67 c1 bb 69 57 22 3d 60 6f 74 3d
       -0.09455311 -0.005902191 0.039634142 0.059676528
000370 bf 39 08 3d 27 a9 21 3e d6 47 32 3e 94 46 93 3d
       0.033258196 0.15787183 0.17410216 0.07191196
000380 6f 34 86 ba ab b0 21 3e 5e b8 4a bc 6e 2a 81 bd
       -0.0010239015 0.1579005 -0.012373058 -0.06306921
000390 72 f0 ae 3d 91 5c d5 3c 0b 89 6c 3e 49 47 89 bd
       0.08541955 0.026045116 0.23099153 -0.0670305
0003a0 a8 09 22 be e4 1f 00 be 69 c6 4f bc 06 9e 70 3d
       -0.15823996 -0.12512165 -0.012681582 0.058744453
0003b0 89 b3 12 be 72 de 20 bb 6f 66 c3 bd 6c 5f 9f 3d
       -0.143263 -0.002454665 -0.09541022 0.07781872
0003c0 ed 1a be 3d 6d ce c3 bd 6c da f1 bd 65 13 07 bd
       0.092824794 -0.09560857 -0.11809239 -0.03297748
0003d0 3c d7 b0 3c 7a 9c de bd 3e 5c f9 bd f2 e5 94 3d
       0.021587007 -0.10869689 -0.12175797 0.07270421
0003e0 8e cb bd 3d 35 d5 1e 3d 8a dc 43 3d 30 9e a9 bd
       0.092673406 0.03877755 0.047817744 -0.08282125
0003f0 2b 1f a7 3c 33 22 39 bd fe 7b 77 bd 68 d1 1c bc
       0.020400604 -0.04519863 -0.060420983 -0.009571411

network_body._body_endoder.seq_layers.2.bias f4 [128]
000000 c9 82 a0 bc ad 8a f0 bc 60 30 1d bd ec f2 94 3c
       -0.019593613 -0.029363 -0.038376212 0.01818224
000010 2a 8e 75 bc 9a bd cd bb 3d 79 6c bd 0c 61 40 bd
       -0.014987508 -0.006278706 -0.05773281 -0.04696755
000020 22 21 ab bc 13 22 7f bc 86 28 c1 3c b5 7d fe bb
       -0.020889822 -0.015572089 0.023578893 -0.0077664503
000030 54 a7 d1 bc e7 e8 d5 bc 18 e1 79 bd 59 5c fb bb
       -0.025592484 -0.026112033 -0.06100568 -0.007670921
000040 53 82 fd bc 90 40 6d bd 5f 94 24 3d 35 d9 ad bd
       -0.030945932 -0.0579229 0.04018056 -0.084886946
000050 63 fe 33 bd 31 c7 82 bd 70 76 5d bc ae 64 29 bc
       -0.043943774 -0.06385649 -0.013517007 -0.010338945
000060 53 c7 86 bd 88 76 09 bd a4 70 3b bd ae 9d 68 bb
       -0.06580987 -0.033560306 -0.04576172 -0.0035494375
000070 d7 ce a3 bc eb a3 b3 bc 81 10 cf bd bb a4 40 3c
       -0.01999609 -0.021928748 -0.1011057 0.011758025
000080 ae 2c 81 3b 8e aa 68 3b 9a eb 3e bd a1 96 3f bd
       0.003942094 0.003550205 -0.046611406 -0.04677451
000090 33 9b 63 bb e6 e4 81 3d 37 44 a0 bc 1d 7b 61 bd
       -0.0034729957 0.06342487 -0.019563777 -0.05504905
0000a0 b7 95 48 bd 46 9c 8b bd 6f 9e 7e ba c9 d1 09 bc
       -0.048970904 -0.06816916 -0.00097129395 -0.008411833
0000b0 ba 4f 13 bd 45 8a 60 bd 8d a9 8b bc 4f e9 0b 3d
       -0.035964705 -0.054819364 -0.017048622 0.034158047
0000c0 fd 96 b9 3a cd 31 0f bc a9 8a 12 3c 9c 7a 0f 3a
       0.0014159378 -0.008739901 0.008944192 0.00054732873
0000d0 74 cb a6 bd b9 dd ab 3c 60 a3 fb bd 8b 3e 21 be
       -0.08144274 0.020979749 -0.12287021 -0.15746514
0000e0 68 50 55 bd 61 9c 1f bd 7b 97 48 bd 6f 8b 52 bd
       -0.052078635 -0.038967494 -0.048972588 -0.051402505
0000f0 d5 da 87 bc 45 5f f0 bc 99 06 7f 3c 66 2c 53 bd
       -0.01658384 -0.029342303 0.015565538 -0.051556014
000100 6e 77 16 3c f7 5c 1c 3d 72 8c 03 bd 5a 63 67 3c
       0.009183748 0.038174596 -0.03211636 0.014122808
000110 15 1b 8a bc e3 9b c6 bd 71 8e 59 3b 8c c1 be bd
       -0.016858617 -0.09697702 0.0033196474 -0.0931426
000120 24 1a a1 bc cd d1 3f bd f0 d7 28 bd a4 97 57 bd
       -0.019665785 -0.04683094 -0.04122156 -0.05263485
000130 e7 a7 b4 bc 37 4b a9 bc a6 cc 43 bd d9 f0 01 bc
       -0.022052718 -0.020665748 -0.04780259 -0.007930958
000140 ff 6f 93 bc 43 2d ef bc 81 e3 4c bd 91 66 b0 bc
       -0.01799774 -0.029196387 -0.050021652 -0.021533282
000150 d5 01 cc 3c 51 9d 12 bd 73 94 35 bd 8e fe ef bc
       0.024903217 -0.03579456 -0.044331025 -0.029296186
000160 b5 04 a2 bd bc 57 0f 3d bc f7 28 bc e0 1b 54 3a
       -0.07911054 0.03499578 -0.010312971 0.0008091312
000170 4d 92 f9 3b bb 53 16 bd 01 9a 24 bd e3 2e 41 bd
       0.0076163174 -0.036700945 -0.040185932 -0.047163855
000180 db 4f 0f bc e3 4d 93 3c f6 d6 fc bb 35 41 62 bd
       -0.008747066 0.017981475 -0.007716055 -0.055237968
000190 d3 8f cf bc 4c 79 aa bd 09 78 4f bc 7e c5 95 bc
       -0.025337135 -0.08323917 -0.012662896 -0.018282648
0001a0 a5 04 26 3c 0b 2a af bd 02 6d 41 3c 25 fc 0e bd
       0.010132943 -0.08552941 0.011805775 -0.034908433
0001b0 2e c3 e3 bb 38 fc 6c bd 1a 23 87 bc 41 f3 2e bd
       -0.0069507575 -0.057857722 -0.01649623 -0.042712454
0001c0 82 67 ed bc 93 ae 49 bd e5 27 03 bd 43 8f 97 bc
       -0.02898002 -0.049238753 -0.03202047 -0.01850093
0001d0 7e 6e 84 bc 64 5b 09 bd 13 db 12 bd 87 34 8d 3c
       -0.016165968 -0.033534423 -0.035853457 0.017236961
0001e0 31 0e 32 3c 08 bc 8c bd 8b 91 12 bd b9 a4 17 bd
       0.010867641 -0.068718016 -0.03578333 -0.037022326
0001f0 2f a5 b9 bd 70 4c 7f 3c 5e 47 92 bd fb 83 8e bc
       -0.090647094 0.015582189 -0.071425185 -0.017396918

action_model._continuous_distribution.log_sigma f4 [1, 4]
000000 c1 c2 b3 be e3 ef df be db 8d b4 be 34 4d ba be
       -0.35109523 -0.43737707 -0.35264477 -0.36387026

action_model._continuous_distribution.mu.weight f4 [4, 128]
000000 a0 9d f5 3d e6 52 81 3d 8b 08 f1 bc 0d ca 88 bd
       0.11992955 0.0631464 -0.029423019 -0.06679163
000010 94 3b 64 3d a6 81 e5 3c d6 66 18 bd bf f4 5e 3d
       0.05572088 0.028015923 -0.037207447 0.054432627
000020 c1 cb 0d 3d ba ad 0a 3d ca 7f 1f 3d 30 eb 29 bd
       0.034618143 0.033857085 0.03894023 -0.041484058
000030 1f e0 41 3d 15 9a eb 3d 52 d1 0f bd eb 36 2f 3d
       0.04733288 0.11503998 -0.035111733 0.042776983
000040 4d 71 60 3d 70 a7 e5 bc cf 6d 0d 3d e3 d0 18 3d
       0.054795552 -0.028033942 0.03452855 0.037308585
000050 0c d5 6e bd 92 ad 43 3d c8 76 56 3d d0 51 54 bd
       -0.058308646 0.04777295 0.052359372 -0.051835835
000060 7f 46 c5 3c d9 87 a1 3c d7 0e 9a bb 8f 69 d5 bc
       0.024081467 0.019718098 -0.004701476 -0.02605131
000070 f1 dc 0c bd 73 dc f4 3c 42 fc f0 3c 03 1c 1d 3d
       -0.034390394 0.029890275 0.02941716 0.038356792
000080 d8 cf 87 3d fe 27 29 bd 4c 23 7a bc 77 ac 51 bc
       0.0663144 -0.041297905 -0.0152672045 -0.0127974665
000090 1e 4f ad 3c be fd 81 bd fc fa cf 3c a8 86 e2 3c
       0.02115589 -0.063472256 0.025388233 0.0276521
0000a0 e9 75 7c bd 2c 1a 11 bc ab 46 16 3d b1 c9 c4 3d
       -0.061635885 -0.0088563375 0.036688488 0.09608782
0000b0 32 9c 70 3d e5 18 54 3d 94 fd 03 bd 31 6f 8c 3d
       0.05874271 0.051781554 -0.032224253 0.068571456
0000c0 75 a0 90 bd 66 d7 9e 3c bc 5b 8a 3d 1f a0 8f bd
       -0.07061855 0.01938982 0.06755778 -0.070129625
0000d0 97 1e cb 3c 8e 71 bd bd 9e fa 98 bb 78 a6 22 3d
       0.02479486 -0.092501745 -0.004668548 0.03970954
0000e0 8d 1f d5 bc fd 63 18 3c 6e 09 9a 3d 7b 8b a5 3c
       -0.026016021 0.009301183 0.0752133 0.020208111
0000f0 32 2a 9d 3d 97 d3 e7 3b 2f 8e d2 3d e5 96 7c 3c
       0.07674064 0.007074784 0.102810256 0.015416835
000100 3a 36 48 3c fe bf 88 3d e5 85 b1 3b 80 ec c5 bd
       0.01221996 0.066772446 0.005417573 -0.096642494
000110 1f c5 6d 3d da 12 1e 3b 74 cb be 3d ed 11 02 bc
       0.058049317 0.0024120123 0.09316149 -0.007938844
000120 82 71 9e 3d ff 8d 94 bc e1 ea 1c 3d c6 4e 68 bd
       0.07736494 -0.018134115 0.038309935 -0.05671575
000130 98 74 16 bd 57 07 99 3d 47 61 85 3d 7a 05 b0 3d
       -0.036732286 0.07472103 0.06512695 0.085947946
000140 c5 3c a4 bc 86 4f d3 3d c3 ab 3a 3c c2 c6 ca 3b
       -0.020048508 0.10317902 0.01139349 0.0061882446
000150 03 5c 83 3d e1 43 b5 bc ff fb aa bd c1 33 37 bc
       0.06414034 -0.022127094 -0.08348846 -0.011181773
000160 7f 48 3e 3d b8 cc a8 3d f9 17 42 bd d4 33 b5 3d
       0.046455856 0.08242172 -0.047386143 0.08847776
000170 9a 38 60 3d 85 78 4c 3d 1e c4 76 3c fe ae 21 3d
       0.05474148 0.049919624 0.015061406 0.039473526
000180 ba c6 83 3d c6 23 2f bd 29 73 6e 3c bc 51 7a bc
       0.064343885 -0.042758726 0.0145538235 -0.015278276
000190 1f fd 83 3d fb f6 01 bc be 32 8a 3d b8 c1 c0 3b
       0.064447634 -0.00793242 0.067479596 0.005882468
0001a0 ee 73 13 bd a3 6e 0e 3d be 7b 69 3a 7c 1e 92 3d
       -0.03599923 0.03477348 0.00089066837 0.07134721
0001b0 c4 9e e7 bc d7 37 8e 3d 15 43 84 3d 92 28 22 3d
       -0.028273948 0.06944244 0.064581074 0.039589472
0001c0 cb 11 8c bc 43 fa f8 3c 7d d6 93 3c a7 0a d2 3c
       -0.017098328 0.030392772 0.018046612 0.025639845
0001d0 45 c6 47 3c c0 9a a3 3c 64 2c 6d 3d 8a 56 1e bc
       0.012193267 0.019971251 0.057903662 -0.009664187
0001e0 8c 3a 95 bd 77 6e a8 3d f3 eb 5e bd bf 85 1b 3c
       -0.072865576 0.082241945 -0.054424237 0.009492337
0001f0 4c b6 3f 3b d8 5c aa bd 95 74 11 bc 55 76 9d 3d
       0.0029252945 -0.0831849 -0.008877893 0.07688586
000200 d8 aa 1b 3c 1c 22 b0 bc e4 0d cc 3c 0a aa 8b bd
       0.009501182 -0.02150064 0.024908967 -0.06819542
000210 d0 a9 50 3d b2 fa 90 ba d6 54 7e 3d 8c 36 a8 3d
       0.050943196 -0.0011061041 0.062092625 0.08213529
000220 fe 39 e0 3b 28 f1 e0 3c f9 bd 79 3d 4f 6f 72 bd
       0.0068428507 0.027458742 0.060972188 -0.059188183
000230 8b 95 c7 3c a9 25 23 bd fc a2 e7 bc 32 54 07 bd
       0.0243633 -0.039830837 -0.02827596 -0.03303928
000240 f3 94 4c bc 1a 47 62 bd 1a 13 2e bc 55 66 0c bc
       -0.012486684 -0.05524359 -0.010624671 -0.00856932
000250 ba eb 7a bd c1 a3 1f 3d d3 0d a2 3c d4 d1 6c bd
       -0.061259963 0.038974527 0.019781983 -0.057817295
000260 dd b3 ba 3c b7 a0 2d bd f9 fd de 3c a9 77 ad bc
       0.022790844 -0.042389598 0.027220713 -0.021175222
000270 af 31 9a bd 89 0e 2d 3d 1f 68 b1 bc 0e cf 0a bb
       -0.07529008 0.04225019 -0.021656094 -0.0021180543
000280 9e dc 66 3d 91 be 8a 3c 73 92 2f bd d1 77 38 bc
       0.05636274 0.016936572 -0.042864274 -0.011259035
000290 b8 8e 0b bc 2b 64 c5 bc 89 c7 f3 3b c2 b5 96 3c
       -0.0085179135 -0.024095615 0.007439558 0.018397216
0002a0 95 cd ee 3c d9 0e 36 3c 6d d6 1f 3c 79 f6 20 3c
       0.029150764 0.011111938 0.009755713 0.009824389
0002b0 a1 39 9d 3d 77 40 3d 3d 4a b9 b3 bc c4 ef 68 3c
       0.076770075 0.046204057 -0.021938939 0.014217321
0002c0 51 f9 49 bd b4 72 fe bc c7 16 46 bc 40 08 a8 bb
       -0.049310032 -0.031060554 -0.0120903915 -0.0051279366
0002d0 1f 7c 83 3c 4a 93 41 bd 9f df 81 3c 8c 02 de bc
       0.016050396 -0.047259606 0.015853701 -0.027100824
0002e0 77 bc 14 3d d6 83 da bc 4d 2e ab bc 3f 53 62 3d
       0.036312547 -0.026674192 -0.020896101 0.05525517
0002f0 a2 d1 75 3d 04 48 c6 3c 86 ab bc 3c c1 25 09 bd
       0.060014375 0.024204262 0.023031007 -0.03348327
000300 c2 b0 e0 3c 28 26 1b 3d cb 6c 7d 3c 94 f4 32 3c
       0.027428035 0.037878186 0.015467833 0.01092257
000310 ca 61 25 3d f4 c1 5b bc 2a ac 16 3d c4 37 9a bc
       0.040376462 -0.013412941 0.036785282 -0.01882542
000320 35 c1 f7 bc 25 3c 06 3d 1e b2 8a bc 8e 26 f1 bc
       -0.030243495 0.032772202 -0.016930636 -0.02943733
000330 1a 01 7d bd 3c 14 80 3b 61 76 73 bb c1 d5 84 3d
       -0.06176863 0.003908662 -0.0037149417 0.06486083
000340 e5 1a 17 3d 5c ed 6c bd 9e d6 44 3d a8 30 dc bc
       0.036890883 -0.05784355 0.048056237 -0.02687867
000350 15 e5 2c 3c e3 71 de bc 6e 6a cc 3c 1b 44 31 bd
       0.010552664 -0.027153915 0.024953093 -0.04327784
000360 dd 5e cb bc 5c 06 db 3c 53 a2 08 bc af 85 c3 ba
       -0.024825508 0.02673643 -0.008339482 -0.001491716
000370 d2 16 d1 3c bb 89 fe 3c 85 b7 e1 3b aa 3c 02 bd
       0.025523577 0.031071534 0.0068883323 -0.031796135
000380 9d 9c 97 3c 3a 60 c7 3c 3c e2 ba 3c db ab 43 3c
       0.018507296 0.024337877 0.022812955 0.011942829
000390 52 24 0a bc 13 9d 2a bd 63 0b 5a 3d a0 78 ea 3c
       -0.008431511 -0.041653704 0.053233515 0.028621972
0003a0 31 5c a5 bd e8 18 b2 3c ba 75 22 3d 95 a7 9f 3c
       -0.08074225 0.021740392 0.039663054 0.019489089
0003b0 da 1d 93 bd 6d 86 48 3b 31 df ac 3b 25 02 0b bd
       -0.07183428 0.0030597702 0.00527563 -0.033937592
0003c0 a4 b1 2a bd bb b1 0d 3d ab 4a 21 3d 6f 5b 22 3d
       -0.041673318 0.034593325 0.03937785 0.03963798
0003d0 d5 59 b5 3c 94 e9 dc 3c b3 94 7b 3c d3 32 07 bc
       0.022137562 0.026966847 0.015355277 -0.0082518635
0003e0 12 c5 1f 3d 77 03 e1 bc fb 80 9b bc 82 2b 7d 3c
       0.0390063 -0.027467472 -0.018982401 0.015452268
0003f0 10 11 bb 3a f4 46 7a bd 4a 0e 05 bd a9 df e9 bc
       0.0014272053 -0.061102822 -0.03248433 -0.028549032

action_model._continuous_distribution.mu.bias f4 [4]
000000 06 a9 0f 3c 09 47 1e 3c 80 be 05 3d 43 de d7 bb
       0.008768326 0.009660491 0.032652378 -0.006587775
